p1_navigation/checkpoint.pth (torch_old, 28423 bytes, 6 tensors)

fc1.weight f4 [64, 37]
000000 2e 83 57 be 73 7b c3 3c 55 bb 2d 3d 25 a6 2c bd
       -0.21046135 0.023862576 0.042414982 -0.042150635
000010 58 84 4b 3e ea ed b8 bc d0 dd 89 bd c2 cc 8e be
       0.19874704 -0.022574384 -0.067317605 -0.27890593
000020 92 eb 06 3e d2 ea a2 3e 81 cd a2 be 6f ec 31 3e
       0.131758 0.3181978 -0.31797412 0.17375349
000030 d6 1d ea 3d 02 32 83 3d ad d6 fa 3c 6f c3 ea bb
       0.11431472 0.064060226 0.030619944 -0.007164411
000040 96 87 ac 3d b1 b7 32 3e b6 d4 97 3d f1 1f 24 3c
       0.084242985 0.17452885 0.07413618 0.010017381
000050 1a 74 db be af 29 4f 3e f0 4f 02 3e 60 b2 c9 3d
       -0.42862016 0.20230745 0.12725806 0.098484755
000060 e8 9a 48 be f9 c5 ea bd a4 d6 0d 3d 1e 78 37 3d
       -0.19590342 -0.114635415 0.034628525 0.044792287
000070 16 25 09 3e d7 48 5c 3e d1 85 ba be 15 49 2f 3d
       0.13393053 0.21512161 -0.3643022 0.042794306
000080 2c 9c fd 3d 44 e0 10 3e dc aa cb 3d 6e a8 8b bd
       0.12383303 0.1414805 0.09944698 -0.06819235
000090 08 9c 67 bc 9e c6 68 3c 2a 00 e0 3d d5 95 2c 3e
       -0.014136322 0.01420751 0.10937531 0.16854031
0000a0 cd b7 fc bc f5 29 97 be 69 63 48 3e a5 ea 0c 3e
       -0.030849362 -0.29524198 0.19569172 0.13761385
0000b0 fc 12 29 be 25 d6 34 be dd 92 01 bf b8 5f f9 3d
       -0.16511148 -0.17659815 -0.5061472 0.1217646
0000c0 72 a1 a7 bc 4e cf 0e 3e 58 e4 a2 3d 93 cb ad 3e
       -0.020462725 0.13946268 0.07953709 0.33944377
0000d0 d5 fb c8 bd 7a c0 28 bd bd 56 01 3e f7 44 b1 3d
       -0.09813658 -0.041199185 0.12630744 0.08655732
0000e0 e1 3f 21 3e 9b 01 2e 3d 5c 91 7a 3d 35 18 0f 3e
       0.15747024 0.042482 0.06117378 0.13974078
0000f0 ce 55 05 3e 80 51 a6 3e 5a e6 1a bb 2a 89 03 3e
       0.13021013 0.32484055 -0.0023635835 0.12845293
000100 6b a9 41 3e 8a c5 8d 3e b1 e0 00 3f 00 13 d0 3d
       0.18912284 0.27689773 0.5034285 0.10159874
000110 41 55 c8 bb d3 98 97 bc 0a 0d ed 3d fd 7e f4 3d
       -0.0061136787 -0.01850549 0.11574753 0.119382836
000120 f8 5c 41 bd f7 76 dd ba 6b d4 58 be aa da 1c bf
       -0.047207803 -0.0016896416 -0.21174781 -0.61271155
000130 28 81 8f 3e ef 73 e6 bc 98 b8 31 bd b9 5a 34 3c
       0.28028226 -0.028131453 -0.043388933 0.011007958
000140 c6 20 1a bd f2 66 0a 3d f0 52 af be 33 b7 bc bc
       -0.03762891 0.033789583 -0.34242964 -0.023036575
000150 7b e6 a9 3e 84 02 9d be 16 fd 27 bf a2 00 9a bd
       0.33183655 -0.30665982 -0.65620553 -0.07519652
000160 5f 40 4e be a0 c2 15 be cb 14 bf bd d9 58 d6 3c
       -0.20141743 -0.14625025 -0.09330138 0.026165413
000170 02 81 e1 be c3 73 9f be 81 cb d6 bc 4b 08 a8 be
       -0.44043738 -0.31143007 -0.026220085 -0.32818827
000180 72 bc 81 be bc 05 aa 3d 3a 7f f1 be 2f 2e fa bd
       -0.25339085 0.08301875 -0.4716738 -0.1221584
000190 c5 44 96 bc dd bb 08 3d 27 06 9c be e3 b5 bf 3c
       -0.018343339 0.033382285 -0.30473444 0.02340216
0001a0 fb 32 5d be 3a 9d 36 bd ed 02 ee be 9a 62 8e 3e
       -0.21601479 -0.044583537 -0.46486607 0.27809602
0001b0 9b 99 74 bd b1 f3 2c 3e 3d a4 36 bd 8a 16 0a 3d
       -0.059716802 0.16889836 -0.044590224 0.0337129
0001c0 8e 17 a9 3d a0 fe 94 3d fc d2 2a 3e 5b b9 fb 3d
       0.08256446 0.07275128 0.16682047 0.12291213
0001d0 35 fa 37 3e f2 b7 73 3e 76 07 ad be 1f 63 99 be
       0.1796654 0.23800638 -0.33794755 -0.29958436
0001e0 66 48 69 bf ab 1e 12 3e 12 f1 bf 3d da f6 b3 3d
       -0.91126096 0.14269511 0.093721524 0.087873176
0001f0 87 6e 4e 3d ef 3c 02 be bb a2 20 3e 50 2c f2 3c
       0.050398376 -0.12718557 0.15687077 0.029562145
000200 37 f2 0e bd 81 7c f4 bc 52 34 49 be 79 df 78 3c
       -0.034898963 -0.029844524 -0.19648865 0.015189999
000210 79 ad 8c bd 0e bf 03 be 90 0e 4a 3b b7 40 2a 3d
       -0.06869025 -0.1286585 0.0030831434 0.041565623
000220 7a 63 1d 3e 9b a9 6d 3d 9b b8 83 3d 00 0e 2a 3e
       0.15369979 0.058023077 0.06431695 0.16606903
000230 37 68 e2 3d 82 a2 2a 3e a8 a3 90 bc 49 91 b8 3d
       0.11055034 0.16663554 -0.017656162 0.09012086
000240 8b 92 8e bd 5e 84 be bd 2b fd e4 b9 90 e3 a2 bb
       -0.069615446 -0.09302591 -0.00043676174 -0.004970975
000250 8c 0e 5b 3e ad 09 02 bf 25 32 80 be 96 7f 7f be
       0.21392268 -0.50796014 -0.25038257 -0.24951014
000260 8a 03 83 bd 2d d1 c0 3d cd fc e4 be de 48 b2 be
       -0.063971594 0.09414897 -0.44724122 -0.34821218
000270 13 3d fd bd 0d ed 4d be f6 b5 44 be 2b d5 8e 3e
       -0.123651646 -0.20109959 -0.19210038 0.2789701
000280 42 28 b6 bd 85 35 be bd 1d 7f 7e 3a 9a ed 04 bd
       -0.08894397 -0.09287552 0.00097082724 -0.032453157
000290 e2 bb db bd 72 24 f7 be bc 1b fe 3d 05 ad 17 3e
       -0.10729195 -0.48269993 0.12407634 0.14812095
0002a0 24 8d 31 3d 19 bb d1 be 8c 95 04 be 83 0f 23 3d
       0.043347493 -0.40963057 -0.12947673 0.039809715
0002b0 df ee 9a be 6e a8 88 3c 4c a9 e9 bd cc 24 ff bc
       -0.3026037 0.016681876 -0.11409244 -0.031145476
0002c0 be db 04 bf b2 b9 43 bd 7c 18 2e bc af 65 19 bf
       -0.518978 -0.047784515 -0.010625955 -0.5992078
0002d0 d3 64 ee bb c8 63 85 be ab b6 a7 3d a6 58 ad bd
       -0.007275203 -0.2605269 0.08189138 -0.08464174
0002e0 fd a1 61 bc 78 7f f0 bd 57 67 30 be 04 28 bc 3d
       -0.013771531 -0.11743063 -0.17226921 0.0918732
0002f0 39 1c 25 bd 98 b1 c6 be 9a f9 ea 3c 29 fe 82 be
       -0.04031012 -0.38807368 0.028683472 -0.25584534
000300 e0 14 55 bd 56 74 d2 be 89 26 0e be cb 99 d4 3c
       -0.05202186 -0.41104382 -0.13881887 0.02595224
000310 c8 67 d9 be c5 2f ef bd e2 56 2f be d0 bf cd 3b
       -0.4246199 -0.11679033 -0.17122987 0.0062789693
000320 65 d6 48 be 7c 6f d5 be a6 e8 09 3e 91 5a d2 be
       -0.19613035 -0.41686618 0.13467655 -0.41084722
000330 2d 12 ce be 8b 09 18 3e e4 2e 48 be d4 a8 89 be
       -0.40248242 0.1484739 -0.19549137 -0.26886618
000340 5d a6 b1 3d ad e7 ae be 93 8f d0 be 99 c1 99 be
       0.086743094 -0.3416113 -0.40734538 -0.30030516
000350 f5 c1 ac bd 05 60 8a 3e 03 ef 08 bf d5 17 b4 be
       -0.08435432 0.27026382 -0.534897 -0.35174432
000360 38 6c a1 3e a4 53 3c be f5 d6 cf bc 23 31 ea 3c
       0.31527877 -0.18391281 -0.025371054 0.028587883
000370 35 84 79 3e ad 40 fc bc 10 86 33 be a3 9e 0b be
       0.24366839 -0.030792559 -0.1753161 -0.13634734
000380 de 99 65 3d 89 71 77 be d0 dd 98 be 31 79 01 bf
       0.056054942 -0.24164404 -0.2985673 -0.5057555
000390 8c f4 75 3e 50 c1 85 3d 84 6b 06 bf 12 19 24 bf
       0.24019068 0.06531012 -0.52507806 -0.64100754
0003a0 75 38 b7 3d 83 07 cd bd 13 35 de bd 46 a1 53 be
       0.08946315 -0.10011198 -0.10849967 -0.2066699
0003b0 dd 10 85 bd 76 12 0f be b0 0d 9a be c0 73 b0 bc
       -0.06497357 -0.13971886 -0.30088568 -0.021539569
0003c0 7b 85 db be 91 dc 13 be bc 38 a6 be 08 20 a9 3d
       -0.42875275 -0.14439608 -0.3246516 0.082580626
0003d0 b6 e9 38 3e 90 53 1f be 9f 66 c2 be 62 b0 32 be
       0.18057904 -0.1555922 -0.3796892 -0.17450097
0003e0 8e 22 48 bd bd ee f2 3c 38 00 6d bd d6 25 8c be
       -0.04886108 0.029654855 -0.057861537 -0.27372617
0003f0 5a dd 22 bf 45 22 60 3e 04 a1 49 3e d4 8d bf bd
       -0.63619006 0.21888073 0.19690329 -0.093532234

fc1.bias f4 [64]
000000 5e c3 37 be 20 a3 b3 bd bf 3b e1 bc d6 a5 42 3e
       -0.1794562 -0.08771348 -0.02749431 0.19008574
000010 26 98 3b be 21 bd 22 be 31 36 d3 bb 4e 76 66 bd
       -0.18319759 -0.1589246 -0.006445669 -0.056265168
000020 95 60 9b bb 2e 34 1e 3e e4 35 d7 3c 20 49 c9 3d
       -0.004741738 0.15449592 0.026270814 0.098284006
000030 1e b6 64 bd 27 f7 44 bd 7d c6 65 bd 34 1e 9f bd
       -0.055837743 -0.048087265 -0.056097496 -0.07769433
000040 c7 a2 9a bd 74 9c 3f bd a6 84 0f 3e 21 4b 3e 3e
       -0.075505786 -0.046780065 0.14015445 0.18583347
000050 b3 a0 26 be 14 54 ff bd a7 31 53 3d 33 bc ba bd
       -0.1627224 -0.124672085 0.051561024 -0.091179274
000060 7b 63 49 3e 23 89 99 bd a4 d5 a1 bd b3 2a 37 bd
       0.19666855 -0.0749686 -0.07902077 -0.044718456
000070 02 94 04 3e 14 d7 c1 3d 24 9b e5 3c e4 f5 48 3d
       0.12947085 0.09464851 0.028028078 0.049062625
000080 a6 54 39 be 0f 44 74 3c 95 41 7f 3b 58 44 3f 3d
       -0.18098697 0.014908805 0.0038949002 0.046696037
000090 22 81 df 3d d3 0d ed bc 7c 95 97 bd 2d 2d 6b 3d
       0.10913302 -0.028937256 -0.07401559 0.05741613
0000a0 ad fa 1c 3e 7f 29 bc 3d f3 c9 f0 3d dc dc b0 bd
       0.1533 0.09187602 0.11757269 -0.086358756
0000b0 47 9e 1b 3d 7b 52 9f bd 45 8e 38 be d4 d2 8b bc
       0.037992742 -0.07779404 -0.18023022 -0.017068304
0000c0 cb c6 32 3e e3 5e 0c 3e 83 3d 04 3e 35 3b 97 bc
       0.17458646 0.13708071 0.1291409 -0.01846085
0000d0 d0 23 aa bc 3c 51 e9 bd 0e 70 05 be 3c ee ba bd
       -0.02076903 -0.11392447 -0.13031027 -0.09127471
0000e0 e0 ea 9f ba b3 85 86 bc 81 61 d6 bd f0 17 3c be
       -0.0012200736 -0.016421175 -0.10467816 -0.18368506
0000f0 5b 1f df bc 2b 89 92 bd 35 3e d9 bc 0d 3b c2 3d
       -0.027236631 -0.07155069 -0.02651892 0.09483919

fc2.weight f4 [64, 64]
000000 34 a6 2a be 02 95 02 be a8 4d 41 be 9a 49 e2 3c
       -0.16664964 -0.12752154 -0.1887728 0.027622987
000010 63 ef 08 bf f6 98 03 3e a2 4e 0b bd ce 91 2f be
       -0.53490275 0.12851319 -0.034010537 -0.17145464
000020 24 c3 4d 3e 11 34 11 3e a0 43 9c 3d e5 d7 52 3d
       0.20093971 0.14180018 0.07630086 0.051475424
000030 89 da 60 be ef c9 1d 3c 1e 94 cd bd 1b ca 33 3e
       -0.21958365 0.009630664 -0.10038017 0.17557566
000040 e4 0b c8 bd a2 78 6d 3e a8 c1 8e be 26 1f 15 3e
       -0.09767893 0.23190549 -0.27882123 0.14562663
000050 23 c7 9d be 1b b2 91 3d 77 19 5f 3d 9e ef 43 be
       -0.30815992 0.07114049 0.054467645 -0.19134375
000060 ee dd 11 3d 9b 96 06 be 22 18 39 3e 67 2c f1 3d
       0.03561204 -0.13143389 0.18075612 0.11776047
000070 88 d5 1f 3e 4a 24 80 bd c2 e8 06 3e 53 a1 72 3e
       0.156088 -0.062569216 0.13174728 0.23694353
000080 3e 56 64 3e 36 56 04 be e7 c3 24 bd d1 ea 0f 3d
       0.22298524 -0.12923512 -0.04022589 0.035136048
000090 a5 c1 82 3e 93 54 80 3d 6d 9d 7c be ad 89 48 3d
       0.25538364 0.06266131 -0.24669428 0.048959423
0000a0 d5 de f1 3b cd 3c a5 be 91 c9 d6 bd c1 45 98 be
       0.0073813 -0.3227295 -0.104876645 -0.29740718
0000b0 ed d0 16 3e cc c5 3f be e6 a4 5e 3e 23 e6 81 3d
       0.14728136 -0.18727797 0.21742591 0.06342723
0000c0 9a e3 ce 3d 48 0d 94 3c 4d 79 1c 3a 6d 6a 9a be
       0.10102005 0.01807274 0.0005969003 -0.3015932
0000d0 d7 79 60 be 96 d5 63 be ae ae 4f 3e d1 e6 94 bd
       -0.21921478 -0.22249445 0.20281479 -0.07270587
0000e0 73 1f 04 3e ee 54 86 bd c7 b1 1f 3e 7f 4c 40 3d
       0.12902622 -0.06559168 0.1559516 0.046947952
0000f0 4b fc 6d be 23 27 b6 be f1 e1 25 be d5 5c 41 3e
       -0.23240773 -0.35576734 -0.16199471 0.18883069
000100 42 c3 0c bf 91 20 fd bb 43 db 0b be 06 80 4d 3e
       -0.5498544 -0.0077248295 -0.1365786 0.20068368
000110 61 fa fe bd d9 a4 49 be 22 15 b2 bd dc 79 fc 3b
       -0.124501 -0.1969179 -0.08695437 0.0077049565
000120 c6 9c 3a bd 63 a1 13 bd ab ce d1 3a df 18 5a be
       -0.045559667 -0.036042582 0.0016007026 -0.2129855
000130 e3 64 c7 bd 47 57 0c be b3 75 4f bd c4 8f 48 3e
       -0.097360395 -0.13705169 -0.050649356 0.19586092
000140 e0 5a 78 be 24 bb 8c bd 49 13 db bd 45 b1 6d 3e
       -0.24253416 -0.06871632 -0.10697038 0.23212154
000150 6f 13 86 3d 4d 1b 16 3e b8 f2 b8 bd 89 f6 04 3e
       0.065466754 0.14658852 -0.0903067 0.1298467
000160 e5 41 c3 bc ae 94 20 bf 7c e1 84 3c f3 ba a9 3e
       -0.023835132 -0.6272687 0.0162208 0.33150443
000170 50 12 11 bd f9 cb da bd 63 52 4a be 30 75 be be
       -0.035417855 -0.10683436 -0.1975799 -0.37198782
000180 e2 7f df bd 66 a3 04 bd 7d 39 98 bd 59 8f 14 3d
       -0.109130636 -0.03238239 -0.0743284 0.03626952
000190 73 42 3a be d6 8f ab be bd a4 f7 bc bc fe 16 be
       -0.18189411 -0.33508176 -0.03022992 -0.14745611
0001a0 d1 70 84 3e 99 c1 e6 3d 7f 42 a4 3c 3b a7 77 be
       0.25867322 0.112673946 0.020051239 -0.24184887
0001b0 75 ec d3 be 94 1d 1b be 66 83 3c bd 51 5c 65 be
       -0.4139134 -0.15148002 -0.04602375 -0.22398497
0001c0 77 b8 93 3d d3 19 d4 bd 2c 90 4f 3e ed 3c d9 3d
       0.07212918 -0.10356488 0.20269841 0.10607324
0001d0 ed 2f 6a be 0d cf 19 3d 32 17 06 3f 9c 09 eb 3d
       -0.22869845 0.037550975 0.52379143 0.11476442
0001e0 0f b5 6d bd 62 e6 e8 bc 62 51 b7 3c 5d ed 95 bd
       -0.058034 -0.028430168 0.022377674 -0.07320664
0001f0 3f 3f 98 be 1a e8 f3 3d 0a af 8b bc 35 6f 0a be
       -0.29735753 0.11909504 -0.017051239 -0.13518985
000200 12 0d 16 be e8 8d 9b bd 55 99 a7 bd cf 08 60 3c
       -0.14653423 -0.07595426 -0.08183543 0.013673975
000210 f3 7a bf bd 19 18 28 3d 9a 89 15 be e5 2d 94 3d
       -0.093496226 0.041038606 -0.14603272 0.07235316
000220 94 d1 15 3e 84 5a 1c 3d 37 4a 34 3e ad 5b 05 bd
       0.14630729 0.03817226 0.17606436 -0.032558132
000230 3a 69 62 be 3a 7c 37 3d cd 9f ad 3d 1b 75 30 3e
       -0.22110453 0.044796206 0.08477745 0.17232172
000240 3c 4c 09 3e 73 98 8a be 5e 83 27 bc b1 bf 1e 3e
       0.13407987 -0.27069435 -0.0102241915 0.15502812
000250 81 19 cc be 1b 63 de 3d b6 6d 46 be 53 91 1d bd
       -0.39863208 0.108587466 -0.19377789 -0.03846867
000260 d3 1f 66 bd 45 8d da 3d cc a5 17 3e e7 c3 a6 3d
       -0.056182694 0.10671476 0.1480934 0.08142834
000270 b0 8d 01 be 6e 0c b3 be 6e 16 df 3d d2 7a 8b 3e
       -0.12651706 -0.3497042 0.1089295 0.27242142
000280 06 68 bb 3d f9 43 a3 be 73 ba 48 be 90 10 76 bd
       0.091507 -0.31887797 -0.19602375 -0.06007439
000290 d7 71 0c be ae e2 54 3e f9 65 be be a1 20 32 be
       -0.13715301 0.20789596 -0.37187174 -0.1739526
0002a0 76 6c c2 bd 24 75 d9 bc 0c 21 01 be 4d d7 f4 3d
       -0.094933435 -0.026545115 -0.12610263 0.11955128
0002b0 7c 5f cb bd 73 17 84 be 4b 3b 94 bb 45 56 99 bd
       -0.099303216 -0.2579914 -0.00452367 -0.07487158
0002c0 f5 3d 2a be a0 68 79 be 24 02 92 be 61 f2 59 be
       -0.16625197 -0.24356318 -0.28517258 -0.21283866
0002d0 c2 2e 46 be 28 4d ce be 97 21 4c 3e 25 b4 3a 3e
       -0.19353774 -0.4029324 0.19934689 0.18232782
0002e0 52 a6 de 3e 67 52 09 bd f1 7a 85 3e 20 1f 86 3d
       0.43486267 -0.03352585 0.2607036 0.065489054
0002f0 0b 88 63 be 98 b3 4f be 6d 19 6e 3d 91 35 7a 3c
       -0.22219865 -0.20283353 0.058129717 0.01527156
000300 30 ef eb bc 4e e5 db bd d1 7d 83 bd e7 13 46 3c
       -0.028800577 -0.10737096 -0.06420482 0.012089706
000310 60 f7 eb bd 84 b5 f1 be 14 01 43 3d f0 d9 28 be
       -0.115217924 -0.47208798 0.04760845 -0.16489387
000320 a9 d0 5e be d3 aa 26 3e a4 79 cd bd 30 80 2c 3e
       -0.21759285 0.16276102 -0.10032967 0.16845775
000330 c7 52 80 bd 9d e1 a6 be 51 5c 5c bd 80 21 cc 3e
       -0.062657885 -0.32594004 -0.053798977 0.39869308
000340 5f e8 2f bd 89 b0 b4 bb 20 a3 ce bd 54 bc 34 3d
       -0.042946216 -0.0055142087 -0.100897074 0.044124916
000350 74 9d 0d 3f b3 11 61 3d 40 8a 73 3e bc e4 b7 be
       0.5531838 0.05494852 0.23783207 -0.35916698
000360 9e 14 7b 3e 3d fb 83 3e 07 84 5f 3d f2 d2 cf 3c
       0.24519584 0.25777617 0.05456927 0.025369141
000370 64 f0 70 bd fb 6b 0a bd 5a df c8 3d 42 3a 7b 3e
       -0.058823004 -0.033794384 0.09808226 0.24533942
000380 18 32 d1 ba 7b ec 05 bd 8e b2 09 3e 8d 00 ae bd
       -0.0015960364 -0.03269623 0.1344702 -0.08496199
000390 15 50 9a bd 5b f8 f2 3d 94 74 23 3d d1 23 47 3e
       -0.07534806 0.11863776 0.0399061 0.19447257
0003a0 d4 9a 24 be 9d 21 a4 bb b2 17 c6 3d 7c c3 76 3d
       -0.16074687 -0.00500889 0.09672488 0.060245022
0003b0 6e 3f b1 3c c4 50 96 bc be de 6d bd f5 9c fe bd
       0.021636691 -0.018349059 -0.05807375 -0.12432281
0003c0 f1 d2 af bd 0d 19 1b be 3a 11 a8 3e 42 dd b4 3d
       -0.08585156 -0.15146275 0.32825643 0.08831264
0003d0 36 13 d0 bd 03 ff 30 3e 39 e6 28 3e d0 86 2e 3e
       -0.10159914 0.17284779 0.16494073 0.17043614
0003e0 62 a8 7b bc 7e 47 9b bd 3f 99 22 be ff 4d 03 be
       -0.01535997 -0.075819954 -0.15878771 -0.12822722
0003f0 de bc b1 3d e1 6b f7 3d a5 7b 72 bd 7a 73 da 3d
       0.08678602 0.12081123 -0.059199948 0.10666557

fc2.bias f4 [64]
000000 6d 8d 2a bd bf 23 ea bd 81 e0 d1 bc 09 dc 10 bc
       -0.04163878 -0.11432599 -0.025619747 -0.008841523
000010 c0 5d 87 bd 12 98 62 3d d3 5d 89 bc 67 e2 ee bd
       -0.06609678 0.055320807 -0.016768372 -0.116642766
000020 72 7e c4 3c e5 65 d7 3d a2 ab 86 3d d2 fc c2 ba
       0.023986075 0.10517482 0.06575705 -0.0014876372
000030 df e6 d1 3e 92 c6 c0 bd 81 d5 dd 3d f3 de 93 bd
       0.40996453 -0.09412874 0.10831738 -0.072202586
000040 e0 27 64 3d 2d b0 09 be 54 1f 80 bd 2c 54 15 bd
       0.05570209 -0.13446112 -0.06255975 -0.036457226
000050 a9 6b 58 3d 0f 39 ea 3d 00 6c 9b bd 7e b5 a7 3d
       0.052837048 0.11436664 -0.07588959 0.08188914
000060 02 a6 0f 3e 33 36 86 3d 94 a6 c8 3d bf 30 34 3d
       0.1402817 0.065533064 0.09797397 0.0439918
000070 96 e6 f2 bd 54 dd 77 bd 17 2d e4 3c b8 f2 8e bc
       -0.11860387 -0.06051381 0.027853532 -0.017449722
000080 5d e1 ce 3d 0b f1 98 bc 40 7e 9b 3d 85 00 98 bd
       0.101015784 -0.018669626 0.0759244 -0.07421974
000090 d0 36 d0 3d bd c9 e9 3d 5b af 47 3c cb 07 d9 3d
       0.10166705 0.11415432 0.012187804 0.105971895
0000a0 51 4a 86 3a 0c f6 25 3d 2e eb c9 3c b1 e7 e4 3b
       0.0010245537 0.04051785 0.024648275 0.0069856276
0000b0 90 bf fa 3d 11 27 7a 3e ec 0f d4 bd 79 8b 54 3d
       0.12243569 0.24428965 -0.10354599 0.051890824
0000c0 06 6f a6 bd ba 79 37 bc 37 e8 df bd 95 66 05 be
       -0.08126645 -0.0111984555 -0.10932963 -0.13027413
0000d0 59 fa 6c 3e 00 1a 35 3d 52 a8 2e bd f3 aa 3b 3e
       0.23142375 0.04421425 -0.04264099 0.1832693
0000e0 49 26 13 be 57 68 59 bd a4 f8 c0 bd e4 cf fd 3e
       -0.14370073 -0.05307802 -0.094224244 0.4957267
0000f0 15 d4 b7 bb 82 07 05 be e2 f0 32 3d 59 88 55 3e
       -0.005609999 -0.12991145 0.043686755 0.20852794

fc3.weight f4 [4, 64]
000000 6e eb ed 3d 0a d0 27 3d 02 c3 9d be 39 2d fe 3d
       0.1161717 0.040969886 -0.30812842 0.12410969
000010 09 af 91 3e b3 b0 e2 3d c2 4f d3 3e 83 99 e8 3c
       0.28453854 0.11068859 0.41271788 0.028393513
000020 6a f3 87 be 04 64 d8 3e e1 80 1e be 0f a5 14 be
       -0.26552898 0.42263806 -0.15478851 -0.1451609
000030 ae 84 3e 3e d1 aa e1 3c 2f fe c7 3e ac 90 d7 bd
       0.18605301 0.027547272 0.39061114 -0.10525641
000040 40 77 20 be ea b9 84 be 17 68 78 3d bc 82 13 3e
       -0.1567049 -0.2592309 0.060646143 0.1440534
000050 61 42 b6 be 94 13 88 3e cc af 12 3e 9e 50 08 3f
       -0.35597518 0.26577437 0.14324874 0.5324801
000060 54 1a 44 3e ac bb 08 3f 0a a2 f8 3b 59 d0 0c be
       0.19150668 0.53411365 0.007587676 -0.13751353
000070 95 89 3d 3d 75 23 d8 3e 0a b6 d7 3e 41 e0 1f 3e
       0.046273787 0.42214552 0.42131072 0.1561289
000080 90 de e0 3d 87 14 88 3d 65 64 b9 be 8a c4 14 be
       0.109799504 0.0664454 -0.36209407 -0.14528099
000090 8f 44 1a 3e 4c f3 1c 3e 6f 1f 45 bd 64 6f 1e 3e
       0.15065216 0.15327185 -0.04812568 0.1547218
0000a0 93 73 24 3e 19 7e 92 be 5e f6 5d 3d ff 92 3a 3e
       0.16059713 -0.2861183 0.054190032 0.18220137
0000b0 f9 2e d0 3d 52 d0 c5 3d 55 e9 68 bc 1f 45 7e be
       0.10165209 0.096588746 -0.014215787 -0.24831055
0000c0 a9 3e 8a be 16 e1 37 3d cb 0e a3 3d fa c0 b1 3d
       -0.2700093 0.044892393 0.07961806 0.086793855
0000d0 5b b4 92 3e d7 d8 3f be e4 22 6c be 20 44 c1 3e
       0.28653225 -0.18735062 -0.23060185 0.37747288
0000e0 52 6a d8 bd cb 09 09 3e 73 88 fa 3d 4b 8b 3f 3e
       -0.10567154 0.13382642 0.12233057 0.1870548
0000f0 82 22 b3 3d 3b 8b 45 be f7 3a 8d 3d 63 b5 fd 3d
       0.08746816 -0.19291393 0.06896012 0.123881124
000100 68 7d e9 3c 77 c0 3e be e7 c0 53 3e 80 0b 2c 3e
       0.028502181 -0.18628107 0.20679055 0.16801262
000110 72 1f 7c 3e 90 38 9d 3c ef 65 9f 3e 2d b8 d0 bd
       0.2462137 0.01919201 0.31132457 -0.10191379
000120 aa d4 13 be 43 33 0e bd a6 74 f7 3d c2 4f 6b 3c
       -0.14436594 -0.034716856 0.12082796 0.014362277
000130 08 29 40 3e 6f 5b 53 3d 9b 19 96 3e d8 99 54 be
       0.18765652 0.05160087 0.2931641 -0.20761812
000140 c7 6b b3 3c 9a c3 82 be 3e 7d 3d 3e 8c 93 19 3c
       0.021901978 -0.25539857 0.18504807 0.009373557
000150 a6 37 12 be 35 d3 c0 3e 39 75 9a 3d be 1c 50 3e
       -0.1427904 0.37661138 0.0754189 0.20323464
000160 09 de d0 3e af 6b 9f 3e 2f f2 69 bd d9 ae 2d 3e
       0.407944 0.31136844 -0.05711573 0.1696123
000170 bd fb be 3d d0 35 43 be ab 7f c7 3e eb ae ef 3e
       0.09325359 -0.19063497 0.3896459 0.4681314
000180 65 ed b9 be b2 88 31 3e 37 f9 56 3d c2 63 05 bf
       -0.3631393 0.17337301 0.052483764 -0.52105343
000190 db 9d 07 3e b3 84 27 3e 06 4e a8 bd 7f ec 10 3e
       0.13243811 0.16359214 -0.08218007 0.14152716
0001a0 b0 ff f9 3e ba 05 81 3d 79 26 85 bd 8a 1e 3d 3e
       0.48827887 0.062999204 -0.06501479 0.18468681
0001b0 99 9f 07 3e 45 92 1e 3e 6a 85 55 3e c3 cf bc 3d
       0.13244475 0.15485485 0.20851675 0.09219315
0001c0 92 0a 3a be 95 cb 9a be c1 2e 72 bd cd e1 15 3e
       -0.18168095 -0.30233446 -0.05912662 0.14636917
0001d0 4e 13 58 3e 10 a8 0e be a0 52 03 be c8 63 86 3e
       0.21101114 -0.13931298 -0.12824488 0.26248002
0001e0 3d ce d6 bd a1 c7 3a 3e 45 c2 24 3d 62 8a 36 3e
       -0.104885556 0.18240215 0.040224332 0.17826226
0001f0 3e e3 0b 3e 2c 52 c1 3c 09 78 e7 bc 50 f0 28 3e
       0.13660905 0.023598753 -0.02825548 0.16497922
000200 a8 41 92 3d b8 89 38 bd d7 a1 9f be 8a 95 a3 3d
       0.07141429 -0.045053214 -0.31178162 0.07987507
000210 ef 75 39 3e 65 52 33 3e d2 0a b9 3d 4f 4f dc bd
       0.18111394 0.175119 0.09035267 -0.107573144
000220 92 93 c7 be 82 b5 ac 3d 50 1a 1b be c1 64 00 be
       -0.38979775 0.08433057 -0.15146756 -0.12538435
000230 91 50 47 3e 76 9b cc bd 05 44 84 3e ef 76 52 be
       0.19464327 -0.09990589 0.25833145 -0.20553182
000240 b5 e5 6f 3d 0d da c2 bb 92 92 00 be 9d b7 d7 bd
       0.058568675 -0.005946404 -0.12555912 -0.10533068
000250 10 b2 b8 be ae 81 de bc 9b 36 dd 3e 07 17 17 3e
       -0.3607335 -0.027161445 0.43205723 0.14754878
000260 9d 12 e6 3e 03 67 b0 3e 1a 7f a2 3e 29 7a 03 bf
       0.44936076 0.34453592 0.31737596 -0.51358277
000270 4f 38 e8 bc f8 ee 55 3d a8 93 0a 3f 0b ee 53 be
       -0.028347163 0.05222985 0.54131556 -0.20696275
000280 84 4f a7 3d 94 28 07 3f 25 6a c7 3e 29 d3 a4 3d
       0.08169463 0.5279629 0.3894817 0.08048088
000290 76 da 68 3e e0 5c ad 3e ae f2 8c be fc bd aa 3e
       0.22739586 0.3385992 -0.275289 0.33348072
0002a0 09 db de 3e 4d b7 28 be 3c 73 f5 3d f8 df 56 bd
       0.43526486 -0.16476174 0.1198487 -0.052459687
0002b0 b1 ba 1b 3d 5c 05 6d 3e 96 ab 3d 3e c7 da c3 be
       0.03801984 0.23146576 0.18522486 -0.3825285
0002c0 59 29 95 be 3f e1 41 3e cc 39 d4 3b 93 76 cf 3d
       -0.29133108 0.18933581 0.0064766165 0.10130038
0002d0 fd 60 47 3e 23 5e 38 bd 35 aa c1 bd 30 d4 83 3e
       0.19470592 -0.04501165 -0.094562925 0.25747824
0002e0 16 f7 88 be 77 08 a7 3c cc 5b 4a 3e dc e2 77 3e
       -0.26751012 0.020389779 0.1976158 0.24207634
0002f0 d8 01 51 3e 33 9d ac 3d dc d2 44 be c8 26 1f 3e
       0.2041086 0.08428421 -0.19221061 0.15542138
000300 78 6e 90 be bc 7b 7f be 0f 51 8f 3e 2f 55 9e 3e
       -0.2820928 -0.24949545 0.2799153 0.30924365
000310 38 6f c8 3e bc 39 1b 3e db 04 76 3d 87 d4 53 3d
       0.39147353 0.15158743 0.060063224 0.051716354
000320 93 10 26 be 96 33 e9 be 9d 84 1d 3e f2 5c d1 3d
       -0.1621726 -0.4554717 0.15382619 0.10222806
000330 b7 01 75 3e b4 da 68 bd 32 8b d6 3e 71 56 22 be
       0.23926435 -0.056849197 0.41903073 -0.15853287
000340 85 92 80 be 96 71 77 be 8a 41 e0 3e 00 51 17 3e
       -0.25111786 -0.24164423 0.43800002 0.14776993
000350 39 90 b8 be 9c 7b 22 3f 69 38 73 bd d8 14 b4 bb
       -0.36047533 0.6346986 -0.05937997 -0.005495649
000360 ca 41 67 3e c5 ba 8d 3e ab 18 0d be 0a b8 ea bd
       0.2258369 0.27681556 -0.13778941 -0.11460884
000370 12 fa 72 3c 91 55 69 be f7 fd 82 3e b3 ea b9 3e
       0.014830129 -0.22786547 0.25584385 0.36311874
000380 b3 4c ce 3e 9e 95 83 3e cb 4a 17 3e 26 70 11 3e
       0.40292892 0.25700086 0.14774625 0.14202937
000390 91 ff 81 3d 13 72 80 3e 04 d7 cd 3d fd a6 d3 3d
       0.063475735 0.25087032 0.100507766 0.10334585
0003a0 e5 fb 10 be d2 11 cc be 96 16 a4 3e 20 08 57 3d
       -0.1415859 -0.39857346 0.32048482 0.052497983
0003b0 79 30 2c 3e 91 10 36 3e f3 bb cf be 90 dd 57 be
       0.16815366 0.17779757 -0.4057308 -0.21080613
0003c0 73 a3 d6 bd 6a 3b 79 be 98 f8 90 be 10 df 80 3e
       -0.10480394 -0.24339071 -0.28314662 0.25170183
0003d0 58 d6 ff 3d 1b 36 4b be df ba b7 be 23 8c 8b 3e
       0.12492055 -0.19844858 -0.3588476 0.27255353
0003e0 be 39 88 be db bf 62 bd 0a 2d 4f 3e f6 fa 5f 3e
       -0.26606554 -0.05535875 0.20232025 0.21873078
0003f0 3a 40 c0 bc 8e 38 f9 3d f5 dc 87 bd ca a7 cf 3d
       -0.023468126 0.1216899 -0.06633941 0.10139425

fc3.bias f4 [4]
000000 73 c0 cb 3e 91 57 b1 3e 44 ac 96 3e 1f d1 a1 3e
       0.39795265 0.3463712 0.29428303 0.3160486
