p3_collab-compet/agent_0_checkpoint_actor_solved.pth (torch_old, 843275 bytes, 6 tensors)

fc1.weight f4 [512, 24]
0.033355728 -0.09428507 0.019991446 -0.07076224 0.19736235 -0.04237552 0.013725832 -0.08624049
0.015609981 -0.03704365 -0.0066975104 0.058683112 0.09562995 -0.114205755 0.007901792 0.030739948
0.0020436442 -0.073222466 0.026974 0.13356164 0.0400632 -0.21146338 -0.020457305 0.1324864
0.030982738 0.1674388 -0.050835293 0.061630357 -0.037714552 0.07375623 -0.06380548 0.06805981
-0.01382444 0.17145686 -0.021399474 0.02795335 -0.024661714 0.041664258 -0.018136324 0.014955774
-0.0005103994 0.17884754 0.03568865 -0.07185379 0.04262656 -0.087318406 0.009900276 -0.054144688
0.043308284 -0.06610693 0.034232743 0.034969695 0.039694928 -0.065205544 0.024412073 0.027190493
0.07421615 -0.07084239 -0.001648918 0.017068092 -0.04336089 0.011235129 0.007482614 0.030980267
-0.007844262 -0.11200011 0.02880846 0.04122002 -0.09874117 -0.01426764 -0.0377761 0.011931081
0.060633972 -0.09561203 -0.029390136 -0.07940465 -0.12964705 -0.017827654 0.03473816 -0.06334652
0.034583833 -0.100589454 -0.013498332 0.0027190875 -0.09390758 0.054957133 -0.03886636 -0.017491467
0.056251045 -0.067774005 -0.008057869 0.083247826 -0.040758792 0.093627244 -0.04169991 0.1100429
0.02166435 0.070873275 -0.00012527037 0.0021069362 -0.122748 0.021440877 -0.05336443 -0.014014477
0.0060384576 0.08314364 0.008721134 0.00091514835 -0.05826488 0.025161976 -0.03372252 0.0053848415
0.047031455 0.14673786 0.042709727 -0.025498997 0.05451552 0.008293338 0.049071874 0.017785236
0.08609687 0.029977843 0.015539097 0.021744417 0.017290313 -0.011122823 -0.011005836 0.038083803
0.1258066 -0.06855029 0.012767816 -0.09411749 -0.05263468 -0.03802762 -0.011505453 -0.11763136
0.08697789 -0.09771203 -0.013831556 -0.14943585 -0.014558611 -0.20589009 0.057688452 -0.10158121
-0.054340627 0.10692356 -0.005135947 0.059464917 0.045871284 0.06925999 0.00891494 0.05136524
-0.067635916 0.12585159 0.00993031 0.027814684 0.047164172 -0.00037541008 -0.027802732 -0.034454633
-0.020356482 0.11335289 -0.017831935 0.045885906 0.111782335 -0.0055140886 -0.026447633 0.034112506
0.0012334781 -0.14086655 -0.022329856 -0.01353231 -0.024620244 -0.026390428 0.031317208 -0.011204007
-0.014249748 -0.06768038 0.056385323 -0.010777082 -0.021698684 -0.08947933 -0.011973181 0.06117435
0.019611478 -0.08496829 0.03684306 -0.07672064 -0.051375907 -0.14448632 0.028310709 -0.050834063
0.05071041 0.0753459 -0.045055944 -0.010115046 0.032806825 -0.029650329 -0.03459129 -0.029612817
0.028935788 0.040001314 0.07700331 -0.13293335 0.0068692686 -0.018286502 0.0048858193 -0.07749202
0.06780151 0.006641918 0.010278195 -0.008903005 0.0075216233 0.14163348 0.052426025 0.023344046
0.066542365 0.10415048 -0.06277712 -0.01805327 -0.109594695 0.017900078 -0.052647382 -0.043289553
0.027823796 0.07084101 -0.03125978 0.017499698 -0.0596905 0.08279721 0.0051609385 -0.0508377
0.024811668 0.08632771 -0.019998591 -0.05350791 -0.031596746 0.058227155 -0.011654872 -0.071651615
-0.07492336 0.04244903 -0.012530133 -0.042022545 0.02480979 -0.10405267 0.005751332 -0.057866167
-0.03005846 0.024691496 -0.008885159 0.03450761 0.043234285 -0.11466047 -0.031162476 0.006772774
00000000: 04a0 083d 8818 c1bd 1ac5 a33c cbeb 90bd
00000010: 5b19 4a3e f491 2dbd 50e2 603c db9e b0bd
00000020: 01c1 7f3c 15bb 17bd ca76 dbbb b45d 703d
00000030: a3d9 c33d b5e4 e9bd 8576 013c 58d2 fb3c
00000040: a9ee 053b a9f5 95bd 94f8 dc3c 62c4 083e
00000050: 4f19 243d db89 58be 1496 a7bc 84aa 073e
00000060: 83cf fd3c 1475 2b3e ab38 50bd 1d70 7c3d
00000070: 937a 1abd 820d 973d 73ac 82bd f162 8b3d
00000080: e77f 62bc 6392 2f3e f34d afbc 6dfe e43c
00000090: 5d07 cabc 24a8 2a3d a192 94bc 1009 753c
000000a0: 53cc 05ba cf23 373e 432e 123d 1428 93bd
000000b0: 3099 2e3d fed3 b2bd c434 223c d2c6 5dbd
000000c0: 0764 313d 1263 87bd a237 0c3d 623c 0f3d
000000d0: 2697 223d 7c8a 85bd d4fb c73c 99be de3c
000000e0: a3fe 973d d115 91bd 8220 d8ba 62d2 8b3c
000000f0: 309b 31bd 8c13 383c b730 f53b 54ca fd3c
00000100: 3885 00bc 5060 e5bd b8ff eb3c 53d6 283d
00000110: cf38 cabd d2c2 69bc 1dbb 1abd 957a 433c
00000120: 545b 783d 3dd0 c3bd 95c3 f0bc e89e a2bd
00000130: 32c2 04be 4d0b 92bc 9a49 0e3d d2bb 81bd
00000140: c7a7 0d3d d801 cebd 1c28 5dbc b832 323b
00000150: 9e52 c0bd bb1a 613d 5532 1fbd 444a 8fbc
00000160: 7f67 663d 19cd 8abd 2705 04bc d67d aa3d
00000170: b1f2 26bd a4bf bf3d 86cd 2abd 2c5e e13d
00000180: 6f79 b13c 0226 913d 025b 03b9 8614 0a3b
00000190: 4e63 fbbd c7a4 af3c a994 5abd fa9c 65bc
000001a0: 41de c53b 3647 aa3d 16e3 0e3c 91e6 6f3a
000001b0: 28a7 6ebd 7d20 ce3c a020 0abd 5373 b03b
000001c0: 0ea4 403d 7342 163e 65f0 2e3d 46e3 d0bc
000001d0: aa4b 5f3d c8e0 073c 97ff 483d 58b2 913c
000001e0: 8e53 b03d 1894 f53c b297 7e3c 5921 b23c
000001f0: 6aa4 8d3c 803c 36bc d251 34bc c3fd 1b3d
00000200: 72d3 003e 1864 8cbd 1a30 513c acc0 c0bd
00000210: 7697 57bd dac2 1bbd 5e81 3cbc b6e8 f0bd
00000220: 7721 b23d 3f1d c8bd c09d 62bc b605 19be
00000230: 3e87 6ebc dad4 52be ba4a 6c3d cf09 d0bd
00000240: 4794 5ebd bdfa da3d 724b a8bb 7c91 733d
00000250: 87e3 3b3d 2ed8 8d3d f80f 123c 5c64 523d
00000260: b384 8abd 3ddf 003e bdb2 223c 9fdb e33c
00000270: 382f 413d b0d2 c4b9 8ec2 e3bc 4d20 0dbd
00000280: a3c2 a6bc 8f25 e83d 4714 92bc dcf2 3b3d
00000290: 23ee e43d 87af b4bb b5a8 d8bc 8eb9 0b3d
000002a0: a8ac a13a 523f 10be 1aed b6bc 9fb6 5dbc
000002b0: 65b0 c9bc bd30 d8bc 7946 003d 0391 37bc
000002c0: c677 69bc 039c 8abd 4cf4 663d 5c92 30bc
000002d0: 70c1 b1bc f040 b7bd 292b 44bc f591 7a3d
000002e0: 40a8 a03c db03 aebd c0e8 163d b61f 9dbd
000002f0: 8b6f 52bd 39f4 13be dceb e73c 6137 50bd
00000300: b8b5 4f3d f44e 9a3d 958c 38bd 94b9 25bc
00000310: 7360 063d 3fe5 f2bc 99af 0dbd 9496 f2bc
00000320: bf0a ed3c 6bd8 233d e9b3 9d3d ae1f 08be
00000330: 9a17 e13b 93cd 95bc 3919 a03b 23b4 9ebd
00000340: 85db 8a3d 72a4 d93b e065 283c e9dd 11bc
00000350: f377 f63b 5e08 113e acbc 563d 033c bf3c
00000360: 5d47 883d d94c d53d 4a91 80bd 74e4 93bc
00000370: 2f73 e0bd 2fa3 923c c8a4 57bd 6350 31bd
00000380: bbee e33c 1715 913d 410a 00bd 875b 8f3c
00000390: 077e 74bd 9591 a93d 171d a93b 313b 50bd
000003a0: d741 cb3c 95cc b03d 16d4 a3bc 1c2b 5bbd
000003b0: 976b 01bd 997f 6e3d 14f4 3ebc 15be 92bd
000003c0: 6b71 99bd 09df 2d3d 304b 4dbc d51f 2cbd
000003d0: e73d cb3c 9119 d5bd ab75 bc3b 1305 6dbd
000003e0: 293d f6bc d245 ca3c 0f93 11bc da57 0d3d
000003f0: 6f16 313d 1cd3 eabd 7348 ffbc 25ee dd3b

fc1.bias f4 [512]
0.18531428 0.121254586 0.114022665 0.063101105 -0.082770176 0.20289582 0.1857251 0.20711909
0.05185057 -0.22797543 0.13747104 -0.07433666 0.024374867 0.0009904341 -0.10932511 -0.04845614
-0.21328764 -0.07435564 0.1113287 -0.07619689 -0.23293263 -0.12802409 -0.18697573 0.05958054
-0.030851614 -0.023023263 0.057058666 0.022813512 -0.04628554 0.13623822 0.009980642 -0.044819728
-0.080166936 -0.047183983 -0.05962313 -0.035653222 0.005954782 0.11330732 0.2148079 -0.18201625
-0.19600771 0.10214634 0.011822608 0.04086518 0.13246092 0.18205191 0.110511914 -0.007373285
0.053492043 0.20213056 0.08030723 0.023602977 -0.057552364 0.17515196 -0.07271774 3.8546757e-05
-0.09866973 -0.22867821 0.036988903 0.16534472 0.17368832 0.045686428 -0.21118903 0.052872937
-0.18628094 -0.15911901 0.094136864 0.019072782 -0.22409919 -0.0897849 0.06402529 -0.2028317
-0.044427652 -0.038002484 -0.09276506 -0.09476876 -0.11155417 -0.061851602 0.06637827 -0.03209582
-0.15905277 0.015555134 -0.18872175 0.1301267 0.06398916 -0.11433365 -0.039006475 -0.116045594
-0.004784588 0.050143704 -0.26065007 0.16502957 -0.23276 -0.14744669 0.01530553 0.005558688
0.055705547 0.08870024 -0.17555729 -0.03160718 -0.07856486 0.07293973 0.18499435 0.07203862
-0.15675148 -0.03335911 0.06441205 -0.06517612 -0.094184145 0.09579912 -0.13946831 0.09389492
-0.23897183 0.09622618 -0.21874592 -0.23397359 -0.057059158 0.19419365 -0.21312723 0.21663806
-0.17653392 -0.05510282 0.091923185 0.13188243 -0.16133164 0.00995618 0.16264674 0.11527354
0.041823205 0.097212434 0.19980912 -0.13899176 -0.0839507 0.21730274 0.044307154 -0.110721365
-0.043526758 0.0050998717 -0.11790956 0.13203481 0.048985768 -0.09916638 -0.03451092 -0.030481419
0.06950997 -0.08044406 -0.17280844 0.22387187 -0.15342174 -0.13265198 -0.15422872 0.05691202
0.1506117 -0.119929135 -0.07477481 -0.17544514 -0.1668471 -0.16093032 -0.015017279 0.05015503
-0.23956643 0.025615877 -0.12811458 -0.010266578 0.17812273 0.010678281 0.0062043546 0.11397595
0.08443865 0.10353988 -0.034683656 0.04923078 -0.13168025 -0.19625075 0.20846944 -0.20385897
0.077261195 0.16700174 -0.27271754 -0.12421421 0.13087294 -0.123502016 -0.044746954 -0.053596564
-0.08444774 -0.061703272 -0.037844967 -0.14818142 0.06282801 0.15074378 0.011192077 0.0459186
-0.24717583 0.08137467 0.01743253 -0.047788646 -0.11808203 0.14978857 -0.12709908 0.07910066
-0.15404922 0.03639978 -0.12360735 0.11453337 0.18539727 0.15242401 0.135911 -0.045226708
-0.027988605 0.03787519 -0.049046874 -0.083076686 0.03281689 -0.09864589 0.075387396 -0.030449133
0.16114518 0.018257279 0.20255482 0.20815592 -0.15847951 -0.010828071 0.16712475 -0.03331043
0.21527855 -0.0086016795 0.052808095 -0.02319779 -0.05469466 0.1361051 0.077364996 0.015103268
0.16371572 0.07086469 0.07209164 -0.12790029 0.025011668 -0.13232307 0.14690492 -0.049899977
0.049723074 0.056772564 0.033958264 0.0005946662 -0.09988303 -0.03683554 -0.08928137 -0.0042087324
0.01867675 -0.15381673 -0.07764715 -0.07740811 -0.0014846469 0.18290338 -0.082655005 0.1341078
00000000: 07c3 3d3e 5354 f83d b784 e93d 273b 813d
00000010: 6983 a9bd ecc3 4f3e b82e 3e3e 0717 543e
00000020: 4361 543d 6472 69be 35c5 0c3e d23d 98bd
00000030: cdad c73c 74d1 813a d8e5 dfbd f279 46bd
00000040: 1368 5abe c547 98bd 4d00 e43d 1d0d 9cbd
00000050: e485 6ebe bf18 03be 9176 3fbe b90a 743d
00000060: 86bc fcbc 489b bcbc 59b6 693d 67e3 ba3c
00000070: e895 3dbd 0882 0b3e d985 233c e494 37bd
00000080: 902e a4bd fe43 41bd 6237 74bd 1d09 12bd
00000090: 5520 c33b ab0d e83d 9af6 5b3e 7862 3abe
000000a0: 3fb6 48be 1a32 d13d 9db3 413c 3f62 273d
000000b0: d6a3 073e d16b 3a3e 1254 e23d 999b f1bb
000000c0: 791a 5b3d 50fb 4e3e 1e78 a43d 085b c13c
000000d0: 07bc 6bbd 095b 333e 0aed 94bd 44ad 2138
000000e0: 5b13 cabd 9f2a 6abe ad81 173d 2050 293e
000000f0: 5adb 313e b121 3b3d f041 58be 4b91 583d
00000100: 6ec0 3ebe 18f0 22be d4ca c03d 863e 9c3c
00000110: 427a 65be 25e1 b7bd b11f 833d 1db3 4fbe
00000120: c5f9 35bd 7ea8 1bbd 9cfb bdbd 2016 c2bd
00000130: 8376 e4bd 1b58 7dbd 55f1 873d e876 03bd
00000140: bbde 22be f6da 7e3c 4640 41be ef3f 053e
00000150: c00c 833d c327 eabd 41c5 1fbd 50a9 edbd
00000160: 08c8 9cbb 7c63 4d3d ed73 85be 83fd 283e
00000170: a358 6ebe 44fc 16be 0cc4 7a3c a825 b63b
00000180: 802b 643d 79a8 b53d 4ac5 33be 8876 01bd
00000190: 9de6 a0bd 6d61 953d 296f 3d3e fc88 933d
000001a0: 7683 20be 90a3 08bd 77ea 833d 0f7b 85bd
000001b0: 9ee3 c0bd 5432 c43d c8d0 0ebe fb4b c03d
000001c0: 08b5 74be 3b12 c53d eefe 5fbe c696 6fbe
000001d0: ddb6 69bd b3da 463e 063e 5abe 5ed6 5d3e
000001e0: 4fc5 34be 7fb3 61bd 3942 bc3d 300c 073e
000001f0: 1f34 25be 3f1f 233c de8c 263e 8914 ec3d
00000200: cf4e 2b3d 5017 c73d c39a 4c3e db53 0ebe
00000210: 58ee abbd 9c84 5e3e 6b7b 353d e2c1 e2bd
00000220: 1d49 32bd d31c a73b 917a f1bd 2234 073e
00000230: 4da5 483d be17 cbbd 535b 0dbd 2bb4 f9bc
00000240: 3e5b 8e3d dbbf a4bd b2f4 30be ab3e 653e
00000250: 971a 1dbe ecd5 07be 22ee 1dbe 941c 693d
00000260: f439 1a3e 689d f5bd 8923 99bd e4a7 33be
00000270: f7d9 2abe ebca 24be 090b 76bc 5c6f 4d3d
00000280: e750 75be 63d8 d13c 7830 03be 2635 28bc
00000290: ce65 363e f5f3 2e3c e64d cb3b 396c e93d
000002a0: 2cee ac3d b70c d43d 7310 0ebd 37a6 493d
000002b0: 30d7 06be f5f5 48be 0379 553e 68c0 50be
000002c0: 1e3b 9e3d 8102 2b3e a2a1 8bbe 0564 febd
000002d0: 8e03 063e a0ee fcbd 9548 37bd 1288 5bbd
000002e0: f0f2 acbd 92bc 7cbd 5303 1bbd dfbc 17be
000002f0: f9ab 803d 945c 1a3e f95e 373c 2415 3c3d
00000300: a91b 7dbe c3a7 a63d aace 8e3c 07be 43bd
00000310: fed4 f1bd 2d62 193e 4326 02be 87ff a13d
00000320: 14bf 1dbe f017 153d da25 fdbd 7990 ea3d
00000330: c8d8 3d3e 0a15 1c3e 412c 0b3e a43f 39bd
00000340: 5c48 e5bc 0423 1b3d 60e5 48bd 1c24 aabd
00000350: 016b 063d db06 cabd b564 9a3d 7670 f9bc
00000360: 3e03 253e 4a90 953c 886a 4f3e d326 553e
00000370: 7448 22be 3968 31bc c022 2b3e 8470 08bd
00000380: fb71 5c3e 0fee 0cbc 4d4d 583d 4b09 bebc
00000390: 8207 60bd 235f 0b3e 8a71 9e3d b373 773c
000003a0: 18a5 273e 8221 913d c8a4 933d 4bf8 02be
000003b0: 45e5 cc3c b37f 07be 3e6e 163e eb63 4cbd
000003c0: 6caa 4b3d 598a 683d d217 0b3d 60e3 1b3a
000003d0: 798f ccbd dde0 16bd 27d9 b6bd 68e9 89bb
000003e0: fcff 983c 2282 1dbe 7805 9fbd 2588 9ebd
000003f0: 7c98 c2ba 064b 3b3e 0747 a9bd 8e53 093e

fc2.weight f4 [384, 512]
0.07931047 -0.007851263 -0.1364201 0.070491984 -0.020193094 0.003892789 -0.028871244 -0.03640208
0.017580261 0.022272848 0.009968717 0.019935051 -0.001809007 0.10970966 -0.020439373 -0.13856007
0.072938845 0.030121518 0.071248285 0.05710492 -0.091645196 -0.100310914 0.13314691 0.017409123
-0.040647656 0.11462662 -0.027104812 -0.07893535 -0.021953344 -0.070372544 0.022718273 0.05918606
0.033189207 -0.051502082 0.022357713 0.036466777 0.0026726928 -0.17294548 -0.10547041 0.031409368
0.028376589 -0.036995128 -0.18064043 -0.03096866 -0.08797263 -2.1726684e-05 -0.01334017 0.054590695
-0.008397633 -0.04829698 0.009742008 -0.040072273 0.092172705 -0.023675658 -0.031392593 -0.08172295
-0.018228292 0.07788827 -0.10762277 -0.042030327 -0.0847139 -0.025900234 -0.042415656 0.024552789
0.020111524 0.0417753 0.023899315 -0.020411238 0.051670488 -0.0029020498 0.015596979 0.011699817
-0.010566461 -0.41626012 0.08087986 0.005110836 0.057628326 -0.09366371 -0.15264489 0.06312092
0.1125785 -0.045466777 0.0812204 -0.05573844 -0.06987396 -0.034367654 -0.00651866 -0.046641506
0.06470748 0.095258534 0.13653684 -0.0144935325 0.050240394 0.037747912 0.18647094 -0.01387097
0.17606832 -0.0048838607 0.009459675 0.0607593 0.056051135 -0.019118967 0.028456341 0.03523948
-0.11813768 0.04490074 -0.117122605 0.10578896 -0.07453722 0.13096447 -0.051061384 0.002740194
0.11219334 0.1256903 0.048534658 -0.0029489668 -0.09527356 -0.1236582 -0.03545979 -0.09699154
-0.03570561 0.016296292 0.07952227 0.040819537 0.028576247 0.07870421 0.013403425 -0.0028269524
0.074685164 0.046324648 -0.043638133 0.09334173 -0.0114021795 0.11326787 -0.026847841 -0.033307627
-0.17060608 0.025484785 -0.16462049 -0.1491313 -0.17426232 0.008835941 0.009613519 0.10427903
0.011513666 0.07171516 0.006225574 -0.012873158 0.02260489 0.060805857 0.052936975 -0.24528283
-0.053700365 0.06908575 -0.05341981 -0.013785944 -0.17009383 -0.06424473 0.010664738 -0.047093473
0.07329038 -0.010467919 -0.020038534 0.039832707 -0.21289055 -0.20876738 -0.06451366 0.13990304
0.0072311736 0.04061198 0.005100316 -0.0824471 -0.035064742 0.07817811 -0.16197951 -0.06455615
-0.009586766 -0.1166089 0.1226223 0.03163742 0.0186652 0.09356089 -0.042005897 0.008659297
-0.00028801284 0.025766464 -0.00077775726 0.008022691 -0.20429833 0.095317066 0.032564662 0.080196775
-0.006555778 0.08711923 0.05711405 0.020238508 -0.10793445 -0.058434732 0.047443222 -0.009417865
-0.043892093 -0.010588388 -0.015399126 -0.035627913 -0.037992485 -0.1136828 -0.14679345 -0.04565249
-0.046908747 0.061775323 -0.03172555 0.040739596 0.110659495 0.12722954 -0.049813654 0.0026358704
0.06798838 -0.05623722 -0.23852006 -0.1885677 0.05704671 -0.09434425 -0.055108294 0.043642525
0.0070519755 0.045933384 -0.08199173 -0.020291397 -0.03746862 -0.079814725 0.1518798 0.028170202
-0.0971355 0.096816525 0.037993066 -0.027308358 0.07707342 0.06087591 -0.08397512 0.0627309
0.010568081 -0.012973087 -0.002418815 -0.04190028 0.09708454 -0.002147645 0.013375479 -0.007037778
0.06840218 0.062012278 0.015015581 -0.118526086 0.042438734 -0.22805713 0.005151566 0.009348071
00000000: 876d a23d 95a2 00bc b6b1 0bbe 1a5e 903d
00000010: fd6b a5bc 291e 7f3b 6383 ecbc 591a 15bd
00000020: 7b04 903c 8c75 b63c d453 233c d54e a33c
00000030: 341c edba 75af e03d 7970 a7bc b1e2 0dbe
00000040: f660 953d 67c1 f63c 9fea 913d d9e6 693d
00000050: 7ab0 bbbd cf6f cdbd aa57 083e 949d 8e3c
00000060: 287e 26bd 5dc1 ea3d e90a debc dba8 a1bd
00000070: 80d7 b3bc 7b1f 90bd ac1b ba3c 156d 723d
00000080: 68f1 073d d9f3 52bd 8627 b73c 305e 153d
00000090: 5828 2f3b 9f18 31be df00 d8bd 1ca7 003d
000000a0: 0576 e83c 3488 17bd cef9 38be fdb1 fdbc
000000b0: ff2a b4bd b341 b6b7 ba90 5abc 7e9a 5f3d
000000c0: 3a96 09bc 0ed3 45bd f19c 1f3c d322 24bd
000000d0: 0bc5 bc3d 74f3 c1bc 8595 00bd 5d5e a7bd
000000e0: 8053 95bc e383 9f3d 5469 dcbd fe27 2cbd
000000f0: 7b7e adbd ba2c d4bc 0abc 2dbd ee22 c93c
00000100: ecc0 a43c 941c 2b3d 7fc8 c33c 7835 a7bc
00000110: 6fa4 533d 5130 3ebb 798a 7f3c 97b0 3f3c
00000120: f31e 2dbc 0c20 d5be 57a4 a53d cd78 a73b
00000130: ae0b 6c3d c2d2 bfbd f14e 1cbe 8a45 813d
00000140: 8e8f e63d 5f3b 3abd e256 a63d fe4d 64bd
00000150: 141a 8fbd 19c5 0cbd 7c9a d5bb 2a0b 3fbd
00000160: 5b85 843d e816 c33d 50d0 0b3e 4876 6dbc
00000170: dfc8 4d3d 8e9d 1a3d 3df2 3e3e 1143 63bc
00000180: 414b 343e cb08 a0bb c1fc 1a3c bede 783d
00000190: e095 653d 619f 9cbc 461d e93c 4657 103d
000001a0: 2bf2 f1bd d7e9 373d fadd efbd e2a7 d83d
000001b0: f8a6 98bd 8d1b 063e be25 51bd d494 333b
000001c0: 9fc5 e53d f5b4 003e 47cc 463d 7443 41bb
000001d0: c91e c3bd 8340 fdbd 493e 11bd 80a3 c6bd
000001e0: 0c40 12bd cd7f 853c 92dc a23d 6332 273d
000001f0: bc18 ea3c ac2f a13d 0a9a 5b3c 6444 39bb
00000200: 89f4 983d eabe 3d3d e6bd 32bd f329 bf3d
00000210: 35d0 3abc fcf8 e73d 01f0 dbbc 946d 08bd
00000220: 5cb3 2ebe 78c5 d03c 4692 28be e0b5 18be
00000230: d271 32be 9fc4 103c 0582 1d3c 3e90 d53d
00000240: d1a3 3c3c 66df 923d e6ff cb3b f0e9 52bc
00000250: e42d b93c 900f 793d 71d4 583d 6c2b 7bbe
00000260: eaf4 5bbd d47c 8d3d bbce 5abd 71de 61bc
00000270: 142d 2ebe be92 83bd 27bb 2e3c 16e5 40bd
00000280: 4419 963d a281 2bbc da27 a4bc 9f27 233d
00000290: fbff 59be 1ec7 55be bd1f 84bd be42 0f3e
000002a0: 7bf3 ec3b bf58 263d 8d20 a73b 06da a8bd
000002b0: 0ca0 0fbd d81b a03d f5dd 25be 0436 84bd
000002c0: d011 1dbc a6d0 eebd 6721 fb3d 3d96 013d
000002d0: c3e7 983c da9c bf3d 600e 2cbd b9df 0d3c
000002e0: 6e00 97b9 3114 d33c 68e2 4bba 9b71 033c
000002f0: 9533 51be 9835 c33d 8662 053d 353e a43d
00000300: dad1 d6bb 916b b23d 6cf0 693d 3acb a53c
00000310: bd0c ddbd 4259 6fbd d353 423d 644d 1abc
00000320: 32c8 33bd eb7a 2dbc 9e4c 7cbc 93ee 11bd
00000330: 029e 1bbd 87d2 e8bd 0651 16be 1bfe 3abd
00000340: 6323 40bd 1f08 7d3d a6f2 01bd 90de 263d
00000350: 72a1 e23d 7648 023e 6709 4cbd 91be 2c3b
00000360: 7e3d 8b3d 0059 66bd 9a3e 74be e417 41be
00000370: d0a9 693d 8f37 c1bd 3cb9 61bd 81c2 323d
00000380: 4214 e73b a524 3c3d 48eb a7bd 253a a6bc
00000390: b278 19bd e775 a3bd 6186 1b3e 32c5 e63c
000003a0: faee c6bd be47 c63d 9e9e 1b3d c7b5 dfbc
000003b0: abd8 9d3d 0559 793d 26fb abbd 0f79 803d
000003c0: bf25 2d3c 128d 54bc fb84 1ebb a19f 2bbd
000003d0: 42d4 c63d 81bf 0cbb d324 5b3c 299d e6bb
000003e0: 7116 8c3d 9600 7e3d e903 763c cebd f2bd
000003f0: 3dd4 2d3d cf87 69be 78ce a83b a728 193c

fc2.bias f4 [384]
-0.09753255 0.0038118316 -0.043019924 -0.054762565 -0.019238027 -0.00096987066 0.03439728 -0.02410099
-0.055036843 0.0012916806 0.021141516 0.004564604 -0.0057794573 -0.036503028 0.029628482 0.012781397
0.018811243 0.0021544653 -0.0051018693 -0.0111653665 -0.041829117 -0.014255748 -0.017271534 -0.02411079
-0.063959144 0.02609633 -0.035813086 0.009859669 0.050638303 -0.07526104 0.0008535951 0.016323907
0.026023552 -0.022196399 0.0006122014 0.026836272 0.016994674 -0.05037273 -0.049947754 0.0071644285
0.045170072 -0.0014768895 -0.00047713512 -0.07473341 -0.035275206 -0.035813406 -0.018126503 0.023733804
0.034662884 0.03767334 -0.022742406 0.014236094 -0.023758471 0.0031175488 -0.025474966 0.03817862
0.03209815 -0.004657159 -0.0325421 0.01962862 0.031013228 -0.005205185 -0.010503254 -0.0078046652
-0.04976932 0.018711442 -0.029011782 -0.07223549 -0.042148914 0.022956342 0.0033352203 0.02310351
0.0021966114 -7.749193e-05 -0.0017910954 -0.024393752 -0.019702045 0.013211258 -0.0020485113 0.009872481
-0.047308587 -0.0061815553 0.016266258 -0.018200696 0.02296816 0.02937457 -0.034942035 0.013166423
-0.010195884 -0.058470927 0.025707316 0.004485616 -0.035065334 0.020219004 -0.009766394 0.020208377
0.02432414 0.03045421 -0.06315474 -0.04512395 0.004789897 -0.00043915864 -0.0043687047 0.052263528
-0.030445164 0.019542998 0.057415836 -0.037524864 -0.0028912064 0.020714428 0.03768016 -0.0015500439
0.036851518 0.009005362 0.010542953 -0.078892596 -0.01619059 0.027608091 0.022839297 -0.022714041
-0.027089376 -0.021588925 -0.0088731395 0.032776013 0.039621096 0.0042588473 -0.055507742 -0.023213435
0.06852161 0.03471944 0.0057011507 0.03958191 -0.034971643 0.00645113 0.022252062 -0.025897253
0.0074487855 -0.017272172 -0.014191551 -0.033050787 0.026422258 -0.04954612 -0.01961599 -0.081881255
0.06761329 -0.050720196 -0.041994832 0.009028447 -0.0005662748 -0.013093795 -0.021262242 0.017437357
-0.029970089 -0.038089458 -0.03054805 -0.012038614 -0.034450524 0.003171993 -0.00487401 0.027619772
-0.035770033 0.0020915351 0.047030024 -0.059411645 0.0042124926 0.012465968 0.02359824 0.039985478
-0.04938569 0.050245214 -0.018835247 -0.004665642 0.06636267 -0.017139286 0.05497197 0.07622725
0.026733031 -0.024034772 0.055369508 0.024620378 0.050698176 -0.019325089 -0.024472006 0.015955726
0.0028522653 0.027974822 -0.01795319 -0.027725842 0.04319849 0.011564025 0.011165441 -0.0044252514
-0.01582269 0.013937055 0.03336307 -0.039573506 0.013935555 0.04065864 -0.014046848 -0.004375835
-0.0444341 -0.006746363 -0.044679258 -0.009545297 -0.01841355 -0.02577803 0.05798455 0.051026054
0.030889006 -0.013830947 -0.067646354 0.04732275 0.038198035 0.06404454 -0.03669286 -0.018101653
-0.030635409 -0.008937984 -0.03262579 0.01418109 -0.014741431 -0.016517904 0.033152834 0.0039800555
0.022530327 -0.031102758 -0.013851114 -0.0746321 0.0483545 -0.011955311 0.033747833 0.0019270678
-0.04023722 -0.0047148108 -0.042055525 0.037415255 0.00789546 0.014770353 0.014698917 0.03236913
0.0016750079 -0.013826058 0.06679176 -0.005333399 0.047749095 -0.025679993 0.020437561 -0.02235902
0.004309351 0.05737777 0.017654687 -0.019501194 0.0065505733 0.0073300037 0.0668186 0.03584184
00000000: 25bf c7bd eccf 793b a935 30bd b64e 60bd
00000010: 1199 9dbc eb3e 7eba 2ae4 0c3d 706f c5bc
00000020: 506e 61bd 9c4d a93a f930 ad3c ac92 953b
00000030: 9a61 bdbb 3384 15bd 6eb7 f23c 1169 513c
00000040: 091a 9a3c ee31 0d3b 952d a7bb f1ee 36bc
00000050: 0255 2bbd f190 69bc 087d 8dbc fe83 c5bc
00000060: 03fd 82bd f8c7 d53c beb0 12bd 738a 213c
00000070: 1c6a 4f3d 7622 9abd ccc3 5f3a b7b9 853c
00000080: 582f d53c 39d5 b5bc 247c 203a bed7 db3c
00000090: 6a38 8b3c a353 4ebd 0496 4cbd 95c3 ea3b
000000a0: 4104 393d 3094 c1ba fe27 fab9 d40d 99bd
000000b0: bc7c 10bd 14b1 12bd 087e 94bc 656d c23c
000000c0: abfa 0d3d 5c4f 1a3d 484e babc 823e 693c
000000d0: 20a1 c2bc ca4f 4c3b e0b0 d0bc 2f61 1c3d
000000e0: 5a79 033d 159b 98bb dd4a 05bd 33cc a03c
000000f0: 740f fe3c 4290 aabb d715 2cbc 47be ffbb
00000100: eada 4bbd bd48 993c 1eaa edbc 33f0 93bd
00000110: 57a4 2cbd f00e bc3c b693 5a3b 9243 bd3c
00000120: 06f5 0f3b 2a83 a2b8 30c3 eaba 68d5 c7bc
00000130: 2f66 a1bc 0874 583c 5140 06bb 30c0 213c
00000140: a6c6 41bd a58e cabb d140 853c a019 95bc
00000150: b927 bc3c f0a2 f03c 611f 0fbd fbb7 573c
00000160: a30c 27bc 367f 6fbd 2698 d23c 13fc 923b
00000170: aba0 0fbd 53a2 a53c 3a03 20bc 0a8c a53c
00000180: 6b43 c73c 1b7b f93c 4657 81bd e4d3 38bd
00000190: 91f4 9c3b e03e e6b9 5a27 8fbb 4812 563d
000001a0: 2368 f9bc a318 a03c de2c 6b3d acb3 19bd
000001b0: 657a 3dbb 4eb1 a93c 8356 1a3d d82a cbba
000001c0: 9ef1 163d 3a8b 133c 5abc 2c3c 7192 a1bd
000001d0: 21a2 84bc 5d2a e23c 7a19 bb3c cc12 babc
000001e0: 8aea ddbc 42db b0bc a560 11bc 2440 063d
000001f0: bb49 223d cd8d 8b3b 165c 63bd 1a2a bebc
00000200: 0f55 8c3d f935 0e3d b8d0 ba3b a420 223d
00000210: 6d3e 0fbd 0064 d33b f549 b63c 7a26 d4bc
00000220: f114 f43b 5f7e 8dbc ae83 68bc 4360 07bd
00000230: 7e73 d83c dff0 4abd b6b1 a0bc 5cb1 a7bd
00000240: d678 8a3d fbbf 4fbd c602 2cbd 0dec 133c
00000250: 0f72 14ba 5b87 56bc 272e aebc cad8 8e3c
00000260: d583 f5bc b103 1cbd e73f fabc 9b3d 45bc
00000270: fe1b 0dbd 36e1 4f3b 29b6 9fbb dc42 e23c
00000280: 9983 12bd 2312 093b 8ea2 403d a059 73bd
00000290: f308 8a3b 0f3e 4c3c 1951 c13c d0c7 233d
000002a0: a648 4abd edcd 4d3d 604c 9abc 3ee2 98bb
000002b0: 27e9 873d b067 8cbc 4a2a 613d 081d 9c3d
000002c0: 3bff da3c 92e4 c4bc 23cb 623d adb0 c93c
000002d0: e4a8 4f3d a64f 9ebc 8479 c8bc 95b5 823c
000002e0: 12ed 3a3b 742b e53c 9112 93bc 4e21 e3bc
000002f0: e6f0 303d 0977 3d3c 41ef 363c b301 91bb
00000300: 969e 81bc 3f58 643c b7a7 083d d417 22bd
00000310: f451 643c ad89 263d c024 66bc 2a63 8fbb
00000320: 8800 36bd 9810 ddbb 9901 37bd e163 1cbc
00000330: 03d8 96bc 722c d3bc 3581 6d3d b200 513d
00000340: f10a fd3c 329b 62bc 2c8a 8abd 80d5 413d
00000350: 8b75 1c3d c929 833d 414b 16bd eb49 94bc
00000360: 1cf7 fabc 9f70 12bc 9fa2 05bd cd57 683c
00000370: 0b86 71bc 8e50 87bc 44cb 073d 206b 823b
00000380: 8591 b83c 36cb febc c8ef 62bc b7d8 98bd
00000390: 5e0f 463d 35e0 43bc 2b3b 0a3d aa95 fc3a
000003a0: c8cf 24bd b37e 9abb 6a42 2cbd bd40 193d
000003b0: f65b 013c 5aff 713c bad3 703c 7e95 043d
000003c0: f08b db3a b186 62bc 1eca 883d cbc3 aebb
000003d0: 8e94 433d d95e d2bc ac6c a73c 432a b7bc
000003e0: 7535 8d3b f404 6b3d 90a0 903c f8c0 9fbc
000003f0: 31a6 d63b 8730 f03b 31d8 883d e5ce 123d

fc3.weight f4 [2, 384]
0.27515516 -0.0012775239 -0.021228235 -0.09096854 -0.09171085 0.0041281427 0.0359805 0.006688304
-0.07756391 0.029603917 -0.005325743 -0.08148744 0.23031794 0.00063327997 -0.03181744 -0.060990553
0.024105905 0.009517631 -0.08627031 0.05166383 -0.003631325 0.02607922 -0.059954505 -0.02539564
-0.1999035 0.037130352 -0.0577828 0.00073992775 -0.07368705 -0.14542072 -0.021687381 0.012874324
0.0078057917 -0.20535177 0.023067225 -0.09149267 0.07107651 -0.13274361 0.036737967 -0.008533258
0.07483671 0.005262343 -0.09598933 -0.059702843 -0.015055004 0.06800432 0.046446837 -0.016784327
0.004951108 -0.058476184 -0.08488466 0.025488593 -0.0005343834 0.07745594 -0.20202762 -0.13966127
0.0057774414 -0.1379765 -0.00033478386 -0.024760244 0.0082758 0.014912139 -0.12404598 0.017630966
0.1197968 -0.009495382 -0.0039165276 0.15299599 -0.07696233 -0.20016757 -0.006060839 -0.05991873
-0.020696536 -0.013109799 -0.1991517 0.04270201 0.065293975 -0.12942952 -0.19329745 0.018632598
-0.04116457 -0.005566736 -0.043205604 -0.026267074 0.024878358 -0.0021451532 -0.07038295 0.0011818357
0.28673604 -0.12940295 0.0071925092 0.0016250757 -0.122261554 0.015942076 -0.13367039 0.018681055
-0.09969069 -0.2090994 0.15771568 0.051493663 -0.057820812 0.0126835685 -0.038158998 0.01455541
0.033614267 -0.039687444 -0.06465023 0.012203089 0.0019900713 0.044179205 -0.02151283 -0.04723247
-0.09197447 0.09821999 -0.026805589 0.17622304 -0.1224679 0.0007083522 -0.011671336 -0.005582045
-0.01712111 0.017713184 0.34557915 -0.09163415 -0.13282855 0.028887838 -0.2237765 -0.24257945
-0.015015638 0.0057021524 -0.012091202 -0.12523277 -0.03025302 -0.07769813 -0.20540804 -0.033371396
-0.06329564 0.02887157 0.20109026 -0.027913978 0.01706772 -0.07021634 -0.14907081 0.005533897
0.13305922 -0.10037771 0.028839776 -0.12453299 -0.015934888 -0.0013474529 -0.043545797 -0.11142112
0.0029323807 -0.0481354 -0.122352354 -0.040918607 -0.12114252 0.026541011 0.011173468 -0.040121783
-0.016093524 0.0030146507 -0.027009334 -0.12821382 0.060714822 -0.0022582104 -0.06162678 -0.038118087
-0.043984734 -0.11088674 -0.05251208 -0.071676485 0.016808288 -0.21547845 -0.043792784 -0.010649937
0.061421745 0.04876657 -0.16796163 0.0068359356 -0.11632642 0.040551472 -0.19451459 -0.03629764
0.0097909 0.17413573 0.029163152 -0.05148128 -0.057765555 0.0070371944 -0.030060599 -0.024489019
-0.13350546 0.00080770726 -0.0699262 0.01858253 -0.06082107 0.0020933612 -0.15070903 0.019311681
-0.15499163 0.006102379 -0.087627135 -0.1279779 -0.053756755 -0.053585142 0.020216973 -2.9485791e-05
0.08712828 -0.04965836 -0.043043658 0.07530898 -0.006062152 0.009021364 -0.039445605 -0.02161235
0.050707217 -0.15741546 0.01058121 0.037000205 -0.02292411 0.031345423 -0.061116483 -0.36423
0.009130228 0.011203106 -0.20990293 -0.12511782 0.020168027 -0.092656076 -0.14024805 -0.06400488
0.035996526 0.017316977 -0.08332501 0.004134088 -0.085107684 -0.031280026 -0.05359422 -0.027946986
-0.06880402 -0.036228597 0.00499155 -0.020889083 0.018408561 0.14034119 -0.06195203 0.0337041
-0.16136324 0.023280673 0.018329008 0.059423055 -0.02888275 0.009067332 0.015411021 0.01503727
00000000: 23e1 8c3e 9772 a7ba d6e6 adbc b74d babd
00000010: e6d2 bbbd 5f45 873b 4a60 133d 8f29 db3b
00000020: d4d9 9ebd ea83 f23c 9283 aebb e3e2 a6bd
00000030: 77d8 6b3e b302 263a 0153 02bd 3bd1 79bd
00000040: bf79 c53c d6ef 1b3c 7dae b0bd 749d 533d
00000050: 86fb 6dbb 17a4 d53c db92 75bd 840a d0bc
00000060: 81b3 4cbe ff15 183d a8ad 6cbd b6f7 413a
00000070: 3ce9 96bd 2be9 14be bca9 b1bc d4ee 523c
00000080: bac7 ff3b bc47 52be 7af7 bc3c 8260 bbbd
00000090: 9090 913d f1ed 07be 8d7a 163d 14cf 0bbc
000000a0: fd43 993d bc6f ac3b 0e96 c4bd f88a 74bd
000000b0: 43a9 76bc d945 8b3d 0a3f 3e3d 497f 89bc
000000c0: e73c a23b b984 6fbd 02d8 adbd 74cd d03c
000000d0: dd15 0cba 38a1 9e3d 54e0 4ebe 5d03 0fbe
000000e0: b150 bd3b b649 0dbe ee85 afb9 ffd5 cabc
000000f0: 3997 073c 0b52 743c d20b febd d16e 903c
00000100: 0658 f53d 8592 1bbc 3756 80bb fbaa 1c3e
00000110: 6d9e 9dbd baf8 4cbe 019a c6bb 586d 75bd
00000120: c88b a9bc 7bca 56bc 6cee 4bbe 4ee8 2e3d
00000130: d9b8 853d 2c89 04be c4ef 45be 64a3 983c
00000140: 2e9c 28bd 2b69 b6bb 5cf8 30bd 0c2e d7bc
00000150: b3cd cb3c b395 0cbb f024 90bd d3e7 9a3a
00000160: 11cf 923e 3582 04be 24af eb3b 7e00 d53a
00000170: 4464 fabd f598 823c e4e0 08be 0309 993c
00000180: a22a ccbd 271e 56be 3880 213e 05eb 523d
00000190: 84d5 6cbd bece 4f3c 9c4c 1cbd d079 6e3c
000001a0: 1daf 093d 4d8f 22bd 5767 84bd 77ef 473c
000001b0: db6b 023b 41f5 343d ad3b b0bc d676 41bd
000001c0: 1c5d bcbd 9027 c93d 6597 dbbc d073 343e
000001d0: 73d0 fabd b6b0 393a 2239 3fbc 96e9 b6bb
000001e0: 9241 8cbc 3d1b 913c c0ef b03e afaa bbbd
000001f0: 3504 08be 30a6 ec3c ab25 65be bf66 78be
00000200: 2704 76bc 1fd9 ba3b 2d1a 46bc 053d 00be
00000210: 2ed5 f7bc 3220 9fbd 7c56 52be 72b0 08bd
00000220: 25a1 81bd 1284 ec3c 9bea 4d3e dbab e4bc
00000230: 9ad1 8b3c 96cd 8fbd 05a6 18be b155 b53b
00000240: ad40 083e d492 cdbd 6541 ec3c 270b ffbd
00000250: e289 82bc 049d b0ba 145d 32bd c230 e4bd
00000260: 2f2d 403b a029 45bd df93 fabd 459a 27bd
00000270: 9219 f8bd 896c d93c ec10 373c bd56 24bd
00000280: 91d6 83bc 7291 453b ae42 ddbc 7c4a 03be
00000290: 1bb0 783d 7cfe 13bb 5d6c 7cbd b621 1cbd
000002a0: 5629 34bd 9618 e3bd e816 57bd 1fcb 92bd
000002b0: 89b1 893c 62a6 5cbe 1060 33bd 137d 2ebc
000002c0: 5e95 7b3d 74bf 473d 22fe 2bbe fcff df3b
000002d0: 8c3c eebd 4d19 263d d52e 47be d6ac 14bd
000002e0: 036a 203c a350 323e 90e7 ee3c 09de 52bd
000002f0: 939b 6cbd 4498 e63b a541 f6bc 329d c8bc
00000300: a8b5 08be 51bc 533a 7835 8fbd 643a 983c
00000310: 841f 79bd c630 093b 7853 1abe 8833 9e3c
00000320: 20b6 1ebe 77f6 c73b db75 b3bd a30c 03be
00000330: 0b30 5cbd 187c 5bbd 119e a53c 4158 f7b7
00000340: 5070 b23d 9166 4bbd 8c4e 30bd 983b 9a3d
00000350: 04a5 c6bb 58ce 133c b791 21bd 620c b1bc
00000360: 5fb2 4f3d 8531 21be d05c 2d3c 878d 173d
00000370: 58cb bbbc 0f64 003d 4755 7abd 5b7c babe
00000380: f496 153c 3b8d 373c cbf0 56be e31e 00be
00000390: 6b37 a53c 78c2 bdbd 2f9d 0fbe fe14 83bd
000003a0: 1871 133d 55dc 8d3c 4ea6 aabd 3e77 873b
000003b0: f04c aebd 7c1f 00bd 9d85 5bbd 14f1 e4bc
000003c0: 1fe9 8cbd 7064 14bd 2890 a33b 951f abbc
000003d0: 8dcd 963c 9ab5 0f3e 69c1 7dbd 4f0d 0a3d
000003e0: 683c 25be 1cb7 be3c b726 963c 9765 733d
000003f0: 849b ecbc 268f 143c 827e 7c3c e25e 763c

fc3.bias f4 [2]
-0.035278402 0.07107443
00000000: 1680 10bd 798f 913d
