p3_collab-compet/agent_1_checkpoint_critic_solved.pth (torch_old, 844810 bytes, 5 tensors)

fcs1.weight f4 [512, 24]
0	0xbc816671	-0.015795918
1	0xbd0ef6ec	-0.03490345
2	0x3d0aed99	0.033917997
3	0xbcd9e949	-0.026600497
4	0x3defdf50	0.11712515
5	0x3ddbd97a	0.1073484
6	0xbd183c1f	-0.03716671
7	0x3cd48267	0.025941087
8	0xbca918f4	-0.020641781
9	0xbccdec14	-0.025136985
10	0x3cc9f5ea	0.024653394
11	0xbcc6841d	-0.024232918
12	0x3ce659c5	0.028118977
13	0x3d1c837e	0.03821134
14	0xbcf544a2	-0.029939953
15	0x3cbd0365	0.023072908
16	0xbd25d17f	-0.040482994
17	0x3d7bb03b	0.061447363
18	0x3c193ba7	0.009352601
19	0x3b21072f	0.0024570932
20	0xbd26028f	-0.040529784
21	0xbe860d21	-0.26181892
22	0xbc8d1dbd	-0.017226094
23	0x3b12d98b	0.0022407498
24	0x3ceb075d	0.028690035
25	0x3ce38e33	0.027777767
26	0x3cb64053	0.022247469
27	0xbc7e3539	-0.015515619
28	0x3cc879a9	0.024472075
29	0xbd0eb78c	-0.034843013
30	0xbc82fa1b	-0.0159884
31	0xbc01ebe8	-0.00792978
32	0x3c927628	0.017878607
33	0xbc8da585	-0.01729084
34	0x3cba65d9	0.022753643
35	0xbcafdf8d	-0.021468902
36	0x3c9db289	0.019250171
37	0x3bf2bf80	0.0074080825
38	0x3cb099af	0.021557657
39	0x3d483996	0.048883043
40	0x3da312ed	0.07962594
41	0x3ce421cf	0.027848152
42	0x3a52bce5	0.0008039012
43	0x3c889802	0.016674045
44	0xbda47198	-0.08029479
45	0xbde0fb8f	-0.10985481
46	0x3c91c728	0.01779516
47	0x3c9fbd72	0.019499514
48	0x3d1ea43f	0.038730856
49	0x3d7c8291	0.061647955
50	0xbb8cf836	-0.00430205
51	0x3da7e462	0.081978574
52	0x3c971519	0.018442677
53	0x3bcd2d06	0.0062614707
54	0xbd0bad5e	-0.034100883
55	0x3d251292	0.040300913
56	0x3ce1c88c	0.027561449
57	0xbd4ef493	-0.050526213
58	0xbc084294	-0.008316655
59	0x3c4bdac0	0.012442291
60	0x3c4fde7f	0.012687325
61	0x3d35169a	0.044211008
62	0xbc9d3900	-0.019192219
63	0xbcb7c01c	-0.022430472
64	0x3bdbfef3	0.006713742
65	0xbdf902f8	-0.12158769
66	0xbd3e1347	-0.046405103
67	0xbd579702	-0.052634247
68	0x3d489001	0.048965458
69	0xbd9075ba	-0.070537046
70	0x3cb92db6	0.022604804
71	0xbd86972e	-0.06571804
72	0xbd2130d3	-0.039353203
73	0xbc9b2c4a	-0.018942017
74	0x3d144324	0.036196843
75	0xbcfbca76	-0.03073619
76	0x3d9ab7a8	0.07554561
77	0x3d316572	0.043309636
78	0xbd1c82e8	-0.03821078
79	0x3c964634	0.018344022
80	0x3c41f226	0.011837518
81	0x3d475943	0.04866911
82	0x3c2a0a02	0.010378363
83	0x3c0a613b	0.008446033
84	0xbcdd2a9a	-0.026997853
85	0xbcc85fe4	-0.024459787
86	0xbcadbca1	-0.02120811
87	0x3c623ff0	0.013809189
88	0x3b3ac9dc	0.0028501665
89	0x3d8d02df	0.06885313
90	0xba472858	-0.0007597259
91	0x3b03b7d1	0.0020098577
92	0x3d1ce2b5	0.038302142
93	0xbd899a97	-0.06718939
94	0xbcc75c0a	-0.02433588
95	0x3cba0bfe	0.022710796
96	0x3d1201ab	0.035646122
97	0xbd1e09ec	-0.03858368
98	0xba1d8944	-0.0006009529
99	0x3c2782e9	0.0102240825
100	0x3d9a468c	0.07532987
101	0xbd9e9c36	-0.077446386
102	0xbcdb93d2	-0.026803885
103	0x3b69aabf	0.003565475
104	0xbcc81422	-0.024423663
105	0xbcedba82	-0.029019598
106	0x3c82e040	0.015976071
107	0x3c22afe3	0.00992963
108	0x3d622cba	0.055218436
109	0xbde5f083	-0.112275146
110	0xbd3ae1d7	-0.045625534
111	0x3cc170ec	0.023613416
112	0x3bead9a1	0.0071670567
113	0xbced6f49	-0.028983729
114	0xbcc66775	-0.024219254
115	0x3c5fefcd	0.013668013
116	0xbbff49c0	-0.007790774
117	0xbd995a0f	-0.074878804
118	0x3ca6c61b	0.020358136
119	0xbce9b507	-0.028528703
120	0x3d137ca2	0.03600753
121	0x3cc34351	0.02383581
122	0x3bf865e9	0.007580508
123	0xbc27b1b1	-0.010235236
124	0xbcdcec62	-0.026968185
125	0x3bb65d71	0.0055653383
126	0xba138a84	-0.00056282454
127	0xbacff68e	-0.0015866326
128	0x3bf9592b	0.0076095066
129	0x3d5237b5	0.051322658
130	0xbc92daac	-0.017926537
131	0xbcac95e6	-0.02106757
132	0x3d151cb5	0.03640433
133	0xbd89c63c	-0.06727263
134	0x3cb70c1a	0.022344638
135	0xbb92e420	-0.004482761
136	0x3c6b032e	0.01434402
137	0x3c6faf03	0.014629128
138	0x3cd24a11	0.025670083
139	0x3c28f89e	0.010313181
140	0x3c8a4aee	0.016881432
141	0x3e0c05ae	0.13674042
142	0xbca3205f	-0.019912897
143	0x3bfdf840	0.007750541
144	0xbccd66cc	-0.025073431
145	0xb9838370	-0.00025084196
146	0xbd114a0b	-0.035471004
147	0xbcc718db	-0.024303844
148	0x3c482bc3	0.012217465
149	0xbcfca344	-0.03083957
150	0x3d209e09	0.039213214
151	0xbcb2c793	-0.02182368
152	0xbc4c5708	-0.012471922
153	0xbb9b591e	-0.004740848
154	0x3bf8b06d	0.007589391
155	0x3ce53cec	0.027983151
156	0x3cffe853	0.03123871
157	0xbdaee8e6	-0.085405156
158	0xbad76ea0	-0.0016436167
159	0x3cbf35b8	0.023341045
160	0x3d05a756	0.032630287
161	0xbd65646d	-0.056003977
162	0xbc8fb832	-0.017543886
163	0xbcea3c03	-0.028593069
164	0xbce2e7a1	-0.02769834
165	0x3d9b2bb2	0.075766936
166	0x3c44ce32	0.012012051
167	0x3a39d90a	0.0007089531
168	0x3ceb2416	0.02870373
169	0x3b9415b7	0.00451919
170	0x3c0d722b	0.008633177
171	0xbcc6baeb	-0.024259051
172	0x3d3763ee	0.044773035
173	0x3e3c1278	0.1836642
174	0xbc41e4f9	-0.0118343765
175	0xbc3eb7c4	-0.011640493
176	0x3b0c3140	0.002139166
177	0x3c902557	0.01759593
178	0x3ca184fa	0.019716728
179	0x3c6b4679	0.014360064
180	0x3c4ebc82	0.012618186
181	0x3db6b4ce	0.089212045
182	0xbc898c1a	-0.016790438
183	0x3c84869a	0.016177464
184	0xbc31da4c	-0.010855269
185	0x3d5beae6	0.053690813
186	0xbc280a16	-0.010256311
187	0xbbf60107	-0.0075074467
188	0xbc0b8a2b	-0.0085168285
189	0xbe5804d6	-0.21095595
190	0x3c4528de	0.012033669
191	0x3c2a56c2	0.010396661
192	0xbc06f2ee	-0.00823663
193	0x3cdd8640	0.027041554
194	0x3c221347	0.009892291
195	0x3d25e374	0.04050012
196	0x3dbaec31	0.09127081
197	0xbdd8c0d7	-0.10583656
198	0x3a440766	0.0007477909
199	0x3cd6ce12	0.026221309
200	0x3c52a335	0.012856294
201	0xbd0cdd22	-0.034390576
202	0x3c0daa60	0.008646578
203	0xbb93f7bd	-0.0045156167
204	0x3cf14d8a	0.029455919
205	0xbd88fd90	-0.06688988
206	0x397c2fdc	0.00024050422
207	0xb70bb18b	-8.326383e-06
208	0x3c23b907	0.009992844
209	0x3c7a0180	0.015259147
210	0x3cbf695e	0.023365673
211	0x3dc192fe	0.09451865
212	0xbc777d77	-0.015105597
213	0x3bd5853e	0.006516128
214	0xbd17e37c	-0.03708218
215	0x3d39f71f	0.04540169
216	0x3cc656ea	0.024211366
217	0x3c3efa7c	0.0116564
218	0xbbca81a5	-0.0061800056
219	0x3d6bd105	0.057572383
220	0xbd953767	-0.07285958
221	0xbd89e495	-0.06733052
222	0x3c5b44a7	0.013383067
223	0x3db1d7f0	0.08683765
224	0x3c56abc3	0.013102475
225	0x3cd409a0	0.025883496
226	0xbc466ff1	-0.01211165
227	0x3d6b2062	0.05740393
228	0xbdba19d0	-0.090869546
229	0xbdc7ac7e	-0.09749697
230	0x3c1235b1	0.008923934
231	0xbcc5ca5c	-0.024144344
232	0x3d578667	0.05261841
233	0xbd090096	-0.033447824
234	0xbcc39983	-0.023876911
235	0xbd1dec1b	-0.038555246
236	0xbd4fb19a	-0.050706483
237	0xbdf7f4bc	-0.12107226
238	0x3cd64677	0.026156647
239	0xbd09a9eb	-0.033609312
240	0x3d3d9f8d	0.046294738
241	0xbdef15c7	-0.116740756
242	0xbd3f8e5a	-0.046766616
243	0x3b6d934a	0.0036251121
244	0xbd8a080e	-0.067398176
245	0xbc541ee1	-0.012946815
246	0xbd0610e0	-0.032730937
247	0x3d3e435a	0.04645095
248	0x3d864b0c	0.06557283
249	0xbd77d71b	-0.060507875
250	0xbc516e01	-0.012782575
251	0x3d6d8a23	0.057993066
252	0x3cb0185e	0.021495994
253	0xbd6ba1c4	-0.05752732
254	0x3c5c2a1f	0.013437777
255	0x3cb68fe7	0.022285415

fcs1.bias f4 [512]
0	0x3e0c4b3c	0.13700575
1	0x3e39e0c6	0.1815215
2	0x3e24dd3e	0.16100022
3	0x3d9f540f	0.07779705
4	0xbd406098	-0.04696712
5	0x3e47ac8d	0.19499417
6	0x3e32b616	0.17452273
7	0x3e756f0a	0.2396814
8	0x3d9bfd6d	0.076166965
9	0xbe1937c2	-0.14962676
10	0x3daa80a0	0.083253145
11	0xbd0ce05a	-0.034393646
12	0x3d170503	0.036870014
13	0x3dc6c7fc	0.09706113
14	0xbe0c7d4f	-0.13719676
15	0xbd4b7ba4	-0.04967846
16	0xbdf80445	-0.12110189
17	0xbe1e870e	-0.15481207
18	0x3e01bc04	0.12669379
19	0xbc83efce	-0.016105559
20	0xbe79435f	-0.24342106
21	0xbe13a209	-0.1441728
22	0xbe4b23dd	-0.198379
23	0xbcfb272d	-0.030658329
24	0xbcd90ba2	-0.026494805
25	0xbcd8ef40	-0.02648127
26	0x3d0e1ac3	0.03469349
27	0xbbed5fbf	-0.00724408
28	0xbdacbf65	-0.08434943
29	0x3e390363	0.18067698
30	0xbdabf81f	-0.08396935
31	0xbd4f3167	-0.050584223
32	0xbcf28950	-0.029606491
33	0xbd7cf835	-0.061760146
34	0xbe0031c4	-0.12518984
35	0xbce3d773	-0.027812695
36	0x3ce5497e	0.027989145
37	0x3dbb06b4	0.09132138
38	0x3e687583	0.22701077
39	0xbe405fad	-0.18786497
40	0xbe1bafbd	-0.15203758
41	0x3e1114d7	0.14168106
42	0x3e1d3433	0.15351944
43	0x3dc4bf34	0.096067816
44	0x3da22705	0.07917599
45	0x3dccdb28	0.10002738
46	0x3d2ee930	0.042702854
47	0x3d272ad7	0.04081234
48	0x3d945464	0.07242659
49	0x3e2f70ab	0.17132823
50	0x3dd98071	0.106202014
51	0xbb57372e	-0.0032839286
52	0xbce7996c	-0.0282714
53	0x3e558e98	0.20855176
54	0x3d15bf45	0.036559362
55	0xbc8f5d1c	-0.017500453
56	0xbe463ded	-0.1935956
57	0xbe61b695	-0.22042306
58	0xbd8d1776	-0.068892404
59	0x3e3ce031	0.18444897
60	0x3db010bf	0.08596944
61	0x3dc1b866	0.09458999
62	0xbe686614	-0.2269519
63	0x3d754384	0.05987884
64	0xbe3a2495	-0.18178017
65	0xbe1f5463	-0.15559535
66	0x3de12401	0.10993195
67	0xbc2efd3c	-0.010680493
68	0xbe773304	-0.24140555
69	0xbda15e7f	-0.07879352
70	0x3ded9baa	0.11601956
71	0xbe7b2a80	-0.24527931
72	0xbd46a8a7	-0.048500683
73	0xbbcb91b8	-0.0062124394
74	0xbe49b86a	-0.19699255
75	0xbe09b674	-0.13448507
76	0xbd0f52c2	-0.034991033
77	0xbe2b97a5	-0.16757067
78	0xbcf969e4	-0.030446
79	0xbc660aa9	-0.0140406275
80	0xbe8375aa	-0.25675708
81	0xbd7bb82c	-0.061454937
82	0xbe7fc05f	-0.24975727
83	0x3e0cfd9c	0.1376862
84	0x3d99fd3f	0.07519006
85	0xbde348d8	-0.11097878
86	0xbd81a539	-0.06330342
87	0xbe01c168	-0.12671435
88	0xbc40b432	-0.011761712
89	0x3d1a1d1d	0.03762542
90	0xbe5ccc81	-0.21562387
91	0x3e16ad92	0.1471465
92	0xbe968555	-0.293986
93	0xbe32907b	-0.17437927
94	0x3c806614	0.015673675
95	0x3dee9bfa	0.11650844
96	0xbcaccdc7	-0.021094216
97	0xbc0862ee	-0.008324368
98	0xbe4596eb	-0.19295852
99	0xbbf807b2	-0.0075692767
100	0xbdcbe41c	-0.09955618
101	0x3db94044	0.09045461
102	0x3e83f883	0.25775537
103	0x3c6dc9e5	0.014513467
104	0xbe423844	-0.18966776
105	0xbd8fb9c5	-0.070178546
106	0xbb8896b6	-0.004168357
107	0xbba909d4	-0.0051586423
108	0xbdff3ef9	-0.12463183
109	0x3da191a1	0.07889105
110	0xbe4e6c16	-0.20158419
111	0x3d86f2b8	0.06589264
112	0xbe603c45	-0.21897991
113	0x3e3b22dd	0.18275018
114	0xbe77aa75	-0.24186118
115	0xbe724ded	-0.23662539
116	0xbd755dfb	-0.05990408
117	0x3e37ca7e	0.17948338
118	0xbe973b4f	-0.29537436
119	0x3e4afa6d	0.19822092
120	0xbe819070	-0.2530551
121	0xbc93120b	-0.01795294
122	0x3dd66bc1	0.10469771
123	0x3d68f6db	0.056876045
124	0xbe137925	-0.14401682
125	0x3d5ecd85	0.054395217
126	0x3e06de48	0.13170731
127	0x3dc6626f	0.096867435
128	0x3de0d9f2	0.1097907
129	0x3e33dfd7	0.17565857
130	0x3e58c5b3	0.21169166
131	0xbdc46903	-0.09590342
132	0xbe3aee63	-0.18255
133	0x3e60ce9b	0.21953814
134	0xbd0d3e49	-0.034483228
135	0xbdf3dc2e	-0.1190723
136	0xbd47b68b	-0.04875807
137	0xbd01f5c0	-0.031728506
138	0xbdb24141	-0.087038524
139	0xbd4618da	-0.048363544
140	0x3d06dba9	0.032924328
141	0xbe3db0a0	-0.18524408
142	0xbb3a81e8	-0.0028458778
143	0x3d88a471	0.0667199
144	0x3e12773f	0.14303301
145	0xbd9cf641	-0.07664157
146	0xbe850076	-0.25976914
147	0x3e1bbf36	0.1520966
148	0xbe581c64	-0.2110458
149	0xbe0313d7	-0.12800537
150	0xbdd0eaeb	-0.10201057
151	0x3dc68aa1	0.0969441
152	0x3e5604e5	0.20900305
153	0xbdae389f	-0.08506893
154	0xbd73b8af	-0.0595023
155	0xbe351f80	-0.17687798
156	0xbe872f4a	-0.26403266
157	0xbe40b2dd	-0.18818231
158	0x3c34848d	0.011017931
159	0xbd024466	-0.03180351
160	0xbe61650a	-0.220112
161	0x3ddec270	0.1087693
162	0xbe0f04c3	-0.1396666
163	0x3cc556f5	0.024089316
164	0x3dd9cd5f	0.106348746
165	0xbe1a7007	-0.15081798
166	0xbd959739	-0.07304234
167	0x3e09f350	0.13471723
168	0x3e13c575	0.14430793
169	0x3e5940b1	0.21216084
170	0xbc8efbd7	-0.017454071
171	0x3d2cac21	0.042156342
172	0xbe1a3296	-0.1505836
173	0xbe5f81d5	-0.2182687
174	0x3e40b72e	0.18819878
175	0xbe6d1288	-0.231516
176	0x3da7eb5f	0.0819919
177	0x3e042c29	0.12907471
178	0xbe6639a3	-0.22482924
179	0xbe04d870	-0.1297319
180	0x3e81df63	0.25365743
181	0xbda9889d	-0.0827801
182	0xbda40fe1	-0.08010841
183	0x3bf6ca2e	0.007531426
184	0xbd17cf46	-0.037062906
185	0xbd97e249	-0.07416207
186	0x3d0c7a61	0.034296397
187	0xbe1947d7	-0.14968811
188	0x3c9a08ea	0.018803079
189	0x3e0a1b3d	0.13486953
190	0x3c2f06f1	0.010682807
191	0x3d5c7c66	0.053829573
192	0xbe55037f	-0.20802115
193	0xbc2e20aa	-0.010627905
194	0x3b93b398	0.004507493
195	0xbd0da446	-0.03458049
196	0xbe2675d5	-0.16255887
197	0x3e26b5ed	0.16280337
198	0xbe02f278	-0.12787807
199	0x3dd08ef3	0.101835154
200	0xbe462b30	-0.19352412
201	0x3d9676ec	0.07346901
202	0xbdd03a90	-0.1016742
203	0x3da875ab	0.082255684
204	0x3e6e5adc	0.23276848
205	0x3e01d2d7	0.12678085
206	0x3e15c223	0.14624839
207	0xbda4b910	-0.0804311
208	0xbdf66601	-0.120311745
209	0x3e20dee9	0.15710033
210	0xbc4c354b	-0.012463878
211	0xbe30e1eb	-0.17273681
212	0x3db0695e	0.08613847
213	0xbe0092eb	-0.12556045
214	0x3da28b5a	0.079367355
215	0xbd08fd70	-0.03344482
216	0x3e296d42	0.16545585
217	0xbcc7b884	-0.024379976
218	0x3e1d8d8e	0.1538603
219	0x3e3497fb	0.17636101
220	0xbe324536	-0.17409214
221	0xbce65f6f	-0.028121678
222	0x3e6171f3	0.22016124
223	0xbc014a1a	-0.007891202
224	0x3e896a4a	0.26838905
225	0xbd88c37b	-0.0667791
226	0x3d150d12	0.036389418
227	0xbd05fd66	-0.032712363
228	0xbd4f3fa2	-0.050597794
229	0x3d309b5e	0.04311692
230	0x3deb938b	0.11502751
231	0xbd1a70d7	-0.03770527
232	0x3df538a0	0.11973691
233	0x3da7feaf	0.08202874
234	0x3e0b247c	0.13588136
235	0xbdef0610	-0.11671078
236	0x3d248808	0.040168792
237	0xbe18a8c6	-0.14908132
238	0x3d502aeb	0.05082218
239	0x3c1d239d	0.00959101
240	0x3caabf71	0.02084324
241	0x3d325b10	0.043543875
242	0x3d35e380	0.044406414
243	0xbdc1960d	-0.09452448
244	0xbdc2f166	-0.09518699
245	0x3d097ab2	0.033564277
246	0xbe0cec3f	-0.13761996
247	0xbd73440c	-0.059391066
248	0xbc9a554f	-0.018839506
249	0xbe423c32	-0.18968275
250	0xbe1c582a	-0.15268007
251	0xbd9382a4	-0.07202652
252	0x3cc464ed	0.023973906
253	0x3df7d555	0.12101237
254	0xbd30923c	-0.04310821
255	0x3e168f34	0.14703065

fc2.weight f4 [384, 514]
0	0xbe2e0426	-0.1699377
1	0x3cfbfe2d	0.030760849
2	0xbd085d95	-0.03329237
3	0xbda1a567	-0.07892876
4	0x3b8587f9	0.004075047
5	0xbd171018	-0.036880583
6	0xbc3c5ba9	-0.011496463
7	0xbc1c2382	-0.00952995
8	0x3d1f2c7d	0.038860787
9	0xbd832902	-0.06404306
10	0xbd86247a	-0.06549926
11	0xbd4d3658	-0.050100654
12	0x3c543077	0.012951008
13	0xbc0ea6e0	-0.008706778
14	0xbc4ddc3c	-0.012564715
15	0xbda3f902	-0.08006479
16	0xbd4d250a	-0.05008415
17	0x3c752bf5	0.014964093
18	0xbbf79482	-0.0075555453
19	0xbd2fabb8	-0.042888373
20	0x3d37c65d	0.04486691
21	0x3c808186	0.015686762
22	0xbd3a8fe3	-0.045547377
23	0xbc0f23cc	-0.008736562
24	0xbd750adc	-0.05982481
25	0x3cf0fc36	0.029417139
26	0xbdf91bf8	-0.12163538
27	0x3d6ed0f1	0.05830473
28	0xbccdf989	-0.025143402
29	0x3ae5b83e	0.0017526222
30	0x3cecbbeb	0.0288982
31	0x3ca0e01f	0.01963812
32	0xbd5df1e7	-0.054185774
33	0xbe4a8f1c	-0.19781154
34	0xbcc55794	-0.024089612
35	0xbd9ca905	-0.076494254
36	0x3c9984c5	0.018740067
37	0x3c586975	0.013208737
38	0xbd208100	-0.039185524
39	0x3c9a922e	0.018868532
40	0xbda5e639	-0.08100552
41	0xbd251232	-0.040300556
42	0xbd7bc3c0	-0.06146598
43	0xbd669f38	-0.056304187
44	0xbd3a145d	-0.045429576
45	0xbd471fb7	-0.04861423
46	0xbc8d2fb9	-0.01723467
47	0xbd43baf3	-0.04778571
48	0xbc821df2	-0.01588342
49	0x3c6652e0	0.014057845
50	0xbd412e06	-0.047163032
51	0x3bad540f	0.0052895616
52	0xbe1a9e80	-0.15099525
53	0xbd1c83f6	-0.038211785
54	0xbd4686b0	-0.04846829
55	0x3d4f97b3	0.05068178
56	0xbcae2282	-0.021256689
57	0x3c39961f	0.011327296
58	0xbcc04672	-0.023471091
59	0xbe209bef	-0.15684484
60	0x3d7b6aa1	0.061380986
61	0xbdc340c0	-0.095338345
62	0x3d290e2c	0.04127328
63	0x3be81ef4	0.007083768
64	0xbd8c1f4f	-0.06841909
65	0x3c0e41f8	0.00868272
66	0x3d58d181	0.052934173
67	0xbd275414	-0.040851668
68	0x3cccd5eb	0.025004348
69	0xbd13a558	-0.036046356
70	0x3c1e6100	0.009666681
71	0xbd1e9179	-0.038712952
72	0x3d315dbc	0.043302283
73	0xbd7f2581	-0.062291626
74	0x3b9eeecf	0.0048502455
75	0x3adc8b13	0.0016826115
76	0x3d25b371	0.04045433
77	0xbd7d3054	-0.061813667
78	0x3ac57c84	0.0015067016
79	0xbd1fbf93	-0.03900106
80	0x3cf2442e	0.029573526
81	0xbc33e10e	-0.01097895
82	0x3c8be83c	0.017078511
83	0xbd6d8963	-0.05799235
84	0x3d1e2309	0.03860763
85	0xbc4c1c17	-0.012457869
86	0xbca3fedc	-0.020018987
87	0xbd3c1962	-0.045922644
88	0xbc9fe7e2	-0.01951975
89	0xbd005acd	-0.031336594
90	0xbb124136	-0.00223167
91	0x3dc0fc3d	0.09423111
92	0xbce0a1b9	-0.027420865
93	0xbda504be	-0.08057545
94	0x3bcef378	0.006315645
95	0xbd0e79b9	-0.034784053
96	0xbc02eab4	-0.007990528
97	0xbd13f000	-0.036117554
98	0xbe3fd7a9	-0.18734612
99	0xbd99052b	-0.07471689
100	0xbd32f979	-0.043694947
101	0x3b2ad7b6	0.0026068515
102	0xbd56bd1b	-0.05242644
103	0x3ca5d84b	0.020244738
104	0xbc2d4bc9	-0.010577151
105	0x3dbcaa8f	0.09212219
106	0xbbe3c9f2	-0.006951564
107	0xbd820d76	-0.06350224
108	0x3d32bfa3	0.04363979
109	0xbdb7d45f	-0.089760534
110	0x3bfbefd0	0.0076885
111	0x3d48154b	0.04884843
112	0x3c3f9c37	0.011694959
113	0x3d0c86cd	0.034308244
114	0xbdd3814b	-0.10327395
115	0xbd7a5f05	-0.061125774
116	0xbd9c4776	-0.076308176
117	0xbd8ff518	-0.0702917
118	0x3c9ef18b	0.019402286
119	0xbc1dd917	-0.009634278
120	0xbdf06e64	-0.11739805
121	0xbd90cfca	-0.070708826
122	0x3d0bc3aa	0.034122147
123	0x3bd88fe6	0.006608951
124	0x3cc7b522	0.024378363
125	0xbcde3897	-0.027126594
126	0xbc116935	-0.008875181
127	0xbd783186	-0.060594104
128	0x3c9e5330	0.019326776
129	0xbd1d15b9	-0.038350794
130	0xbc9647ba	-0.018344749
131	0xbd697694	-0.05699785
132	0x3d440c37	0.04786321
133	0xbdf75a1a	-0.120777324
134	0x3cd06aba	0.025441516
135	0x3d4cc641	0.049993757
136	0xbccf8626	-0.025332522
137	0x3d9a87e5	0.07545451
138	0x3d4f3472	0.050587125
139	0x3cac1480	0.021005869
140	0x3d284453	0.041080784
141	0x3da81f56	0.08209102
142	0x3ce22b2e	0.02760848
143	0xbcb61ba3	-0.022229975
144	0xbd5fabac	-0.05460708
145	0x3cf0edf4	0.02941034
146	0xbcce9d65	-0.025221536
147	0xbe5cebaf	-0.21574281
148	0x3c6227b0	0.013803408
149	0x3d7aef1c	0.06126319
150	0xbc94d5fa	-0.018168438
151	0xbc57e11d	-0.01317623
152	0xbd7514d2	-0.05983431
153	0x3c1f46ce	0.009721471
154	0x3d27603b	0.040863257
155	0x3cc94ed5	0.024573723
156	0x3d246d6f	0.040143427
157	0xbc31419c	-0.010818865
158	0xbdb56c3c	-0.08858535
159	0x3b9899db	0.004657013
160	0xbc8e4ba3	-0.01737005
161	0xbc66d0c8	-0.014087863
162	0x3cb1d1d3	0.021706497
163	0x3d185249	0.03718785
164	0xbd7d9570	-0.061910093
165	0x3c87be52	0.016570244
166	0xbc9f59e7	-0.019452048
167	0x3d5edfee	0.054412775
168	0xbc31eb2a	-0.01085929
169	0x3dbca6d3	0.09211507
170	0x3ba1f29f	0.0049422528
171	0xbd0e51d8	-0.03474602
172	0x3ce68c7f	0.028143166
173	0xbb78a065	-0.00379374
174	0xbdd38276	-0.10327618
175	0x3ca4166d	0.020030225
176	0x3cc6f83e	0.024288293
177	0xbd00e1e5	-0.03146543
178	0xbd83918a	-0.06424244
179	0xbc931996	-0.017956536
180	0xbd995a5b	-0.07487937
181	0x3b3dca0c	0.002895954
182	0x3d5b1322	0.053485043
183	0xbb3512a8	-0.0027629528
184	0xbc1cb161	-0.009563775
185	0x3c8742d5	0.01651136
186	0x3aa13a19	0.001230064
187	0xbda4a056	-0.08038394
188	0xbcce5ec9	-0.025191681
189	0xbceab7bd	-0.028652066
190	0xbcd11e62	-0.025527183
191	0xbcd86ff9	-0.02642058
192	0x3ca01adf	0.019544063
193	0x3cd48caf	0.02594599
194	0xbd0ba409	-0.034091983
195	0x3d042dbf	0.03227019
196	0xbb345562	-0.0027516712
197	0x3cb6af5f	0.02230042
198	0x3cee1e3d	0.029067153
199	0x3d3bd0d2	0.045853443
200	0x3c764d45	0.015033071
201	0x3c9f1d05	0.019423017
202	0xbc8dc0d7	-0.017303867
203	0xbbfb3450	-0.0076661482
204	0xbdb310bc	-0.08743426
205	0xbd5878a2	-0.05284942
206	0xbdbb82d5	-0.091558136
207	0x3cef830e	0.029237296
208	0x3afe9ee7	0.0019426019
209	0xbd78ac83	-0.060711395
210	0xbc19eb8e	-0.0093945395
211	0x3cffdc07	0.031232847
212	0x3d5c1064	0.05372657
213	0x3d86994b	0.06572207
214	0xbc294f59	-0.010333859
215	0xbdabd74b	-0.08390673
216	0x3d978150	0.07397711
217	0xbcfdede6	-0.030997228
218	0x3cca325d	0.024682218
219	0xbbd40f42	-0.0064715454
220	0xbd1977ce	-0.03746777
221	0xbc03c32f	-0.008042141
222	0xbcf69cb5	-0.03010402
223	0xbe1ed2e6	-0.15510139
224	0xbcfa4a1e	-0.03055292
225	0xbb882bbf	-0.0041556056
226	0x3a0ed6a8	0.00054488564
227	0x3d2cf2e8	0.04222384
228	0x3ce5dae1	0.028058471
229	0x3c2ad71d	0.010427264
230	0xbda29d83	-0.07940199
231	0xbb8a9cf8	-0.004230138
232	0xbc8070bf	-0.015678762
233	0xbcbdb79d	-0.023158843
234	0x3d21d921	0.03951371
235	0xbda170d9	-0.07882852
236	0x3d44ac86	0.048016094
237	0x3cb8e036	0.02256785
238	0xbd9fddc7	-0.078059725
239	0xbda44422	-0.08020808
240	0xbdc0c2ff	-0.094121926
241	0xbe365f5a	-0.17809811
242	0xbdc4cfca	-0.09609945
243	0xbdb2a2a4	-0.087224275
244	0x3d09c4ef	0.033635076
245	0xbd38c3c0	-0.045108557
246	0x3bc51262	0.0060141543
247	0x3c8fad0c	0.01753857
248	0xbc35f710	-0.011106268
249	0x3d1a163c	0.03761886
250	0xbc910ed0	-0.017707258
251	0xbc877dc6	-0.016539466
252	0xbdea8707	-0.11451536
253	0xbd664d8b	-0.056226294
254	0xbca7b3fa	-0.020471562
255	0xbc162593	-0.009164232

fc2.bias f4 [384]
0	0xbd7123dd	-0.058872093
1	0xbb1c6a41	-0.0023867043
2	0x3d349290	0.044085085
3	0x3ac5b7b0	0.001508465
4	0xbc1b8d8e	-0.0094941985
5	0x3ba524cd	0.0050397874
6	0xbccf12ca	-0.025277514
7	0x3c17b14d	0.00925858
8	0xbb908c71	-0.004411273
9	0x3d7274d6	0.059193455
10	0xbd1acac8	-0.037791044
11	0xbca53d3a	-0.020170797
12	0x3b531fe4	0.0032215053
13	0xbd2e7c53	-0.042599034
14	0xbc2542d5	-0.010086735
15	0x3d2d2bc4	0.042278066
16	0xbc6c2ea0	-0.014415413
17	0x3cf68c74	0.03009627
18	0x3d1813c7	0.037128236
19	0x3ca7473b	0.020419708
20	0x3cb3ff3f	0.021972297
21	0x3cfcc2ef	0.03085467
22	0x3d3c8810	0.046028197
23	0x3cf240c4	0.029571898
24	0x3dc3807c	0.09545991
25	0x3d20813f	0.03918576
26	0xbc416dbe	-0.01180595
27	0xbc870c67	-0.016485406
28	0xbc0d853d	-0.0086377235
29	0xbca5ca42	-0.020238046
30	0xbd244705	-0.040106792
31	0x3c8732cc	0.016503714
32	0x3ca6de77	0.020369751
33	0x3d8ee5c1	0.06977416
34	0xbc8380e1	-0.016052665
35	0x3dd326be	0.10310124
36	0xbcfb1312	-0.030648742
37	0xbc6281a6	-0.013824856
38	0x3d6d66ad	0.057959247
39	0xbca35fff	-0.019943235
40	0x3c50cd87	0.012744314
41	0xb97acc2f	-0.00023917922
42	0x3d6d5aa2	0.057947762
43	0x3db9ea39	0.090778776
44	0xbda0e199	-0.07855529
45	0x3d5af486	0.053455852
46	0xbcd66674	-0.0261719
47	0xbd4bbe16	-0.049741827
48	0xbd0659f5	-0.032800633
49	0xbd388826	-0.045051716
50	0x3b6d27f4	0.0036187144
51	0xbc44ce62	-0.012012096
52	0x3dacef88	0.084441245
53	0xbd3d8017	-0.046264734
54	0xbd5febac	-0.054668114
55	0xbd93bf7a	-0.07214256
56	0xbc2ef705	-0.010679011
57	0x3c6bc388	0.01438988
58	0xbcd447ba	-0.025913108
59	0x3d473f46	0.048644327
60	0xbb4992c1	-0.0030757638
61	0xbd0ecc9d	-0.034863103
62	0xbc60a474	-0.013711084
63	0xbcfe0a23	-0.031010693
64	0x3d05be34	0.032652095
65	0x3cc63702	0.024196152
66	0x3de09d26	0.10967474
67	0x3d1d2d8e	0.038373522
68	0xba983a7d	-0.001161411
69	0x3d16abc4	0.036784902
70	0x3d04ed14	0.032452658
71	0x3cc65048	0.024208203
72	0x3d26f1f7	0.0407581
73	0x3b973e36	0.0046155704
74	0xbe02c915	-0.12772019
75	0xbcac52a0	-0.021035492
76	0x3ce17161	0.027519884
77	0xbd131b56	-0.03591474
78	0x3d7943d2	0.060855694
79	0x3c2fcf92	0.010730641
80	0x3cb20e6b	0.02173539
81	0x3ce14563	0.027498906
82	0x3ca84a74	0.020543315
83	0x3dff6b8b	0.12471684
84	0xbd41ef5a	-0.047347404
85	0xbaadb609	-0.0013253103
86	0xbcc15917	-0.023602052
87	0x3c84872a	0.016177732
88	0xbb7a1799	-0.0038161038
89	0x3b7d1cde	0.0038621943
90	0x3d2f49cb	0.042794984
91	0xbd4c6c10	-0.049907744
92	0xbd476864	-0.04868354
93	0xbb817ec1	-0.003951878
94	0xbcb25507	-0.02176906
95	0xbe1761f4	-0.1478346
96	0xbd738728	-0.059455067
97	0x3d2eacb8	0.042645186
98	0xbdac3315	-0.084081806
99	0x3b8bc175	0.0042650052
100	0xbd56e14a	-0.052460946
101	0x3c5d62a3	0.013512286
102	0xbd203828	-0.039116055
103	0x3b5c4963	0.0033613078
104	0xbd0a10bc	-0.033707365
105	0xba1fd78e	-0.0006097489
106	0x3d61d2bd	0.055132616
107	0xbc8b889d	-0.017032916
108	0xbd0dfd13	-0.03466518
109	0x3cc6149d	0.024179751
110	0x3d77a807	0.060462978
111	0x3c43baa0	0.01194635
112	0xbde11000	-0.1098938
113	0xbdef369c	-0.11680338
114	0x3d332d30	0.043744266
115	0xbd26aa07	-0.040689494
116	0x3d58f3ba	0.05296681
117	0xbc099a0c	-0.008398544
118	0x3c4de4cb	0.0125667555
119	0x3d0a025c	0.033693656
120	0x3d4ddd69	0.05025998
121	0xbc9f08ad	-0.019413317
122	0x3da62a12	0.08113493
123	0xbd8ce0d7	-0.06878822
124	0xbca5e99e	-0.020252999
125	0x3d316ab7	0.04331466
126	0xbd4ea507	-0.05045035
127	0xbe109ed7	-0.14123093
128	0x3d2f250b	0.042759936
129	0xbd13bade	-0.036066882
130	0x3c975115	0.01847128
131	0x3d58aa9a	0.052897073
132	0xbd3049b3	-0.043039035
133	0x3d03b6ea	0.032156862
134	0x3ba06616	0.004894982
135	0xbda9b4a0	-0.082864046
136	0xbcd37ab5	-0.025815347
137	0xbd18d17b	-0.03730915
138	0x3d174add	0.03693663
139	0x3cb134e9	0.021631675
140	0xbc27020b	-0.010193358
141	0xbb91e35c	-0.004452152
142	0xbd145eb6	-0.036223136
143	0xbd3d6110	-0.046235144
144	0xbd2038b4	-0.039116576
145	0x3d0cf1a0	0.03441012
146	0xbcde3361	-0.027124109
147	0xbc9da669	-0.01924439
148	0xbd9335c4	-0.07187989
149	0x3c3ed054	0.011646349
150	0xbc8d1e91	-0.01722649
151	0xbb65bc72	-0.003505495
152	0xbd4ad459	-0.049518917
153	0x3d431dbb	0.047635775
154	0xbc6c111d	-0.014408377
155	0x3cd79665	0.02631683
156	0x3c649727	0.013952053
157	0xbc2134e6	-0.009839272
158	0xbd3135a1	-0.043264035
159	0x3c6adc32	0.014334725
160	0x3d3f94d6	0.0467728
161	0x3cb77fb1	0.022399755
162	0xbd11b36b	-0.035571497
163	0xbcc96677	-0.024584992
164	0xbcdf76d6	-0.027278345
165	0xbca8f352	-0.020623837
166	0xbc5ca062	-0.013465973
167	0xbcc03b0f	-0.023465661
168	0xbc3e74ce	-0.011624528
169	0x3925b206	0.00015801945
170	0xbb2cf340	-0.0026390105
171	0x3d8f3c46	0.06993918
172	0x3d058928	0.032601506
173	0xbcaf24b4	-0.021379806
174	0x3a0b409b	0.0005312056
175	0x3d4a2840	0.04935479
176	0x3c22dfd5	0.009941061
177	0x3ca85fa6	0.020553421
178	0xbd867af4	-0.0656642
179	0x3d857bf4	0.06517783
180	0xbd6ce304	-0.057833686
181	0xbc80af69	-0.015708642
182	0x3d86afb2	0.0657648
183	0xbd02f04b	-0.031967442
184	0xbd5f8e42	-0.054579027
185	0xbcf2ad9b	-0.029623797
186	0x3cffdf7d	0.031234497
187	0x3cb6b41f	0.022302685
188	0xbcab364b	-0.020899912
189	0xbd0f4c6d	-0.034984995
190	0xbd81a55e	-0.063303694
191	0x3d41e13f	0.047333952
192	0x3db82d74	0.089930445
193	0x3c24972b	0.010045807
194	0x3cadc5d2	0.021212492
195	0x3b92f445	0.0044846856
196	0xbbc95c7e	-0.006145059
197	0x3c1abfd7	0.009445152
198	0xba99a6bf	-0.0011722668
199	0xbd6946cf	-0.056952294
200	0xbd43d641	-0.04781175
201	0xbd3c33b3	-0.04594774
202	0x3b58988c	0.003304991
203	0x3b78035a	0.0037843795
204	0x3bbf8285	0.0058444166
205	0x3b9e05bf	0.0048224623
206	0xbcf01d7d	-0.029310936
207	0xbcc3dc9c	-0.023908906
208	0xbcb44eda	-0.022010256
209	0x3d5824b5	0.05276938
210	0x3c3d9fc7	0.011573738
211	0x3dcdc374	0.10047045
212	0x3dcceb14	0.10005775
213	0xbd364b64	-0.04450549
214	0xbc1fec66	-0.009760952
215	0x3d984ed4	0.0743691
216	0x3c22adb8	0.009929113
217	0xbbcb0cad	-0.0061965794
218	0xbd96aa42	-0.07356693
219	0xbd439bbd	-0.047755945
220	0xbc04f89c	-0.008115914
221	0x3d203b2b	0.039118927
222	0x3bdcd696	0.006739448
223	0xbbdb12de	-0.0066855988
224	0x3dc24bd3	0.094871186
225	0x3c8f1d0e	0.017469909
226	0xbd15f39a	-0.03660927
227	0x3d151ff7	0.036407437
228	0x3d5d7331	0.054064933
229	0xbe021388	-0.12702763
230	0x3d25fb6a	0.04052297
231	0x3cc7494e	0.024326947
232	0x3e164610	0.14675164
233	0x3dae7736	0.085188314
234	0x3b03cbd6	0.002011051
235	0xbd9c5993	-0.076342724
236	0xbd9da9f4	-0.076984316
237	0x3d02133c	0.031756625
238	0xbd555217	-0.05208024
239	0xbc8ade53	-0.016951716
240	0xbd4e1349	-0.05031136
241	0xbcc30791	-0.023807319
242	0xbdad7f08	-0.08471495
243	0x3c60ed4f	0.013728454
244	0x3d6d4d52	0.057935067
245	0xbd090a66	-0.033457182
246	0x3d65f026	0.056137227
247	0xbcb72a30	-0.022358984
248	0xbcac5f46	-0.021041524
249	0x3b9914fc	0.004671691
250	0x3bd2c774	0.006432468
251	0xbd3988f2	-0.045296617
252	0x3d8ffa74	0.07030192
253	0x3d80f4ae	0.06296669
254	0x3e071d29	0.13194717
255	0xbc94d709	-0.018168943

fc3.weight f4 [1, 384]
0	0xbe2c91ed	-0.16852541
1	0x3db65225	0.089023866
2	0x3d2776fa	0.04088495
3	0x3d9e548d	0.077309705
4	0xbbb147f7	-0.00541019
5	0x3cf2c0bf	0.029632924
6	0xbd25e308	-0.040499717
7	0xbdb7c812	-0.08973707
8	0xb7b60a9d	-2.1701033e-05
9	0x3c3d6fd3	0.0115623055
10	0x3d2b5715	0.041831095
11	0x3a2273b9	0.00061970536
12	0xbe01066c	-0.12600106
13	0xbe24ed8f	-0.16106246
14	0x3d82132b	0.06351312
15	0xbd171180	-0.036881924
16	0x3cd8aab1	0.02644858
17	0x3d0e8f45	0.0348046
18	0xbdaacb10	-0.08339512
19	0x3d955c2a	0.072929695
20	0xbcc8b2cb	-0.024499318
21	0xbdae5408	-0.085121214
22	0x3b94b1b5	0.004537786
23	0x3c0e568f	0.008687629
24	0x3b6a1c97	0.0035722607
25	0xbd816176	-0.06317417
26	0xbcc43514	-0.02395109
27	0x3c88768f	0.016658096
28	0x3c9eb078	0.019371256
29	0xbdad87d6	-0.08473174
30	0x3ae53e6f	0.001748992
31	0x3c94f2ed	0.018182242
32	0x3c837e72	0.016051505
33	0x3bec2bd7	0.0072073746
34	0x3d0b6d0e	0.03403955
35	0x3b441eb5	0.002992553
36	0xbc4bfc19	-0.0124502415
37	0xbd90c4e8	-0.07068807
38	0x3c5af8a6	0.0133649465
39	0xbc6345dd	-0.013871637
40	0xbe2252f5	-0.15851958
41	0x3dcb7ffd	0.09936521
42	0x3c2d7e43	0.010589185
43	0x3cb03fa6	0.021514725
44	0xbd6d2216	-0.057893835
45	0x3c2b829a	0.01046815
46	0xbdf4ffcf	-0.11962854
47	0xbe23e8f9	-0.16006841
48	0x3d3d4d43	0.04621626
49	0x3ba1df56	0.004939954
50	0xbdfa7853	-0.12229981
51	0x3dd6393f	0.104601376
52	0x3c83ca6e	0.016087737
53	0xbdcca669	-0.09992678
54	0x3a932466	0.0011226058
55	0xbd55e65f	-0.052221652
56	0x3df07ccf	0.11742555
57	0x3d464547	0.04840591
58	0x3cf72973	0.030171132
59	0x3b8685de	0.0041053137
60	0xbd89a5ed	-0.06721101
61	0xbaf9e930	-0.0019066688
62	0xbb4d0a46	-0.003128664
63	0xbc43bcde	-0.011946885
64	0x3c427630	0.011868998
65	0x3db4f79f	0.088362925
66	0x3c0202b4	0.007935215
67	0xbda8ddf4	-0.08245459
68	0x3d5d7461	0.054066066
69	0x3e14f154	0.14545184
70	0x3de32898	0.11091727
71	0x3d4fb22f	0.05070704
72	0x3d4d8af5	0.050181348
73	0xbdfb9a47	-0.122852854
74	0xbcef148b	-0.0291846
75	0xbb933062	-0.0044918517
76	0x3b26f9fb	0.002547859
77	0xbd647162	-0.055772193
78	0x3c0dbbf4	0.008650769
79	0x3d104f3c	0.035231814
80	0x3cf9266b	0.030413827
81	0x3e00af7d	0.12566943
82	0xbd8f6f89	-0.070036955
83	0x3c7b0b3a	0.015322501
84	0x3dfdcb16	0.12392251
85	0x3c812fc8	0.015769854
86	0xbe0784ba	-0.13234225
87	0x3dbc0056	0.091797516
88	0x3d32b870	0.043632925
89	0xbd850ff7	-0.06497186
90	0x3b1a6f08	0.0023564715
91	0xbe672416	-0.2257236
92	0xbdbdc887	-0.09266763
93	0xbd008cc7	-0.031384256
94	0xbda8aff7	-0.08236688
95	0xbd0c6792	-0.03427846
96	0xbc9c152b	-0.019053062
97	0x3b694930	0.0035596602
98	0xbc3ae1a3	-0.011406335
99	0x3d628be5	0.055309195
100	0xbc577ef5	-0.0131528275
101	0xbda87c05	-0.0822678
102	0xbd51d5ea	-0.051229395
103	0xbdd3542d	-0.1031879
104	0x3d902976	0.07039158
105	0xbd0fe5ee	-0.035131387
106	0x3bee0682	0.0072639594
107	0xbdc24efd	-0.09487722
108	0x3d5d5ffe	0.054046623
109	0x3c18d53f	0.009328186
110	0x3bdd3cbb	0.0067516244
111	0xbde7e2f8	-0.11322588
112	0xbe66cfdd	-0.22540231
113	0xbe10348d	-0.14082547
114	0x3cc57b98	0.024106786
115	0xbd02c568	-0.031926543
116	0xbdbf4369	-0.09339029
117	0x3d02f0ac	0.031967804
118	0x3ca76c29	0.020437317
119	0x3ca13ac2	0.019681338
120	0x3cb00b5c	0.021489792
121	0xbc3726be	-0.01117867
122	0x3c137b69	0.009001591
123	0xbc597316	-0.0132720675
124	0x3d740f78	0.059585065
125	0x3d69ea65	0.0571083
126	0xbd3d3f3c	-0.046202883
127	0xbe03c7e1	-0.12869217
128	0x3d7d1444	0.061786905
129	0x3d6b0fe1	0.05738819
130	0x3de3dd15	0.111261524
131	0x3d223a7d	0.03960656
132	0xbd4b5a9d	-0.049646962
133	0x3d987bd8	0.07445496
134	0x3d4bccb2	0.04975576
135	0xbd2b036f	-0.04175132
136	0xb9d5d1bc	-0.0004078279
137	0xba32fbee	-0.00068277016
138	0x3a562efb	0.0008170453
139	0x3d8667f5	0.06562797
140	0x3db94968	0.09047204
141	0xbdf8d0e5	-0.121492185
142	0x3db88df8	0.090114534
143	0xbabca96c	-0.0014393753
144	0x3dbfd610	0.09367001
145	0xbd88ee26	-0.06686048
146	0xbcc76809	-0.0243416
147	0xbd89228f	-0.06696045
148	0xbe6b36ce	-0.22970125
149	0x3d87dbb0	0.06633699
150	0xbd6f17c0	-0.05837226
151	0x3b2c817f	0.0026322303
152	0xbe36f2ca	-0.17866054
153	0x3dcbd6c8	0.09953076
154	0xbdb0675a	-0.08613463
155	0x3dfb25e7	0.12263089
156	0xbdc1e7f8	-0.09468073
157	0xbd97274e	-0.07380544
158	0x3d8217e1	0.06352211
159	0xbd840db8	-0.06447929
160	0x3c9f1ec0	0.019423842
161	0x3dadc445	0.08484701
162	0x3dd9d277	0.10635846
163	0x3d306d5b	0.04307304
164	0xbc940991	-0.018070968
165	0x3dba1d11	0.09087575
166	0x3cf50d37	0.029913528
167	0xbdc2956b	-0.095011555
168	0x3d4e59ea	0.050378717
169	0xba3cb9e0	-0.00071993284
170	0x3bfa50aa	0.0076390104
171	0x3c692fc0	0.014232576
172	0x3deb9579	0.11503119
173	0xbd489868	-0.04897347
174	0xbd0e248b	-0.03470282
175	0x3c431c60	0.011908621
176	0x3b7d2442	0.0038626348
177	0x3dc25de9	0.09490568
178	0xbdaba391	-0.08380807
179	0x3c0ca070	0.008583173
180	0xbdec0597	-0.11524504
181	0x3d4de405	0.050266284
182	0x3d3e2fc0	0.046432257
183	0xbc812bb3	-0.015767908
184	0xbd08c056	-0.03338655
185	0x3dae91e6	0.08523922
186	0x3dacfdf7	0.084468774
187	0xbcf9ca75	-0.030492047
188	0x3c4b914d	0.012424779
189	0xbd14633e	-0.036227457
190	0xbc778404	-0.015107159
191	0x3c16fe01	0.009215833
192	0xbd2bc664	-0.041937247
193	0x3dc1ed7d	0.094691254
194	0x3d55248f	0.052036818
195	0x3e3bfee7	0.18358956
196	0x3d33287e	0.04373979
197	0x3dd162f1	0.1022395
198	0xbd4e6f09	-0.05039886
199	0xbdaf6c84	-0.085656196
200	0x3c3a6adb	0.011378015
201	0xba26730a	-0.00063495396
202	0x3e2a35fb	0.16622154
203	0x3d8217f7	0.06352227
204	0x3d9731fd	0.073825814
205	0xbdf99369	-0.121863194
206	0x3e000b18	0.12504232
207	0x3e3b2bad	0.1827838
208	0x3dfc97b0	0.123336196
209	0x3d3556dc	0.04427229
210	0xbd09f0a8	-0.033676773
211	0x3d761119	0.0600749
212	0x3b8c6a76	0.004285152
213	0x3d9a709f	0.07541012
214	0xbd05a6bc	-0.032629713
215	0x3c6715b2	0.014104294
216	0x3c0bb50f	0.008527054
217	0x3bfc9bec	0.007709017
218	0x3d79290a	0.060830154
219	0xbd4f299a	-0.050576784
220	0xbd1e9fb5	-0.038726527
221	0x3c811c0c	0.015760444
222	0x3da8f836	0.082504675
223	0xbd8b2a0e	-0.06795131
224	0x3d6d78c7	0.05797651
225	0xbcaafd50	-0.020872742
226	0xbdd3133a	-0.103064016
227	0x3c18311d	0.009289053
228	0x3cbcc206	0.023041736
229	0xbc7a3c14	-0.015273113
230	0x3caa350f	0.020777253
231	0x3dc6a055	0.0969855
232	0x3c4256b5	0.011861493
233	0x3cefb717	0.029262109
234	0x3c922cef	0.017843692
235	0xbc519bbb	-0.012793477
236	0xbb3a99c0	-0.002847299
237	0xbe0b9356	-0.13630423
238	0x3d867ff9	0.065673776
239	0xbd01ab82	-0.031657703
240	0xbdbdfc54	-0.092766434
241	0xbd395cd5	-0.045254547
242	0xbd2ab09f	-0.041672345
243	0x3b2044f5	0.0024455164
244	0x3c58d12d	0.013233465
245	0x3d7251f9	0.059160206
246	0x3c392598	0.011300467
247	0xbe1bb05c	-0.15203995
248	0xbdd1da1b	-0.102466784
249	0xbdeab4eb	-0.114602886
250	0x3a1c9398	0.0005972921
251	0xbd266224	-0.040620938
252	0x3cab1a0f	0.02088645
253	0x3c49e073	0.012321579
254	0x38ebd5a2	0.000112454654
255	0x3d589b58	0.052882522
