p3_collab-compet/agent_0_checkpoint_critic_solved.pth (torch_old, 844810 bytes, 5 tensors)

fcs1.weight f4 [512, 24]
-0.058591392 0.028019208 0.034753293 -0.028619256 0.10610606 0.050972287 -0.036331408 0.023922447
-0.056256603 0.03968544 0.023250137 -0.027475052 0.050028272 -0.011676445 -0.031343378 0.019830871
-0.06541722 0.12779328 0.008461908 0.015318643 0.030659257 -0.23849319 -0.018116362 0.015102321
0.046551935 0.04012746 0.027555028 0.040219694 0.0015222966 -0.0225344 -0.010681183 0.04780551
0.012096062 0.013598951 0.016945576 -0.0006338443 0.016701581 -0.0035176058 0.015749484 0.06971885
0.056731056 0.020363502 0.004829596 0.025424061 -0.051226273 -0.08307315 0.021820383 0.028249374
0.03654708 0.025964897 0.000184243 0.066665165 0.006513999 0.01757571 -0.029614212 0.024987385
0.06391447 0.008674616 -0.016780451 0.06030434 0.0051012966 0.031325944 -0.027655797 0.025432374
0.03358244 -0.0046129194 -0.05168373 0.026722586 0.079460725 -0.0035705045 0.01732638 0.0136386175
-0.04241439 -0.004720266 0.036754854 -0.028022593 0.06897892 0.10482983 -0.03765277 0.02105772
-0.0025540728 0.05269298 0.011304696 -0.0037680548 -0.027454313 -0.0073495344 -0.020282023 0.0015949426
-0.018409066 0.046553988 0.009332622 -0.009817483 0.036052763 -0.14763135 -0.014243691 0.010883503
0.030285325 -0.06541478 -0.012358274 0.03524655 0.07250996 -0.07856455 -0.038561247 0.02858776
-0.014246114 -0.0392659 0.013365108 0.0086527 0.04233832 -0.1070138 -0.048236843 0.022336394
0.025465688 -0.05214307 -0.009367808 -0.0058151367 0.013299992 -0.11376237 0.03520983 -0.04801178
0.0024406575 -0.01973077 0.01168961 -0.020128591 -0.04537123 -0.007960877 0.003546681 -0.011479654
-0.01625619 0.02610691 -0.013676049 0.00459925 0.011696375 -0.06713437 0.026595004 0.02118409
0.02633028 0.022362094 0.024214199 0.007563958 0.080032215 0.050346717 -0.021368785 0.0050013764
-0.018821457 0.06549517 -0.03334278 -0.019870194 -0.03371989 -0.032970052 0.04134141 -0.017390085
-0.0031168147 0.05875402 0.0015852915 0.05401501 0.0033040075 -0.07601132 -0.007647791 0.049372934
0.03523179 0.00035532576 -0.01439064 -0.05313486 0.03690026 0.043015674 0.015165409 -0.023832738
0.030446127 -0.008183028 0.008403871 -0.0056266496 0.027508005 0.16565405 -0.012063408 0.006991868
-0.0008366254 -0.0034809695 0.019135403 0.0026290219 0.0072464654 0.07085356 -0.017371656 0.0044463007
-0.008385261 0.042372864 -0.013465106 -0.008497437 0.010828446 -0.17281805 0.008824895 0.009406466
-0.016785122 -0.007476874 0.006091386 0.016139682 0.04958368 -0.098171294 -0.0030530884 0.0018611313
0.018324891 -0.06987776 0.0060953996 0.02880763 0.03079301 -0.06143866 -0.002310649 0.033315014
0.019042615 -0.011485246 0.031678114 0.04289736 -0.04091529 0.12390374 -0.02876954 -0.0062191496
0.04244973 0.11911146 -0.0008501683 0.0263485 -0.080005735 -0.063765526 0.01871295 0.05561313
0.031676203 0.15904161 -0.019036511 0.081465155 -0.08778911 -0.08701646 0.001999055 -8.2661194e-05
0.06989055 0.12513818 -0.034133516 0.058179207 -0.042976007 -0.019906545 0.015899815 0.063125305
0.012116662 -0.06580505 -0.02633433 0.012905847 -0.09833298 0.038544957 -0.012298713 0.05573167
0.024063118 0.009562225 -0.008473937 0.011381913 0.02787528 -0.051396154 0.017746074 -0.024325509
00000000: 87fd 6fbd 8a88 e53c 7859 0e3d ee72 eabc
00000010: 224e d93d 51c8 503d 3ed0 14bd 02f9 c33c
00000020: 536d 66bd 338d 223d 1277 be3c 5c13 e1bc
00000030: 72ea 4c3d 8f4e 3fbc ea61 00bd 5a74 a23c
00000040: 77f9 85bd 3edc 023e d1a3 0a3c 0cfb 7a3c
00000050: 1f29 fb3c 8f37 74be c468 94bc ba6f 773c
00000060: 3ead 3e3d b15c 243d 15bb e13c 68bd 243d
00000070: cc87 c73a 109a b8bc 2100 2fbc b6cf 433d
00000080: 902e 463c 22ce 5e3c 73d1 8a3c 9228 26ba
00000090: c1d1 883c a287 66bb 1005 813c c2c8 8e3d
000000a0: d35e 683d 5cd1 a63c 9641 9e3b 1f46 d03c
000000b0: a4d2 51bd 4122 aabd a9c0 b23c 3b6b e73c
000000c0: 64b2 153d 56b4 d43c 5b31 4139 bf87 883d
000000d0: 6273 d53b effa 8f3c 8199 f2bc 58b2 cc3c
000000e0: 97e5 823d fa1f 0e3c 2877 89bc af01 773d
000000f0: c728 a73b a24f 003d 698e e2bc 8e57 d03c
00000100: be8d 093d f927 97bb 52b2 53bd 53e9 da3c
00000110: 4ebc a23d 20ff 69bb 0df0 8d3c 8274 5f3c
00000120: b6ba 2dbd 76ac 9abb 428c 163d a38f e5bc
00000130: d244 8d3d 06b1 d63d ca39 1abd 3d81 ac3c
00000140: 3b62 27bb 98d4 573d 5537 393c 78f1 76bb
00000150: dee7 e0bc 5dd4 f0bb 7c26 a6bc 650d d13a
00000160: 9cce 96bc 65af 3e3d dbe7 183c 82d9 20bc
00000170: 10ac 133d ac2c 17be 5f5e 69bc b850 323c
00000180: ee18 f83c 2ff8 85bd 5c7a 4abc b05e 103d
00000190: 1a80 943d 73e6 a0bd 66f2 1dbd e130 ea3c
000001a0: 8868 69bc 48d5 20bd 53f9 5a3c 0ec4 0d3c
000001b0: f26a 2d3d 0d2a dbbd ff93 45bd d0fa b63c
000001c0: 6b9d d03c f993 55bd 6f7b 19bc e78c bebb
000001d0: 36e8 593c 3ffc e8bd 2f38 103d 00a8 44bd
000001e0: 70f3 1f3b 6ca2 a1bc c785 3f3c b7e4 a4bc
000001f0: 2fd7 39bd 576e 02bc 6f6f 683b 2915 3cbc
00000200: b42b 85bc 29de d53c 8211 60bc 4eb5 963b
00000210: 27a2 3f3c bf7d 89bd c4dd d93c 428a ad3c
00000220: 99b2 d73c b630 b73c db5c c63c 14db f73b
00000230: eee7 a33d 5c38 4e3d 970d afbc 96e2 a33b
00000240: 752f 9abc 5522 863d 7092 08bd d1c6 a2bc
00000250: de1d 0abd 9b0b 07bd 9c55 293d a775 8ebc
00000260: 7943 4cbb 0ea8 703d 8ec9 cf3a d83e 5d3d
00000270: 0c88 583b d3ab 9bbd 529a fabb 463b 4a3d
00000280: 364f 103d 044b ba39 b8c6 6bbc f0a3 59bd
00000290: ba24 173d 3431 303d 5678 783c e03c c3bc
000002a0: 286a f93c 1b12 06bc 64b0 093c c25f b8bb
000002b0: 7858 e13c 37a1 293e 9aa5 45bc 0a1c e53b
000002c0: fb50 5bba fa20 64bb d9c1 9c3c ab4b 2c3b
000002d0: c273 ed3b ac1b 913d 014f 8ebc 46b2 913b
000002e0: 5562 09bc 2b8f 2d3d bf9c 5cbc d638 0bbc
000002f0: cb69 313c 37f7 30be 4b96 103c 941d 1a3c
00000300: f480 89bc 9100 f5bb 409a c73b 5e37 843c
00000310: 4218 4b3d 080e c9bd 5316 48bb 34f1 f33a
00000320: 151e 963c 121c 8fbd ebbb c73b fbfd eb3c
00000330: 9f41 fc3c 1ba7 7bbd 426e 17bb 5375 083d
00000340: 42ff 9b3c 9d2c 3cbc e9c0 013d 24b5 2f3d
00000350: cb96 27bd 3ec1 fd3d 19ae ebbc 02ca cbbb
00000360: c5df 2d3d b6f0 f33d d4dd 5eba cfd8 d73c
00000370: 0cda a3bd 8097 82bd e74b 993c 98ca 633d
00000380: e8be 013d cedb 223e 75f2 9bbc 34d7 a63d
00000390: c7ca b3bd b035 b2bd 9402 033b 645a adb8
000003a0: c722 8f3d 3924 003e 96cf 0bbd 524d 6e3d
000003b0: 9c07 30bd 0d13 a3bc 5440 823c d747 813d
000003c0: f784 463c ccc4 86bd 18bb d7bc 0c73 533c
000003d0: cd62 c9bd 51e1 1d3d 8b80 49bc e446 643d
000003e0: 0420 c53c e1aa 1c3c 45d6 0abc 347b 3a3c
000003f0: b35a e43c c684 52bd 3760 913c 4a46 c7bc

fcs1.bias f4 [512]
0.14833087 0.14609943 0.102200195 0.16277708 -0.05347121 0.14069115 0.17867921 0.21432923
0.10048665 -0.17193693 0.09586089 -0.064279355 0.017483432 0.10029051 -0.17689064 -0.033715717
-0.15401348 -0.12359215 0.03895637 -0.060569145 -0.19974785 -0.18100798 -0.2428718 -0.039998334
-0.017499482 0.049582712 0.057900876 -0.04566208 -0.013930114 0.16008918 -0.032410853 -0.07087975
0.0002801458 -0.09363523 -0.12860458 -0.020348202 0.013490848 0.07364871 0.19730347 -0.2587421
-0.11053814 0.09645497 0.22059226 0.11630424 0.075855136 0.115764014 0.13663645 -0.01955546
0.11627046 0.22393236 0.12471997 0.0134658115 -0.08099411 0.28778026 0.024170773 -0.06626336
-0.13500652 -0.24141558 0.043760046 0.19158119 0.11014585 0.06757262 -0.20657289 0.016733995
-0.2372877 -0.20085649 0.069182545 0.036742736 -0.22345959 -0.07973007 0.111825936 -0.25709862
-0.043345973 -0.016070535 -0.14863151 -0.16185182 -0.04720704 -0.15942162 -0.016433926 0.025072047
-0.26929876 -0.026843278 -0.28198275 0.10975716 0.04873081 -0.10471993 -0.11124492 -0.15392877
-0.009394898 -0.030446917 -0.22477037 0.14936288 -0.22757089 -0.14818595 0.035392817 0.09866707
0.006264283 -0.034390084 -0.208098 -0.018131992 -0.14677037 0.06627317 0.22164118 0.05199193
-0.16652733 -0.013176905 0.03137898 -0.016398797 -0.11141152 0.08055 -0.17547017 0.049145844
-0.1767514 0.14238718 -0.17032167 -0.20820469 -0.09294675 0.22867799 -0.29202175 0.16836983
-0.21436402 -0.0880603 0.041293465 0.0688245 -0.1812701 0.07609815 0.10553435 0.139097
0.14022104 0.17428514 0.21842806 -0.11224792 -0.16469322 0.17104529 0.07574206 -0.16648792
-0.04623757 -0.034352873 -0.11274915 -0.05527789 0.026812973 -0.0765032 -0.034867268 0.04284826
0.11475895 -0.05506588 -0.22752036 0.1520325 -0.20475782 -0.18980962 -0.13141796 0.05869088
0.18887268 -0.12160958 -0.021237502 -0.23106615 -0.24708274 -0.19899586 -0.05270782 -0.01936094
-0.2181911 0.08118917 -0.12541518 0.024792794 0.18185525 -0.115873076 -0.06385599 0.18630031
0.032175485 0.20635362 -0.023654696 0.011353686 -0.14406708 -0.2012825 0.187738 -0.17085175
0.062492255 0.14404197 -0.23971307 -0.18699212 0.22418067 -0.10251171 -0.08065171 0.005260942
-0.03963163 0.0124971215 0.030710582 -0.11631251 0.009906394 0.14110497 0.04176855 0.04975287
-0.26555848 0.021179298 -0.06137352 0.0032209577 -0.1874165 0.13492581 -0.11734913 0.04781531
-0.16809852 0.10635184 -0.050968554 0.06818481 0.20046437 0.13725929 0.13824774 -0.0053421855
-0.12154378 0.14296646 -0.01543127 -0.1453155 0.08065675 -0.097521566 0.061658897 0.0054649804
0.18024914 0.017492894 0.19427575 0.14509082 -0.1564369 -0.065084346 0.21021675 -0.04429857
0.24186066 -0.08211683 0.032143388 0.115458675 -0.011631066 0.079068586 0.13995136 -0.097710826
0.10826611 0.15510002 0.14117746 -0.18314898 0.048865855 -0.16462901 -0.010607515 0.017369233
-0.009435832 0.008216164 0.04114609 0.016719654 -0.11760049 0.021074139 -0.12846437 -0.15883501
0.03520701 -0.23556 -0.09824939 -0.095043585 0.018828258 0.0648655 -0.057637002 0.12989469
00000000: 0ce4 173e 179b 153e 564e d13d 09af 263e
00000010: a104 5bbd 5711 103e aff7 363e 1f79 5b3e
00000020: f2cb cd3d 3c10 30be b752 c43d e5a4 83bd
00000030: 6a39 8f3c 1c65 cd3d d222 35be 7e19 0abd
00000040: b6b5 1dbe e21d fdbd b790 1f3d 5a17 78bd
00000050: b38a 4cbe 285a 39be 63b3 78be 4bd5 23bd
00000060: 135b 8fbc 3e17 4b3d 7829 6d3d 2908 3bbd
00000070: 223b 64bc 6bee 233e 3ec1 04bd 6729 91bd
00000080: 88e0 9239 d4c3 bfbd ebb0 03be 46b1 a6bc
00000090: b808 5d3c 23d5 963d ec09 4a3e d879 84be
000000a0: d261 e2bd 2f8a c53d f0e2 613e eb30 ee3d
000000b0: f059 9b3d af15 ed3d 6dea 0b3e c632 a0bc
000000c0: 351f ee3d 864e 653e 2f6d ff3d b59f 5c3c
000000d0: 3de0 a5bd ef57 933e c901 c63c 16b5 87bd
000000e0: 263f 0abe a535 77be bc3d 333d dc2d 443e
000000f0: 2694 e13d 8463 8a3d d887 53be bb15 893c
00000100: 8cfb 72be 53ad 4dbe 94af 8d3d 8d7f 163d
00000110: 97d2 64be 8549 a3bd ff04 e53d 6ea2 83be
00000120: 8c8b 31bd 5ba6 83bc dc32 18be 7cbc 25be
00000130: 2b5c 41bd 6c3f 23be 71a0 86bc e563 cd3c
00000140: 87e1 89be 6fe6 dbbc 0b60 90be 5dc8 e03d
00000150: f599 473d 6777 d6bd 60d4 e3bd 819f 1dbe
00000160: 0fed 19bc d06b f9bc 342a 66be 95f2 183e
00000170: 5808 69be 0fbe 17be 0ff8 103d f611 ca3d
00000180: 9d44 cd3b 9edc 0cbd a417 55be 8b89 94bc
00000190: f94a 16be 3aba 873d e8f5 623e 7df5 543d
000001a0: 2486 2abe f2e3 57bc 3f87 003d c556 86bc
000001b0: b92b e4bd 66f7 a43d 74ae 33be 274d 493d
000001c0: 52fe 34be f2cd 113e ce68 2ebe 9c33 55be
000001d0: de5a bebd 902a 6a3e e083 95be 2469 2c3e
000001e0: 3e82 5bbe f558 b4bd 5623 293d dcf3 8c3d
000001f0: de9e 39be 59d9 9b3d 6522 d83d 726f 0e3e
00000200: 1b96 0f3e ce77 323e 9bab 5f3e 3de2 e5bd
00000210: 57a5 28be 7f26 2f3e a71e 9b3d cf7b 2abe
00000220: 9b63 3dbd 99b5 0cbd 07e9 e6bd 126b 62bd
00000230: e1a6 db3c b6ad 9cbd fbd0 0ebd a881 2f3d
00000240: be06 eb3d c38c 61bd 19fb 68be 68ae 1b3e
00000250: 09ac 51be 745d 42be 6e92 06be d965 703d
00000260: d767 413e 720e f9bd 45fa adbc 9b9c 6cbe
00000270: 4203 7dbe 92c5 4bbe 28e4 57bd d69a 9ebc
00000280: 7d6d 5fbe 8246 a63d d66c 00be 421a cb3c
00000290: 4338 3a3e dd4e edbd eec6 82bd 82c5 3e3e
000002a0: 71ca 033d 5d4e 533e 7ec7 c1bc d004 3a3c
000002b0: 5286 13be 001d 4ebe 643e 403e c3f3 2ebe
000002c0: e1f7 7f3d bd7f 133e 5877 75be dd7a 3fbe
000002d0: 9e8f 653e a9f1 d1bd b92c a5bd fb63 ac3b
000002e0: c754 22bd bac0 4c3c c294 fb3c 4135 eebd
000002f0: 6e4e 223c d27d 103e 8015 2b3d aac9 4b3d
00000300: 48f7 87be 3580 ad3c cd62 7bbd b416 533b
00000310: 1cea 3fbe fe29 0a3e be54 f0bd fdd9 433d
00000320: 0522 2cbe fece d93d 67c4 50bd 7aa4 8b3d
00000330: 8846 4d3e b38d 0c3e d190 0d3e 800d afbb
00000340: f2eb f8bd cd65 123e 70d3 7cbc 96cd 14be
00000350: 5e2f a53d 63b9 c7bd 0a8e 7c3d 9413 b33b
00000360: 3b93 383e 424d 8f3c 39f0 463e b092 143e
00000370: ff30 20be f14a 85bd 0f43 573e 6b72 35bd
00000380: 52aa 773e de2c a8bd c9a8 033d 9975 ec3d
00000390: 3a90 3ebc b6ee a13d 694f 0f3e 9d1c c8bd
000003a0: 9fba dd3d 8ad2 1e3e d390 103e 688b 3bbe
000003b0: 9027 483d 8294 28be 25cb 2dbc ec49 8e3c
000003c0: bf98 1abc 179d 063c cd88 283d a8f7 883c
000003d0: 87d8 f0bd aca3 ac3c 2a8c 03be a5a5 22be
000003e0: 3a35 103d a436 71be fa36 c9bd 36a6 c2bd
000003f0: b83d 9a3c 34d8 843d c714 6cbd 1d03 053e

fc2.weight f4 [384, 514]
-0.031020552 0.037712056 -0.0031636471 -0.058635075 -0.017052807 0.046648975 -0.05993764 0.028864395
0.023050603 0.036248587 -0.009848365 -0.04362309 0.014595657 0.015115806 -0.0037382974 0.017775148
-0.006523489 0.0413141 -0.055515975 0.0054784305 -0.0050117997 0.012360984 -0.020747479 -0.0018041584
-0.106411085 -0.020473583 -0.041495804 0.040949117 0.0573933 0.0067994604 0.054562353 -0.031078458
-0.027293094 -0.0043052076 0.012065972 -0.051497575 -0.03505993 0.026313089 0.001322112 -0.0044186334
-0.08842809 -0.026421059 -0.1035507 -0.17759582 -0.10451473 -0.06758599 -0.13723731 0.017234506
0.01259914 0.019048527 0.020815458 -0.02488658 -0.101145245 -0.18578959 -0.037896108 0.043025304
0.0454018 -0.00036600867 -0.008232294 0.04460622 0.008971014 -0.03326858 0.012646831 0.025241792
0.036967218 -0.014681837 -0.04818093 -0.07610579 0.0075504724 -0.0101261325 -0.19224314 -0.02814723
0.008129029 -0.14722319 0.07994701 -0.006864819 0.025201503 -0.06302566 -0.033722356 -0.06342585
-0.0028084107 -0.026719151 -0.039464097 -0.044807956 0.013207526 -0.10358383 0.039613206 0.025374351
-0.03451468 0.015450524 -0.04993496 0.046509843 -0.0065519344 -0.0048700105 -0.054275624 -0.02361991
0.017628565 -0.092688836 -0.015290898 0.06944368 0.02511269 0.046745922 -0.0038988288 0.01797416
-0.039314367 0.029266628 -0.00076679897 -0.078936204 0.029654397 -0.038551275 0.053315885 0.016403275
-0.048769988 -0.14580011 -0.056767106 -0.03323661 -0.0022226267 -0.18584725 0.025626438 -0.005297471
0.0010475306 -0.052642684 -0.034691922 -0.004294036 0.013700131 -0.009583949 0.0077921553 0.004417785
0.060163826 -0.12796848 -0.051425952 -0.024413994 0.07140498 0.00651823 0.03401384 -0.051670536
-0.12491881 -0.0501344 -0.00069651357 0.0042246543 -0.011014616 -0.024168756 -0.011880273 -0.12144345
0.009274566 0.055308074 -0.050561927 -0.07799116 0.006884037 0.04676285 0.02530436 -0.020108897
-0.019173058 -0.017545916 -0.0119213285 0.051334046 0.021519572 5.7413956e-07 -0.021445023 0.0024752512
-0.008147114 0.01608253 -0.029998671 0.02395305 -0.028729511 0.009763272 -0.12588581 -0.21651535
0.05899843 -0.046397775 -0.005434313 0.002038445 0.009168526 0.0031789343 -0.056244932 -0.011512207
0.041307837 0.060489006 0.050275795 0.040745888 -0.074630275 0.02974803 0.026903005 0.013529805
-0.08259604 0.03261735 -0.03655068 0.0018719132 -0.009822639 -0.065005004 0.022059621 0.0043616546
-0.040749088 0.027293907 -0.037410323 0.055080373 0.017246075 0.02269162 -0.007932176 0.06715689
0.030725121 -0.041882694 0.012098661 -0.034738034 -0.039820056 -0.030534085 -0.032906704 -0.047823597
0.049340673 -0.099408016 0.03643627 0.010293776 0.010397522 -0.2601871 -0.03924549 -0.0148296235
0.027471384 0.026473355 -0.053065393 0.010357132 -0.0864568 -0.003443452 -0.07681744 0.01332928
-0.06810108 -0.11640799 0.024154302 0.0024736847 -0.0033949243 -0.0002783505 -0.0013050286 0.027971484
-0.05871238 -0.04857176 0.05240312 -0.005779585 0.035172675 0.0070396857 0.029119903 -0.082750365
0.024098016 -0.06748856 -0.12795468 -0.008550155 -0.11434405 0.0044160187 0.0039071934 0.025821202
-0.03620738 0.033686735 -0.03269146 -0.05164081 -0.018741595 -0.10505928 -0.03000567 -0.049078595
00000000: d01e febc f577 1a3d 3155 4fbb 552b 70bd
00000010: 54b2 8bbc ff12 3f3d 2c81 75bd 0675 ec3c
00000020: 9ed4 bc3c 6679 143d 095b 21bc 20ae 32bd
00000030: 9f22 6f3c 49a8 773c 39fe 74bb 309d 913c
00000040: fec2 d5bb f938 293d b864 63bd 6884 b33b
00000050: 063a a4bb ba85 4a3c 9ef6 a9bc 8379 ecba
00000060: 0eee d9bd 37b8 a7bc 81f7 29bd 43ba 273d
00000070: 3d15 6b3d 02ce de3b c67c 5f3d 4098 febc
00000080: c495 dfbc b312 8dbb 5bb0 453c 1fef 52bd
00000090: 009b 0fbd 8c8e d73c b84a ad3a 2fca 90bb
000000a0: c919 b5bd fa70 d8bc 6412 d4bd aedb 35be
000000b0: d20b d6bd 866a 8abd f087 0cbe 612f 8d3c
000000c0: a06c 4e3c a80b 9c3c 2e85 aa3c f1de cbbc
000000d0: 3d25 cfbd a03f 3ebe f338 1bbd 4d3b 303d
000000e0: 3df7 393d dae4 bfb9 bee0 06bc 03b5 363d
000000f0: 29fb 123c a244 08bd a734 4f3c e0c7 ce3c
00000100: f06a 173d 168c 70bc 5e59 45bd 5add 9bbd
00000110: f469 f73b 14e8 25bc 63db 44be 0595 e6bc
00000120: 9e2f 053c adc1 16be 42bb a33d 47f2 e0bb
00000130: 6273 ce3c 9913 81bd 7420 0abd 69e5 81bd
00000140: 500d 38bb 1fe2 dabc 1ba5 21bd 8c88 37bd
00000150: 6164 583c c223 d4bd 7541 223d dfdd cf3c
00000160: 445f 0dbd 3224 7d3c 9a88 4cbd 1b81 3e3d
00000170: 9cb1 d6bb 9c94 9fbb 1e50 5ebd 8b7e c1bc
00000180: c869 903c a5d3 bdbd ad86 7abc 7d38 8e3d
00000190: 21b9 cd3c a778 3f3d 7e83 7fbb 8c3e 933c
000001a0: 1a08 21bd 91c0 ef3c 0203 49ba 4ea9 a1bd
000001b0: c7ed f23c f1e7 1dbd c261 5a3d 2960 863c
000001c0: 0ac3 47bd a04c 15be a084 68bd 1d23 08bd
000001d0: 7da9 11bb be4e 3ebe 89ee d13c 6896 adbb
000001e0: 4b4d 893a db9f 57bd 1e19 0ebd fcb4 8cbb
000001f0: 8476 603c ff05 1dbc 5655 ff3b 11c3 903b
00000200: 586e 763d 2b0a 03be 05a4 52bd dbff c7bc
00000210: c63c 923d e096 d53b 1952 0b3d 7ca4 53bd
00000220: 6fd5 ffbd bb59 4dbd 3c96 36ba f86e 8a3b
00000230: a676 34bc 8efd c5bc 7aa5 42bc 58b7 f8bd
00000240: 59f4 173c b88a 623d 061a 4fbd d4b9 9fbd
00000250: 7d93 e13b 678a 3f3d 174b cf3c 6abb a4bc
00000260: d110 9dbc 74bc 8fbc ad51 43bc a643 523d
00000270: d049 b03c 921e 1a35 79ad afbc d337 223b
00000280: 797b 05bc 83bf 833c c6bf f5bc 3039 c43c
00000290: 275a ebbc 21f6 1f3c 36e8 00be 33b6 5dbe
000002a0: 56a8 713d 980b 3ebd 5212 b2bb 6f97 053b
000002b0: 9637 163c ab55 503b 1661 66bd b29d 3cbc
000002c0: 6832 293d 52c3 773d feed 4d3d 29e5 263d
000002d0: c2d7 98bd 24b2 f33c b163 dc3c 1dac 5d3c
000002e0: 1d28 a9bd c599 053d 2ab6 15bd fc5a f53a
000002f0: 22ef 20bc 5821 85bd 61b6 b43c 36ec 8e3b
00000300: 84e8 26bd 7997 df3c 913b 19bd f59b 613d
00000310: a447 8d3c c7e3 b93c f5f5 01bc 8d89 893d
00000320: 40b3 fb3c 308d 2bbd 7639 463c 7849 0ebd
00000330: 5b1a 23bd 9e22 fabc 2ec9 06bd ade2 43bd
00000340: 7219 4a3d 6e96 cbbd 333e 153d 3aa7 283c
00000350: 5e5a 2a3c 3e37 85be e1bf 20bd f3f7 72bc
00000360: ab0b e13c a6de d83c 195b 59bd f6b0 293c
00000370: 4310 b1bd 8aab 61bb 7652 9dbd 0d63 5a3c
00000380: 9478 8bbd 5067 eebd 3edf c53c 8b1d 223b
00000390: 617d 5ebb 92ef 91b9 7e0d abba 7424 e53c
000003a0: 647c 70bd 2ff3 46bd a7a4 563d ac62 bdbb
000003b0: 3911 103d 2aad e63b dd8c ee3c 0679 a9bd
000003c0: 3469 c53c 7137 8abd 8d06 03be f315 0cbc
000003d0: 372d eabd 40b4 903b ea07 803b fc86 d33c
000003e0: 314e 14bd 1afb 093d 7be7 05bd 5085 53bd
000003f0: f987 99bc 5229 d7bd 73ce f5bc a306 49bd

fc2.bias f4 [384]
-0.14970714 0.07354064 0.0019399531 -0.00877963 -0.016736777 -0.014698711 -0.00493153 0.034121946
-0.097611375 0.04588132 0.0034072355 -0.020063303 0.05523641 -0.04189692 0.000192215 0.049903866
-0.047420118 0.008013348 0.06902189 0.02714225 0.04288755 0.042941954 -0.02175798 -0.006234069
0.060193628 0.0523964 -0.0055270707 -0.08588784 -0.03699727 -0.019004766 -0.035365816 0.020942615
0.024398303 0.076404944 -0.0041044024 0.051473506 -0.008897949 0.01871129 -0.016636787 0.012118254
0.06972197 0.026623832 0.015576202 0.026020978 -0.035488643 -0.009550815 0.09866771 0.06365303
-0.038512524 -0.014006388 0.025048561 0.018394815 0.035206843 -0.027248688 -0.050511323 -0.11663528
0.009125213 0.009663918 -0.028687796 0.010479421 0.013790216 -0.0019477874 -0.11125976 0.0044007245
-0.018188823 -0.004808652 0.039108384 0.020204185 -0.005311559 0.063012004 0.051955465 0.023548914
-0.09739661 -0.019220613 -0.15001158 -0.005769746 0.021807007 -0.0016660136 0.021306934 0.014759668
0.022084624 0.013829196 0.039706647 0.033918142 -0.011420936 -0.019306859 0.010391997 0.028883822
-0.02621985 0.024567962 0.051961347 -0.050900646 -0.0063492856 -0.024583962 -0.009094554 -0.08538727
-0.054492973 0.05170569 -0.03665036 0.04170541 0.03034528 0.04070355 -0.045193978 -0.005370808
-0.026845643 -0.033731245 -0.013787087 -0.036491457 -0.0007769658 0.0014087653 0.06972006 0.043945123
-0.0040982347 -0.05059756 0.09084221 0.019385554 0.04787745 -0.0010236688 0.04764417 0.012466313
0.01638948 -0.053576987 0.018073045 -0.047305685 -0.026675142 0.01802997 -0.049772188 -0.09586875
0.061631575 -0.0065399306 0.028084762 0.09067193 -0.03498319 0.014560853 0.005076456 0.004354283
-0.015602393 -0.040529493 0.0053256038 0.044354867 0.0056461715 -0.06667524 -0.021008974 -0.017164132
0.011010354 0.05100216 0.041039404 -0.015686255 -0.09700716 0.0017356022 0.021783935 -0.008507069
0.0005190507 -0.020909658 0.045469224 0.043881934 0.056370568 0.005385012 -0.028800905 -0.00076929113
0.024925746 0.020997858 -0.023301141 0.02729155 -0.013579145 -0.027917445 -0.061732456 -0.03209571
0.0027104411 -0.002890444 0.010114293 -0.0029966028 0.091346055 0.057729777 -0.010144999 -0.03196854
0.03165991 0.014105668 -0.02033481 0.051635418 -0.01632759 0.031757798 0.046906125 -0.0025602009
-0.05947471 -0.03009715 0.0919501 -0.0028141227 -0.018049074 0.016958423 -0.038205996 -0.012877674
0.05353519 -0.009901665 0.040838566 0.0032712999 -0.0033281862 0.021967694 -0.02340115 -0.041931603
-0.029717294 -0.020197889 0.047372393 0.04075121 0.0047544944 -0.027449436 0.018798864 -0.030251343
-0.031640206 0.05594941 -0.018751469 0.14114144 0.023672087 -0.025881572 -0.009547392 0.02234669
-0.0068406095 -0.055575084 -0.077175185 -0.012380434 0.05170888 0.0429027 0.004895682 -0.09522605
0.14060941 0.012566984 -0.017058484 0.08881656 0.06105973 -0.09943487 0.034817412 0.014623317
0.13756339 0.06762033 -0.007951573 0.03190919 -0.08251868 0.03296013 -0.014672438 -0.0065067904
-0.05757775 -0.02472281 -0.09501601 -0.016393637 0.0528641 -0.040462214 -0.014666741 -0.027809097
-0.022079324 0.013840945 0.00631127 -0.05014621 0.06130908 0.0075353757 0.052538496 0.0076133357
00000000: d44c 19be 7a9c 963d 0646 fe3a 70d8 0fbc
00000010: 911b 89bc ddd2 70bc ac98 a1bb 74c3 0b3d
00000020: 79e8 c7bd 0dee 3b3d ed4b 5f3b cc5b a4bc
00000030: 933f 623d 1b9c 2bbd 528d 4939 ff67 4c3d
00000040: 993b 42bd 6b4a 033c 595b 8d3d 6d59 de3c
00000050: dbaa 2f3d e7e3 2f3d cb3d b2bc 2947 ccbb
00000060: 988d 763d 9c9d 563d 6e1c b5bb f7e5 afbd
00000070: 738a 17bd e2af 9bbc bfdb 10bd d98f ab3c
00000080: f3de c73c 327a 9c3d 397e 86bb e2d5 523d
00000090: b4c8 11bc 6b48 993c df49 88bc a48b 463c
000000a0: 64ca 8e3d 391a da3c 5433 7f3c f229 d53c
000000b0: 8a5c 11bd 067b 1cbc 4c12 ca3d 855c 823d
000000c0: 4fbf 1dbd 0d7b 65bc a432 cd3c b9b0 963c
000000d0: 0d35 103d a438 dfbc f6e4 4ebd 7ade eebd
000000e0: eb81 153c 6955 1e3c ab02 ebbc e1b1 2b3c
000000f0: 5cf0 613c e64c ffba 28dc e3bd f433 903b
00000100: ba00 95bc e691 9dbb 1d30 203d 3f83 a53c
00000110: 960c aebb 700c 813d 41cf 543d a7e9 c03c
00000120: e077 c7bd 8c74 9dbc a39c 19be 2310 bdbb
00000130: 9ca4 b23c 245e daba e18b ae3c 89d2 713c
00000140: d0ea b43c da93 623c 70a3 223d c0ed 0a3d
00000150: e11e 3bbc 6b29 9ebc 3243 2a3c c49d ec3c
00000160: 03cb d6bc c042 c93c 6cd5 543d 327d 50bd
00000170: ab0d d0bb 4e64 c9bc 5301 15bc 85df aebd
00000180: 0634 5fbd 58c9 533d b01e 16bd 4bd3 2a3d
00000190: aa96 f83c c4b8 263d 521d 39bd 9afd afbb
000001a0: 65eb dbbc c629 0abd 3ce3 61bc 1178 15bd
000001b0: 4bad 4bba 52a6 b83a 64c9 8e3d cdff 333d
000001c0: 7c4a 86bb 633f 4fbd 7b0b ba3d 74ce 9e3c
000001d0: 251b 443d a02c 86ba 8826 433d 823f 4c3c
000001e0: 3b43 863c 8b73 5bbd ec0d 943c 9bc3 41bd
000001f0: d485 dabc 96b3 933c ecdd 4bbd d656 c4bd
00000200: 6471 7c3d ea4c d6bb 0412 e63c 34b2 b93d
00000210: 894a 0fbd a590 6e3c 6658 a63b 60ae 8e3b
00000220: 2ea1 7fbc 4102 26bd 6782 ae3b 73ad 353d
00000230: 8503 b93b 078d 88bd 031b acbc cb9b 8cbc
00000240: c664 343c a4e7 503d ef18 283d 7680 80bc
00000250: b1ab c6bd 257d e33a 3974 b23c 3c61 0bbc
00000260: e710 083a bb4a abbc f03d 3a3d 8bbd 333d
00000270: d3e4 663d c174 b03b e0ef ebbc 41aa 49ba
00000280: 1431 cc3c b303 ac3c 09e2 bebc 8792 df3c
00000290: 107b 5ebc 20b3 e4bc 2cdb 7cbd cb76 03bd
000002a0: a8a1 313b 9a6d 3dbb 6bb6 253c a762 44bb
000002b0: a413 bb3d 0f76 6c3d 3637 26bc 72f1 02bd
000002c0: d2ad 013d 761b 673c 3095 a6bc a97f 533d
000002d0: 70c1 85bc 7714 023d a320 403d 0bc9 27bb
000002e0: c19b 73bd 4c8e f6bc 5650 bc3d 256d 38bb
000002f0: a7db 93bc 64ec 8a3c e47d 1cbd e1fc 52bc
00000300: b747 5b3d 983a 22bc 5746 273d 4e63 563b
00000310: b31d 5abb 98f5 b33c c5b3 bfbc 79c0 2bbd
00000320: af71 f3bc 0b76 a5bc 8e09 423d beea 263d
00000330: 97cb 9b3b a4dd e0bc 1300 9a3c aad1 f7bc
00000340: 2999 01bd 352b 653d ae9c 99bc 6287 103e
00000350: f7eb c13c 9705 d4bc aa6c 1cbc 6810 b73c
00000360: 3127 e0bb b3a2 63bd 060e 9ebd 4ed7 4abc
00000370: b1cc 533d beba 2f3d f56b a03b e005 c3bd
00000380: eafb 0f3e c0e5 4d3c 3cbe 8bbc 75e5 b53d
00000390: c419 7a3d 82a4 cbbd b49c 0e3d a396 6f3c
000003a0: 6bdd 0c3e 877c 8a3d 5047 02bc 36b3 023d
000003b0: 8eff a8bd 3401 073d aa64 70bc ea36 d5bb
000003c0: a6d6 6bbd 7e87 cabc c197 c2bd f34b 86bc
000003d0: 0788 583d b5bb 25bd c54c 70bc e7cf e3bc
000003e0: b3df b4bc 22c5 623c c5ce ce3b 1d66 4dbd
000003f0: 3b1f 7b3d 50eb f63b 9b32 573d 4a79 f93b

fc3.weight f4 [1, 384]
-0.046487436 0.008014456 -0.034343366 0.05083912 0.018907437 -0.0007261054 -0.19952579 0.03582179
-0.05912291 0.01698288 0.003400662 -0.1260401 0.010701367 -0.027048344 0.027243564 -0.10193307
0.048665438 0.00124573 -0.087296076 -0.060334265 -0.100655936 -0.06250099 -0.015955942 -0.010424983
0.028593825 -0.14845192 -0.014104869 -0.061228976 -0.06398691 -0.066096775 -0.06128565 0.0016600566
0.028665604 0.010228796 0.011423685 0.06313791 0.11182384 -0.00061604753 0.0026549695 -0.02257676
0.021566115 0.030716384 -0.001474929 0.08000646 0.1321343 0.0015464685 0.02118486 0.007825836
0.039028253 -0.038742352 0.084299006 0.07459382 -0.13306259 -0.15387557 0.002721721 -0.010550139
-0.0038604501 0.047433145 -0.2130776 0.048516065 -0.10146021 0.01505501 -0.071563445 0.051794305
0.06801059 -0.049225986 0.0006715258 -0.015508082 0.1316976 -0.048984572 0.040511522 0.0014640469
-0.0754191 -0.018429214 -0.1359677 -0.027366534 -0.08276482 -0.10202476 0.07871937 0.0016164833
0.123064734 -0.13895498 -0.045605097 0.032561682 0.073933356 -0.08874403 -0.045298215 0.026392015
-0.06662035 0.10177583 0.06949919 -0.007230255 0.017549068 -0.012929423 -0.12166322 -0.018913658
-0.022127926 0.0028384752 -0.08488431 0.014334673 0.0034520032 0.06253718 -0.11892765 0.12304316
-0.09421525 -0.0118072815 0.13628584 -0.13362938 0.024315653 0.019913489 0.008170216 -0.09081807
-0.07934298 -0.08185981 0.013466156 0.0050714836 -0.045017213 0.020556238 0.0038006485 0.0018692331
-0.0036096885 0.0065271338 -0.24540755 -0.004801469 -2.7321252e-05 0.06517284 -0.110183865 -0.08987574
0.08457418 -0.08186362 0.01959738 0.023093952 -0.029157896 0.1248918 0.041257154 0.04127273
-0.00043619232 -0.00054434943 0.008554753 0.019347616 0.078535914 -0.17231272 0.12017962 -0.04160439
0.01597451 0.06477699 -0.026663717 -0.11939154 -0.14547461 -0.21720412 -0.07685769 -0.0002932149
-0.033237316 -0.086024314 0.032441806 0.20047161 -0.06968107 -0.052995853 0.10001456 -0.09179654
0.10731116 0.0138412705 0.08341992 0.025251193 -0.09018677 -0.071306705 0.059241988 0.044460338
0.07542891 -0.00085129007 0.008351012 -0.05671175 7.9713536e-05 0.004595694 0.06886997 -0.024693472
0.031632956 0.12575822 0.03885555 0.056344524 -0.087196924 0.013874779 0.2394446 -0.115144275
-0.015753133 0.061486788 0.028060097 -0.033669945 0.0051723407 -0.14342272 -0.058702365 -0.047915705
-0.02337982 0.048830666 0.034998797 0.11269656 0.053568058 0.07332573 -0.08073761 -0.08763805
0.049260907 0.105033025 0.07385429 0.019540617 -0.092691995 -0.0202478 0.02003133 0.1872403
0.10033106 0.05367526 -0.030847454 0.042819798 -0.07258727 0.053526632 -0.100314155 0.043810654
0.070233926 -0.12477573 -0.02108521 -0.09039158 0.0052658147 0.023145102 0.098537445 -0.08547598
0.010333848 -0.12299088 0.14577766 0.0030283488 0.030322982 -0.050538026 0.009525556 0.21494325
0.011280058 -0.08006264 0.012486073 0.04853557 -0.006541696 -0.13551229 0.044804696 -0.1071782
-0.07072728 -0.04146526 -0.007002092 0.022079041 0.021494621 -0.034795064 -0.2145602 -0.08418733
-0.13011827 -0.102152094 0.0015369182 -0.10586479 0.017631283 -0.032537587 0.09971684 0.011260079
00000000: 9c69 3ebd 114f 033c a1ab 0cbd ae3c 503d
00000010: c5e3 9a3c 1c58 3eba 7d50 4cbe dfb9 123d
00000020: dd2a 72bd ae1f 8b3c a4dd 5e3b a810 01be
00000030: c954 2f3c 7d94 ddbc e52d df3c 49c2 d0bd
00000040: 6955 473d c347 a33a 49c8 b2bd 1021 77bd
00000050: b324 cebd 8500 80bd 09b6 82bc 8ccd 2abc
00000060: 993d ea3c c803 18be 1c18 67bc 3ccb 7abd
00000070: 920b 83bd bf5d 87bd a906 7bbd 4296 d93a
00000080: 21d4 ea3c ae96 273c 682a 3b3c 734e 813d
00000090: e603 e53d 407e 21ba fffe 2d3b e6f2 b8bc
000000a0: 6cab b03c eda0 fb3c 6852 c1ba 6dda a33d
000000b0: 374e 073e dfb2 ca3a df8b ad3c ef37 003c
000000c0: 17dc 1f3d 4db0 1ebd f5a4 ac3d a5c4 983d
000000d0: 8f41 08be 8f91 1dbe e75e 323b 7dda 2cbc
000000e0: 9bff 7cbb 4249 423d 0431 5abe c8b8 463d
000000f0: 5fca cfbd 4aa9 763c db8f 92bd 4426 543d
00000100: 2349 8b3d 30a1 49bd 5509 303a 9c15 7ebc
00000110: bcdb 063e 0ca4 48bd 69ef 253d 43e5 bf3a
00000120: 5475 9abd ddf8 96bc 1e3b 0bbe c82f e0bc
00000130: 9a80 a9bd 5bf2 d0bd 9f37 a13d 2ee0 d33a
00000140: 5d09 fc3d 374a 0ebe 69cc 3abd 665f 053d
00000150: 5f6a 973d 6ebf b5bd 9f8a 39bd 1134 d83c
00000160: 4070 88bd d96f d03d 9755 8e3d c6eb ecbb
00000170: 10c3 8f3c eed5 53bc 912a f9bd d1f0 9abc
00000180: a045 b5bc b605 3a3b d3d7 adbd fadb 6a3c
00000190: 013b 623b 7e13 803d 5790 f3bd 0dfe fb3d
000001a0: edf3 c0bd 5473 41bc 848e 0b3e 24d6 08be
000001b0: 9f31 c73c 9d21 a33c 5fdc 053c d3fe b9bd
000001c0: 937e a2bd 1ea6 a7bd 27a1 5c3c b02e a63b
000001d0: f863 38bd 8e65 a83c 4d14 793b 0e01 f53a
000001e0: 8690 6cbb 91e1 d53b 1e4c 7bbe a455 9dbb
000001f0: f12f e5b7 5779 853d 14a8 e1bd c610 b8bd
00000200: 3a35 ad3d 1da8 a7bd af8a a03c 872f bd3c
00000210: 8adc eebc 46c7 ff3d 43fd 283d 980d 293d
00000220: beb0 e4b9 acb2 0eba 3c29 0c3c e47e 9e3c
00000230: 70d7 a03d bf72 30be bc20 f63d 5d69 2abd
00000240: fadc 823c cca9 843d de6d dabc 8d83 f4bd
00000250: 4cf7 14be c26a 5ebe 9167 9dbd a3ba 99b9
00000260: da23 08bd 842d b0bd b3e1 043d 6e48 4d3e
00000270: f3b4 8ebd 2e12 59bd 6fd4 cc3d d3ff bbbd
00000280: f4c5 db3d 7fc6 623c 10d8 aa3d 97db ce3c
00000290: d7b3 b8bd 4009 92bd baa7 723d 0b1c 363d
000002a0: 797a 9a3d 1c29 5fba afd2 083c 944a 68bd
000002b0: e12b a738 7a97 963b b30b 8d3d f749 cabc
000002c0: 8f91 013d c3c6 003e ff26 1f3d 84c9 663d
000002d0: 4d94 b2bd 0b53 633c f730 753e c3d0 ebbd
000002e0: b70c 81bc 92d9 7b3d 4ade e53c 7fe9 09bd
000002f0: bd7c a93b 68dd 12be e471 70bd 4243 44bd
00000300: 0987 bfbc aa02 483d e65a 0f3d 74cd e63d
00000310: 2e6a 5b3d cd2b 963d c359 a5bd 947b b3bd
00000320: cec5 493d 8e1b d73d eb40 973d a513 a03c
00000330: 4dd5 bdbd b7de a5bc be18 a43c ecbb 3f3e
00000340: 5f7a cd3d 97da 5b3d cdb3 fcbc d063 2f3d
00000350: a2a8 94bd be3e 5b3d 8271 cdbd cd72 333d
00000360: ced6 8f3d 6b8a ffbd e4ba acbc 381f b9bd
00000370: db8c ac3b cc9a bd3c 00ce c93d 080e afbd
00000380: 4d4f 293c a4e2 fbbd bd46 153e 4377 463b
00000390: e767 f83c f600 4fbd 1411 1c3c 151a 5c3e
000003a0: fecf 383c e2f7 a3bd 6392 4c3c 3ccd 463d
000003b0: b95b d6bb bcc3 0abe 2185 373d 3e80 dbbd
000003c0: 77d9 90bd 7ad7 29bd ce71 e5bb 1bdf b43c
000003d0: 7d15 b03c 4585 0ebd abb5 5bbe 686a acbd
000003e0: b93d 05be 1e35 d1bd 6b72 c93a a4cf d8bd
000003f0: 7b6f 903c 2246 05bd 5838 cc3d 327c 383c
