p3_collab-compet/agent_1_checkpoint_actor_solved.pth (torch_old, 843275 bytes, 6 tensors)

fc1.weight f4 [512, 24]
0	0xbc489415	-0.012242337
1	0x3a9dc0f1	0.001203565
2	0xbbc23a19	-0.005927336
3	0x3bf573f1	0.007490628
4	0x3d6fcbb5	0.05854388
5	0xbc5cd7b4	-0.013479162
6	0xbc47c509	-0.012192973
7	0xbc02deec	-0.007987719
8	0xbd561dc8	-0.052274495
9	0x3cf9d571	0.030497285
10	0xbcef4c09	-0.029211061
11	0x3d5ff364	0.054675475
12	0x3df6acec	0.12044701
13	0xbd0c3ad3	-0.034235787
14	0xbc6f65bc	-0.014611658
15	0x3cdafdec	0.026732408
16	0xbda4d8eb	-0.08049186
17	0xbce0f270	-0.027459353
18	0xbd32f844	-0.043693796
19	0x3d61205e	0.05496251
20	0x3e58b20a	0.21161667
21	0xbdbcaf03	-0.09213068
22	0xbdba9fe6	-0.091125295
23	0x3d5cb8ea	0.053887285
24	0x3c86ade2	0.016440336
25	0x3d8c9221	0.068638094
26	0xbd264430	-0.040592372
27	0x3c248434	0.010041285
28	0xbd9269cb	-0.07149085
29	0x3e05507a	0.1301898
30	0xbd5b646c	-0.053562567
31	0x3c86ecc2	0.016470317
32	0xbcf01a3e	-0.029309388
33	0x3d69bfd3	0.057067703
34	0xbc4bb288	-0.012432702
35	0x3d23b94a	0.039971627
36	0xbce17bb5	-0.027524808
37	0x3dd3588e	0.10319625
38	0xbc163b27	-0.009169376
39	0x3cdcf8e3	0.026974147
40	0xbcac1026	-0.021003794
41	0x3d8c17d6	0.06840484
42	0x3d3d027a	0.04614494
43	0xbdd14717	-0.102186374
44	0x3da0eca2	0.07857634
45	0xbd505cf9	-0.050869916
46	0x3ca6c2df	0.020356594
47	0xbdad022b	-0.08447679
48	0x3ce9bf72	0.028533671
49	0x3df8ec4a	0.121544436
50	0xbc5e0adc	-0.013552394
51	0x3daa0550	0.083017945
52	0x3d9c928d	0.0764514
53	0xbe1f5c34	-0.15562516
54	0xbcbf78e5	-0.023373077
55	0x3d9a16ec	0.07523903
56	0x3daaacee	0.08333765
57	0x3de1a17a	0.11017127
58	0x3c9ebc88	0.019377008
59	0x3ca31187	0.019905819
60	0x3da78480	0.08179569
61	0xbd404efe	-0.046950333
62	0x3ce98aae	0.02850851
63	0x3d0a846d	0.033817697
64	0xbc8017bc	-0.015636317
65	0x3baac61e	0.0052116057
66	0xbbc6f615	-0.0060718157
67	0x3bcea875	0.0063067027
68	0x3d6c0137	0.057618346
69	0x3d92d7d4	0.07170072
70	0xbd94cc8f	-0.07265579
71	0xbcbc455b	-0.02298229
72	0x3d84c2dc	0.06482479
73	0x3d475f6a	0.04867498
74	0xbd89c931	-0.06727827
75	0xbcfee3f1	-0.03111455
76	0xbd83756c	-0.06418881
77	0xbd2b69a0	-0.04184878
78	0xbb4e7447	-0.0031502412
79	0xbc76ae1a	-0.0150561575
80	0x3d166dd4	0.036725834
81	0x3d235d61	0.039883975
82	0x3d223dfc	0.039609894
83	0x3d7e8e7a	0.062147595
84	0xbd78c851	-0.06073791
85	0x3d1a1183	0.037614357
86	0x3c6955bc	0.014241632
87	0x3d2bc651	0.041937176
88	0x3d6248d0	0.05524522
89	0x3c1d746c	0.009610277
90	0x3c558c20	0.013033897
91	0xbe11cc16	-0.14238009
92	0xbd2fe2d9	-0.04294095
93	0x3e0fc91e	0.14041564
94	0xbca8d366	-0.020608615
95	0xbdecb79a	-0.11558457
96	0x3c9b9411	0.018991502
97	0x3d207673	0.039175462
98	0xbb821fd9	-0.0039710817
99	0x3d844d9c	0.06460115
100	0x3d3e6227	0.046480324
101	0x3c0dd5b7	0.008656911
102	0xbd6a5536	-0.05721017
103	0x3d46929b	0.048479658
104	0x3c83ce3b	0.01608955
105	0x3d5458bf	0.051842447
106	0x3c3e899d	0.011629489
107	0xbc07362f	-0.0082526645
108	0xbc47359c	-0.012158778
109	0x3d3a6ee4	0.04551591
110	0xbcfc6e7a	-0.030814398
111	0xbb77ea78	-0.0037828963
112	0x3d861ef8	0.065488756
113	0x3d917efb	0.07104298
114	0x3d51fa9d	0.051264394
115	0xbd22e289	-0.039766822
116	0x3ca6ba48	0.020352498
117	0x3e07145d	0.13191362
118	0x3d6c0a39	0.057626937
119	0x3b667f31	0.0035171027
120	0x3d76e2f5	0.060275037
121	0xbc22203d	-0.0098953815
122	0xbc82cd12	-0.015966926
123	0xbc37b830	-0.011213347
124	0x3ccc9640	0.024973989
125	0x3c405160	0.011738151
126	0xbd2e20f8	-0.04251191
127	0x3ba7fa02	0.005126239
128	0x3d6d1c04	0.057888046
129	0xbe1c22b3	-0.15247612
130	0xbcaa8a75	-0.020817975
131	0xbca45414	-0.020059623
132	0xbd43312f	-0.047654327
133	0x3e0fdbd4	0.14048702
134	0xbd38b191	-0.045091216
135	0xbd327a8e	-0.04357391
136	0x3d58effe	0.05296325
137	0xbe137c1d	-0.14402814
138	0xbd0dd616	-0.034627996
139	0xbd9524c2	-0.072824016
140	0xbd180327	-0.03711238
141	0x3e274d0d	0.16337986
142	0x3d171c34	0.03689213
143	0xbccc8c7d	-0.024969334
144	0xbc7fecdc	-0.0156204365
145	0xbe18bee8	-0.14916575
146	0x3b979d71	0.004626923
147	0x3c1da5f1	0.009622083
148	0x3c89f18e	0.016838815
149	0x3c9a9be9	0.018873172
150	0x3c9901f3	0.018677687
151	0x3ac791c5	0.0015225938
152	0xbcdc64c4	-0.026903518
153	0xbe246e9b	-0.16057818
154	0x3c95abab	0.018270334
155	0x3d484676	0.04889532
156	0x3d4f6598	0.050633997
157	0x3d83a5ff	0.064281456
158	0xbc9f6fdd	-0.01946252
159	0xbc5b1aa1	-0.013373048
160	0x3bcc21e6	0.006229627
161	0xbe21d671	-0.15804459
162	0xbbca0b88	-0.0061659254
163	0x3e040551	0.12892653
164	0x3e0e5f65	0.13903578
165	0x3e42dde5	0.19029959
166	0xbc722f4a	-0.014781782
167	0x3defed80	0.117152214
168	0xbc118775	-0.008882393
169	0xbd81454a	-0.06312044
170	0xbd0ba390	-0.034091532
171	0xbd2ca0f4	-0.042145684
172	0x3d9891bf	0.07449674
173	0x3d876d51	0.06612647
174	0x3ca0339e	0.019555863
175	0xbd231764	-0.03981723
176	0xbc5f2ca5	-0.013621484
177	0x3c422369	0.011849263
178	0x3d880773	0.06642046
179	0xbd798179	-0.06091449
180	0x3d0400f2	0.032227464
181	0x3ce2464c	0.02762141
182	0xbafe083e	-0.0019381118
183	0x3c34d051	0.011035995
184	0x3ce5771e	0.028010901
185	0xbccc1bff	-0.024915693
186	0x3d2983c2	0.04138542
187	0xbd998173	-0.074953936
188	0xbd63a579	-0.05557773
189	0x3d9d0547	0.07667022
190	0x3d069006	0.032852195
191	0xbd48fb79	-0.049067948
192	0x3da7a649	0.08186013
193	0x3ded98cc	0.11601409
194	0xbc35ed58	-0.01110395
195	0x3c881e44	0.016615994
196	0xbdc492f1	-0.09598339
197	0xba841d62	-0.0010079558
198	0xba27b752	-0.0006397861
199	0xbb3cda0b	-0.0028816487
200	0x3d711a9e	0.058863275
201	0x3dc12daa	0.09432538
202	0x3d99fc91	0.07518876
203	0x3ce766e9	0.028247314
204	0xbd3829de	-0.044961803
205	0x3c9d538f	0.019204883
206	0x3b4954d8	0.0030720737
207	0x3dab63fe	0.08368681
208	0x3d8191ec	0.063266605
209	0x3d413ab7	0.047175135
210	0x3caa2486	0.020769369
211	0x3d084fb5	0.03327914
212	0x3bce7297	0.0063002813
213	0x3e2ac416	0.16676363
214	0x3d80da82	0.06291677
215	0x3d8632ba	0.06552644
216	0x3d594a08	0.053049117
217	0xbc6bc6d4	-0.014390666
218	0x3bb1cc29	0.005425949
219	0xbcaebff2	-0.021331761
220	0xbe42a363	-0.1900764
221	0x3cf4badb	0.029874256
222	0x3c7eddc1	0.0155558
223	0xbd3ebe05	-0.046567935
224	0xba17abb3	-0.0005785778
225	0xbd473382	-0.048633106
226	0xbd8b6fb4	-0.06808415
227	0x3d41cd23	0.047314774
228	0xbdf7cf69	-0.12100107
229	0x3d8cb529	0.06870491
230	0xbd01b145	-0.031663198
231	0xbcac373e	-0.021022435
232	0xbc34737b	-0.011013861
233	0xbcc5c2f6	-0.024140816
234	0x3aff37f8	0.0019471636
235	0xbd0f7880	-0.035027027
236	0xbdb26a4c	-0.08711681
237	0x3cbb4bdc	0.022863321
238	0x3c289b31	0.010290907
239	0xbd59c9b0	-0.05317086
240	0xbbbe8e63	-0.0058153137
241	0x3d39f652	0.045400925
242	0xbd155b2f	-0.036463913
243	0x3cdbe0eb	0.026840648
244	0xbccb31d5	-0.024804035
245	0xbd9e8c38	-0.07741588
246	0xbc94f29e	-0.018182095
247	0x3c342d5d	0.010997144
248	0x3d09066b	0.033453386
249	0x3d85f7a7	0.065413766
250	0x3c588d24	0.013217244
251	0x3e0bdcd4	0.13658458
252	0x3d1b4c9c	0.037914857
253	0xbe0897ca	-0.13339153
254	0xbc1471d2	-0.00906034
255	0x3ddeebeb	0.108848415

fc1.bias f4 [512]
0	0x3e483326	0.19550762
1	0x3e0926b3	0.13393669
2	0x3d9fc55a	0.07801314
3	0x3d6c7d66	0.057736777
4	0xbda069f7	-0.07832711
5	0x3e50c69f	0.20388268
6	0x3e269560	0.1626792
7	0x3e5281b5	0.20557292
8	0x3d97ff63	0.07421758
9	0xbdd9947f	-0.106240265
10	0x3dcfb82e	0.10142551
11	0xbd5bf507	-0.053700473
12	0x3d73d6e7	0.05953112
13	0x3ca33ae9	0.019925551
14	0xbd9f9f0a	-0.07794006
15	0xbcf7fdf9	-0.03027247
16	0xbe829bb6	-0.25509423
17	0xbdd65104	-0.10464671
18	0x3d93e981	0.07222272
19	0xbd9b503a	-0.075836614
20	0xbe21f699	-0.15816726
21	0xbdcc53b2	-0.09976901
22	0xbe7400b6	-0.23828396
23	0x3d3ec1ca	0.04657153
24	0xbd817b85	-0.063223876
25	0xbd0dc412	-0.034610815
26	0x3d0e769c	0.034781083
27	0x3d80b222	0.06283976
28	0x3c910cac	0.017706238
29	0x3e0a4c77	0.13505732
30	0xbc8a97d9	-0.01691811
31	0xbd4dec2f	-0.05027407
32	0xbd2bd953	-0.041955303
33	0xbcf9efef	-0.030509917
34	0xbd9698d3	-0.07353368
35	0x3c9c6c22	0.01909453
36	0xbd15515f	-0.036454555
37	0x3df5ea11	0.12007535
38	0x3e2e0198	0.16992795
39	0xbe2f49d8	-0.17118013
40	0xbe13cec1	-0.14434339
41	0x3deed464	0.11661604
42	0x3df254a9	0.11832554
43	0x3c88f702	0.016719345
44	0x3d7bfa50	0.061518013
45	0x3e500aa2	0.20316556
46	0x3d92fd73	0.07177248
47	0x3c083ac7	0.008314795
48	0x3d5e8030	0.054321468
49	0x3e62523e	0.22101685
50	0x3e0fdc38	0.1404885
51	0x3d33159d	0.043721784
52	0xbd77af44	-0.06046988
53	0x3e21a263	0.15784602
54	0xbd51367f	-0.051077362
55	0x3c413f82	0.011794927
56	0xbe166356	-0.14686331
57	0xbe5f3042	-0.21795753
58	0x3d513ca3	0.05108322
59	0x3e07f178	0.13275707
60	0x3d57207c	0.052521214
61	0x3e0e3a62	0.13889459
62	0xbe45c499	-0.19313277
63	0x3d97ecfe	0.074182495
64	0xbe3050e1	-0.17218353
65	0xbe0a01cd	-0.1347725
66	0x3dc13dcd	0.09435616
67	0xbd56b480	-0.052418232
68	0xbe3a1e5f	-0.18175648
69	0xbd9aef04	-0.0756512
70	0x3db410f0	0.08792293
71	0xbe6dd334	-0.23225099
72	0xbd530978	-0.051522702
73	0xbdb57388	-0.088599265
74	0xbe176338	-0.14783943
75	0xbdc70818	-0.09718341
76	0xbc378cf2	-0.011203038
77	0xbe2281b7	-0.15869795
78	0x3d3e5864	0.046471015
79	0x3cf38f8e	0.029731538
80	0xbe224a59	-0.15848674
81	0x3de2f199	0.11081237
82	0xbe267c1a	-0.16258278
83	0x3e03a586	0.12856111
84	0x3df2a2e8	0.11847478
85	0xbdf50c86	-0.11965279
86	0xbc81fea3	-0.01586849
87	0xbddc0b1a	-0.10744305
88	0xbcf7727b	-0.030205956
89	0x3d8f83c2	0.07007553
90	0xbe5e35c9	-0.21700205
91	0x3ddb407c	0.10705659
92	0xbe4081d7	-0.1879953
93	0xbe108812	-0.14114407
94	0x3d475bfa	0.0486717
95	0x3d43b98a	0.047784366
96	0xbb4a22fb	-0.0030843604
97	0x3c7431fe	0.014904497
98	0xbe2ac0ef	-0.16675161
99	0x3c6ce4b4	0.014458824
100	0xbe187230	-0.14887309
101	0x3d2a6a7a	0.04160545
102	0x3e5c5756	0.21517691
103	0x3d856997	0.0651428
104	0xbe13a59e	-0.14418647
105	0xbdd0657e	-0.10175608
106	0x3d80f09f	0.06295895
107	0xbd625c99	-0.05526409
108	0xbd7a7058	-0.061142296
109	0x3e1fe8d5	0.15616162
110	0xbdcf0bce	-0.101096734
111	0x3d87daca	0.066335276
112	0xbe14ef2f	-0.14544366
113	0x3dcacf75	0.099028505
114	0xbe217e32	-0.15770796
115	0xbe7338b9	-0.23752107
116	0xbd9c022c	-0.07617602
117	0x3e71064b	0.23537557
118	0xbe3a6de7	-0.18205987
119	0x3e3fe60f	0.18740104
120	0xbe5abd18	-0.21361196
121	0xbc236045	-0.009971683
122	0x3d6ac3ed	0.057315756
123	0x3e1c2cb0	0.15251422
124	0xbe0895b8	-0.13338363
125	0x3d5e426b	0.05426256
126	0x3e163ebe	0.14672372
127	0x3d1ddcae	0.038540535
128	0x3ca312fc	0.019906513
129	0x3e29e6a4	0.16591889
130	0x3e32b01c	0.17449993
131	0xbe2191e5	-0.1577831
132	0xbde369f7	-0.111041956
133	0x3e475734	0.19466859
134	0x3db4b85e	0.08824228
135	0xbe193291	-0.14960696
136	0x3cd9c18b	0.026581546
137	0xbcc6ce0a	-0.024268169
138	0xbdc9630f	-0.09833347
139	0x3cac84ec	0.021059476
140	0x3d81ac18	0.063316524
141	0xbdffce9d	-0.1249058
142	0xbcdc5e35	-0.02690039
143	0x3d564994	0.052316263
144	0x3e00dd98	0.12584531
145	0xbc5b5b05	-0.0133884
146	0xbe60eb07	-0.21964656
147	0x3e021b61	0.12705757
148	0xbdfd12b8	-0.12357086
149	0xbe35e631	-0.17763592
150	0xbde9aab6	-0.11409514
151	0x3dcb811f	0.09936737
152	0x3dff04f4	0.124521166
153	0xbd91b544	-0.07114652
154	0xbc5cada6	-0.013469135
155	0xbe4ac767	-0.19802628
156	0xbe73c7c9	-0.2380668
157	0xbde6af8b	-0.11263951
158	0xbd79777f	-0.060904976
159	0x3dbf2910	0.09334004
160	0xbe08b68a	-0.13350883
161	0xbb8d5065	-0.0043125623
162	0xbdbf1bd6	-0.09331481
163	0x3d4c1ff5	0.049835164
164	0x3de939d0	0.1138798
165	0xbd6bbc17	-0.057552423
166	0x3dac6031	0.084167846
167	0x3e0837db	0.13302557
168	0x3dc47f28	0.09594566
169	0x3e1a681e	0.1507878
170	0xbd183aa4	-0.0371653
171	0xbabd6856	-0.001445065
172	0xbe53ee7d	-0.20696445
173	0xbe62c8ff	-0.22146986
174	0x3e6eff80	0.23339653
175	0xbdfec6d6	-0.12440269
176	0x3da49cfc	0.08037755
177	0x3e124b56	0.14286551
178	0xbe26988a	-0.16269127
179	0xbe18eafb	-0.14933388
180	0x3dd6abcd	0.10481987
181	0xbdafb555	-0.08579508
182	0xbc25a3c4	-0.010109846
183	0xbdc14629	-0.0943721
184	0xbcb5dde4	-0.022200532
185	0xbe00352d	-0.12520285
186	0xbc832b6a	-0.016011912
187	0xbe0ad95e	-0.13559482
188	0xb9d42266	-0.0004046142
189	0x3e4401ae	0.19141266
190	0x3d1d11d4	0.03834708
191	0x3d4f0d72	0.05054993
192	0xbe3de5e1	-0.18544723
193	0x3d58b687	0.052908447
194	0xbc6ac68b	-0.014329563
195	0x3c85ed77	0.016348584
196	0xbe27075a	-0.16311398
197	0x3dcc375f	0.09971499
198	0xbda3a4d5	-0.079904236
199	0x3e0cecdd	0.13762231
200	0xbe3e4aed	-0.1858327
201	0x3e01d841	0.1268015
202	0xbd97faae	-0.0742086
203	0x3d893605	0.066997565
204	0x3e3ee3ac	0.18641537
205	0x3e001d90	0.12511277
206	0x3dc020f9	0.09381289
207	0xbd0a1a90	-0.03371674
208	0xbde436c8	-0.11143261
209	0x3e24935e	0.16071841
210	0xbd869049	-0.06570489
211	0xbdf24408	-0.11829382
212	0x3d81bb2b	0.063345276
213	0xbdb877ab	-0.090072
214	0x3d62befc	0.05535792
215	0xbd615e4f	-0.05502158
216	0x3e594de2	0.21221116
217	0xbd100d66	-0.035169028
218	0x3e1ffda2	0.15624097
219	0x3e2f6c05	0.1713105
220	0xbe174f98	-0.14776456
221	0xbd9186ea	-0.07105811
222	0x3e552140	0.20813465
223	0xbcd57993	-0.026058948
224	0x3e29a3c9	0.16566385
225	0xbc8d96da	-0.017283846
226	0x3c7fb56e	0.015607221
227	0xbc6a08c9	-0.014284321
228	0xbd91f364	-0.07126501
229	0x3dd6fcf2	0.10497464
230	0x3da5eadf	0.08101439
231	0xbd247c0d	-0.040157367
232	0x3e1044c6	0.14088735
233	0x3ce10487	0.02746798
234	0x3b87cf6e	0.0041446006
235	0xbe04ed57	-0.12981163
236	0x3d528447	0.05139568
237	0xbe08dde3	-0.13365893
238	0x3e0ca2a5	0.13733919
239	0xbd809209	-0.06277854
240	0x3cb70029	0.022338944
241	0x3d5ff176	0.054673634
242	0x3d445cea	0.047940172
243	0xbcfe2b70	-0.031026572
244	0xbdd4a9dd	-0.10383961
245	0xbb8ddc6d	-0.0043292553
246	0xbdbe98b3	-0.09306469
247	0xbdc3dced	-0.095636226
248	0xbd0249a3	-0.031808507
249	0xbe13f730	-0.14449763
250	0xbd7b098d	-0.061288405
251	0xbd9c1e1b	-0.0762293
252	0x3da7c39e	0.08191608
253	0x3de3872f	0.111097686
254	0xbe01e341	-0.12684347
255	0x3dd871f9	0.105686136

fc2.weight f4 [384, 512]
0	0xbd0a61af	-0.033784565
1	0x3d62da37	0.055383887
2	0xbcb754e6	-0.02237935
3	0x3d70b11a	0.058762647
4	0x3c208d47	0.009799308
5	0x3dabafa9	0.08383114
6	0x3c3e5b69	0.011618474
7	0x3d5340c3	0.051575433
8	0xbca7b6c4	-0.020472892
9	0x3d48e85e	0.049049728
10	0xbd312eab	-0.043257397
11	0x3cf3c3b3	0.029756403
12	0xbad73aae	-0.0016420686
13	0xbc3c13a9	-0.011479297
14	0xbd40214b	-0.04690675
15	0xbcacf967	-0.021115018
16	0x3dffa1c9	0.1248203
17	0x3c9db2f5	0.019250372
18	0x3c345071	0.011005507
19	0xbcc286dd	-0.023745948
20	0xbcf28ecb	-0.029609105
21	0x3ae96aaf	0.0017808283
22	0x3cc884c8	0.024477378
23	0x3d8e1a3b	0.06938597
24	0x3bad4f5e	0.0052890023
25	0x3bd3f9e9	0.0064690006
26	0xbc0d6674	-0.008630384
27	0xbd5e683c	-0.054298624
28	0x3d4d03e0	0.050052524
29	0xbc1a0050	-0.009399489
30	0xbd5c5927	-0.05379596
31	0x3d9e6b0f	0.077352636
32	0xbca4b267	-0.0201046
33	0xbc84b577	-0.01619981
34	0xbd4d80fd	-0.05017184
35	0xbacfd594	-0.0015856498
36	0x3c1d92c8	0.009617515
37	0xbd8dd058	-0.06924504
38	0xbd4f3986	-0.050591968
39	0xbde4776a	-0.11155589
40	0x3d7fc3a3	0.062442433
41	0xbbf9cb61	-0.0076231216
42	0x3cde2a1f	0.027119694
43	0x3b1297a3	0.0022368215
44	0xbca16e8b	-0.019706031
45	0x3d31ea04	0.043436065
46	0xbd8d7924	-0.06907871
47	0x3d2d3733	0.04228897
48	0xbcdb96c1	-0.026805284
49	0xbd162afd	-0.03666209
50	0x3d0d4a02	0.034494407
51	0xbd616ed1	-0.055037323
52	0x3be34c38	0.006936576
53	0x3cd8b922	0.026455466
54	0xbadf0929	-0.001701628
55	0x39366eb4	0.00017398113
56	0xbd431d46	-0.04763534
57	0x3d612cf9	0.05497453
58	0xbd47d5c4	-0.048787847
59	0xbd61dcba	-0.055142142
60	0xbd028518	-0.03186521
61	0xbe5144d1	-0.20436408
62	0xbbd46a49	-0.0064823967
63	0xbcec91f8	-0.028878197
64	0xbcec6b4b	-0.028859755
65	0x3cb4ed74	0.022085883
66	0x3bfa28ec	0.007634273
67	0xbd9e3d4d	-0.07726536
68	0xbc989d31	-0.018629642
69	0x3c1da806	0.009622579
70	0xbca65034	-0.020301916
71	0x3d1a390e	0.037652068
72	0xbc615061	-0.013752074
73	0xbd2dd7cc	-0.042442128
74	0x3dd58e29	0.104275055
75	0xbc0fe768	-0.008783199
76	0xbba865bf	-0.005139082
77	0xbd6b193c	-0.057397112
78	0xbb514dcd	-0.0031937242
79	0x3aa47fd7	0.0012550306
80	0x3ca2a855	0.019855658
81	0x3d676eca	0.05650214
82	0x3d6a5cb9	0.057217333
83	0xbc29b3f0	-0.010357842
84	0xbcb94f5d	-0.022620851
85	0xbd89bb4f	-0.067251794
86	0xbda3d82f	-0.08000218
87	0x3a12c4ff	0.0005598813
88	0x3d244c70	0.04011196
89	0x3d95bd14	0.073114544
90	0x3d4c4c77	0.04987761
91	0x3c9fbd1d	0.019499356
92	0x3d858b08	0.06520659
93	0x3c39df8c	0.011344802
94	0xbcc6c7dc	-0.024265222
95	0x3c2378a2	0.009977492
96	0x3c8182f2	0.01580951
97	0xbbe78c7b	-0.007066307
98	0x3ca1ccef	0.01975104
99	0x3da5315b	0.080660544
100	0x3c5d6da1	0.013514907
101	0xbdb63dfd	-0.08898542
102	0xbc681593	-0.0141653
103	0x3d3e8951	0.046517674
104	0xbd96ef49	-0.07369859
105	0xbb3c6423	-0.002874621
106	0x3d3fd059	0.046829555
107	0x3d539b36	0.051661693
108	0xbcb7f014	-0.022453345
109	0x3d7abb54	0.061213806
110	0xbcc29d2d	-0.023756588
111	0xbc17d31c	-0.009266641
112	0xbae7dba9	-0.0017689365
113	0x3d888fa5	0.06668023
114	0xbb9c54c9	-0.0047708494
115	0x3d870107	0.06591993
116	0x3b92d03a	0.004480389
117	0xbcf4910c	-0.02985432
118	0xba709789	-0.0009177854
119	0xbd23cc0d	-0.03998952
120	0x3d2cbb66	0.042170905
121	0x3d333b8d	0.043757964
122	0x3d7620f0	0.060090005
123	0x3d3b90d3	0.045792412
124	0x3cc2c151	0.023773821
125	0x3d0b2ec6	0.033980154
126	0xbc7846b3	-0.015153575
127	0x3bfd59f1	0.007731669
128	0xbbbe91d9	-0.0058157262
129	0x3db0909c	0.08621332
130	0xbd138524	-0.036015645
131	0x3cd5a33a	0.026078809
132	0xbdbc7d0c	-0.09203538
133	0x3d7b956c	0.061421797
134	0x3bbceda8	0.0057656355
135	0xbc71f59b	-0.01476803
136	0xbd321a96	-0.043482386
137	0x3d89778c	0.06712255
138	0xbdcdf6b7	-0.10056823
139	0xbaea4a26	-0.0017874881
140	0xbd079552	-0.033101387
141	0xbd18a27e	-0.03726434
142	0xbca4e20b	-0.020127317
143	0x3c17f865	0.00927553
144	0xbd0dddf1	-0.034635488
145	0x3da36537	0.079782896
146	0xbdf6e332	-0.12055053
147	0xbd534826	-0.051582478
148	0xbd122932	-0.03568382
149	0x3d4aaf63	0.049483668
150	0x3c826a3a	0.015919793
151	0xbda08c0b	-0.07839211
152	0x3ce50eb4	0.027961113
153	0x3d0330e7	0.03202906
154	0xbdc7c500	-0.09754372
155	0x3c032e3c	0.008006629
156	0xbc1e650c	-0.009667646
157	0xbc04cc04	-0.008105282
158	0xbd48ac4b	-0.048992436
159	0x3d622733	0.055213165
160	0x3d905f8d	0.07049475
161	0xbbd7f991	-0.00659103
162	0xbc8b2f43	-0.01699031
163	0x3bdf7752	0.006819644
164	0xbdba4c5e	-0.09096597
165	0xbc87632b	-0.01652678
166	0xbdc31357	-0.09525173
167	0x3d24bd0d	0.040219355
168	0xbc0459c7	-0.008078045
169	0x3bdfb7be	0.0068273237
170	0xbd967a3b	-0.07347532
171	0x3c8e284f	0.017353205
172	0xbcf6182f	-0.030040829
173	0x3db9f5b9	0.09080071
174	0xbcd99d3c	-0.026564233
175	0xbd0d7515	-0.034535486
176	0x3c068c3f	0.008212148
177	0xbcf2ab0f	-0.029622583
178	0x3d7713c8	0.0603216
179	0x3b726df1	0.00369918
180	0x3d0aed55	0.033917744
181	0x3c0698db	0.0082151545
182	0xbc55c31f	-0.013047009
183	0xbd16f34d	-0.036853123
184	0xbc93ffab	-0.018066248
185	0x3db74d8b	0.08950337
186	0x3ba11c46	0.0049167005
187	0x3bb7771d	0.005598916
188	0xbd7459cb	-0.059655946
189	0x3d509209	0.05092052
190	0xbdc419e0	-0.09575248
191	0xbc4be234	-0.012444068
192	0xbd7f9460	-0.06239736
193	0x3d2e76cc	0.042593762
194	0x3d50befc	0.050963387
195	0x3d3dd888	0.04634908
196	0xbcc89e02	-0.024489406
197	0xbc13c92f	-0.009020134
198	0x3cc9bdf4	0.02462671
199	0x3d6e52cd	0.058184434
200	0x3d66c2a5	0.05633797
201	0xbd32c7ad	-0.043647457
202	0x3c0903fa	0.0083627645
203	0x3ccfc3d2	0.02536193
204	0x3d9457ad	0.07243285
205	0xbda37427	-0.07981139
206	0xbd0752ee	-0.033038072
207	0x3d243f43	0.040099394
208	0x3ca39e2f	0.019972889
209	0xbddb17a8	-0.106978714
210	0xbbea9f10	-0.007160075
211	0xbd4f5c48	-0.050625116
212	0xbb499372	-0.003075805
213	0x3d002b5c	0.03129135
214	0xbcfc7cc4	-0.030821212
215	0x3b8aada9	0.0042321277
216	0x3d3b3b68	0.04571095
217	0xbcbc64f2	-0.022997353
218	0x3d2e491b	0.042550188
219	0xbd6bac20	-0.057537198
220	0x3cdc35ea	0.026881177
221	0xbd78117a	-0.060563542
222	0xbcbcef63	-0.023063367
223	0x3c063ef3	0.008193719
224	0x3bedea15	0.007260571
225	0x3d04e2b4	0.032442763
226	0x3c247491	0.010037557
227	0xbbcd4903	-0.006264807
228	0x3d0a333d	0.03374027
229	0x3c46a491	0.012124197
230	0x3d6f5428	0.058429867
231	0x3d06aace	0.032877736
232	0xbc163ba3	-0.009169492
233	0xbbf0f1ef	-0.0073530595
234	0xbb5adeb6	-0.0033396906
235	0xbd134863	-0.035957705
236	0x3cc29b62	0.023755733
237	0xbcfe2a81	-0.031026127
238	0xbd7cf476	-0.061756574
239	0x3dbe75bb	0.09299799
240	0x3bf1913c	0.0073720496
241	0xbbc0abb9	-0.005879846
242	0xbafdd778	-0.0019366583
243	0x3b78f6f6	0.0037988997
244	0x3da5e531	0.081003554
245	0xbd216aac	-0.03940837
246	0x3d71facf	0.05907708
247	0xbd42413e	-0.0474255
248	0x3d175737	0.03694841
249	0x3d88f7e2	0.06687905
250	0x3c4214d0	0.011845782
251	0xbd8bcdb8	-0.06826347
252	0xbdc89bf9	-0.097953744
253	0xbcce4e6a	-0.025183875
254	0x3b7d66e0	0.0038666055
255	0xbc521941	-0.012823404

fc2.bias f4 [384]
0	0xbc191f51	-0.009345845
1	0xbc9a6287	-0.01884581
2	0x3c00e37d	0.007866737
3	0xbd4b6bd0	-0.049663365
4	0x3a8fc470	0.0010968577
5	0xbc31b03e	-0.010845242
6	0x3d2317ca	0.03981761
7	0xbd3b8e2b	-0.04578988
8	0x3c40300c	0.011730205
9	0x3c9ecc0f	0.019384412
10	0x3cf98ce8	0.030462697
11	0x3c130481	0.008973242
12	0x3b1bff21	0.0023803192
13	0xbd75b58a	-0.059987582
14	0xbd361baa	-0.044459976
15	0x3c9fc7e5	0.019504497
16	0x3d06b7a5	0.03288998
17	0x3ba81cae	0.005130372
18	0x3bd19585	0.006395998
19	0xbd19dc8f	-0.037563857
20	0x3c78247d	0.015145418
21	0xbcd3644d	-0.025804663
22	0x3c2879db	0.010282959
23	0x3cbe0033	0.023193454
24	0xbc607c0c	-0.01370145
25	0x3ae45d63	0.0017422851
26	0xbd864595	-0.065562405
27	0x3c2da8ae	0.010599298
28	0x3cb34aab	0.02188619
29	0xbc50e06b	-0.012748818
30	0xbc1c8d90	-0.0095552355
31	0x3cc1522d	0.023598755
32	0x3d042131	0.032258216
33	0xbc2ba262	-0.010475727
34	0xbbf6ab10	-0.0075277165
35	0xbca60cc5	-0.02026976
36	0x3b82fc13	0.0039973347
37	0xbc42a716	-0.011880657
38	0x3c5454d1	0.012959675
39	0xbcb04598	-0.02151756
40	0x3d66daa0	0.05636084
41	0x3c16b197	0.009197614
42	0xbd445342	-0.047930963
43	0xbd2754a8	-0.04085222
44	0xbd671f2f	-0.056426223
45	0xbd03760f	-0.03209501
46	0xbd05f491	-0.03270394
47	0x3d576de6	0.05259504
48	0x3cf26fad	0.029594267
49	0x3d752f2d	0.059859443
50	0xbba3e254	-0.0050013456
51	0xbbaa12da	-0.0051902356
52	0xbd0096aa	-0.031393684
53	0x3cb6fbda	0.022336889
54	0xbd4cce38	-0.050001353
55	0x3d0514d7	0.032490578
56	0x3cba0872	0.022709105
57	0x3ba489f4	0.005021328
58	0x3c7c0e15	0.015384217
59	0x3d28ebe8	0.041240603
60	0x3d662fcb	0.056197923
61	0xbbc345b3	-0.0059592365
62	0xbc4e2a28	-0.012583293
63	0xbc85753f	-0.016291259
64	0xbd3b67ca	-0.045753278
65	0xba8b8a00	-0.0010645986
66	0x3c63c6e5	0.013902401
67	0xbd3a0f0e	-0.045424514
68	0x3d436a22	0.047708638
69	0x3c5bae38	0.013408236
70	0xbbea7aa3	-0.0071557327
71	0xbcb12ddf	-0.021628318
72	0x3c9d9336	0.019235235
73	0x3d31e14a	0.043427743
74	0xbc9ac2bc	-0.018891685
75	0xbd33eee6	-0.043929003
76	0xbd0d3854	-0.034477547
77	0xbd1dbcbd	-0.038510073
78	0xbd2f8f36	-0.042861186
79	0xbad854f8	-0.0016504815
80	0x3c508687	0.012727386
81	0x3be1921d	0.006883873
82	0xbcee0b4b	-0.02905812
83	0xbd80d779	-0.06291098
84	0x3d211341	0.039325003
85	0xbd0e6913	-0.034768175
86	0x3c689fe5	0.014198278
87	0x3d6522f2	0.05594153
88	0x3c714e2d	0.014728111
89	0xbbd872a7	-0.0066054645
90	0xbcc0d32f	-0.0235382
91	0x3bfb7cce	0.00767479
92	0xb9927b47	-0.0002793914
93	0x3c21245a	0.009835327
94	0x3d06faa0	0.03295386
95	0x3cd38c0d	0.025823617
96	0x3d0020f2	0.03128142
97	0x3d5043af	0.050845798
98	0xbcaea20b	-0.021317502
99	0x3d168359	0.036746357
100	0xbbb562f1	-0.0055354764
101	0x3cdc9798	0.026927754
102	0x3b61825e	0.003440998
103	0x3d578ee4	0.052626505
104	0xbce4319a	-0.027855683
105	0x3d96767a	0.07346816
106	0x3dad53c4	0.08463243
107	0xbc3d528b	-0.011555324
108	0xbcbb4063	-0.02285785
109	0x3d7844a7	0.060612347
110	0xbc308ccd	-0.010775757
111	0xbc4b78d0	-0.012418941
112	0x3c5337b9	0.012891703
113	0x3ccc34b1	0.024927469
114	0xbd462781	-0.048377518
115	0xbd5700ad	-0.05249088
116	0xbd6cd556	-0.05782064
117	0x3c649021	0.013950379
118	0x3cc87cf2	0.024473641
119	0x3c57551b	0.013142849
120	0xbd30befc	-0.043150887
121	0xbd51cb1e	-0.0512191
122	0x3cc949fa	0.024571408
123	0x3d5de803	0.05417634
124	0x3d506638	0.050878733
125	0xbc87445c	-0.016512088
126	0xbd17e625	-0.037084717
127	0xbc07639f	-0.008263498
128	0x3d189e53	0.037260365
129	0x3c1fdae4	0.009756777
130	0x3d2a6d12	0.041607924
131	0x3d733626	0.05937781
132	0xbc82a399	-0.01594715
133	0xbcecd33d	-0.02890932
134	0x3ccc4134	0.024933435
135	0xbd141522	-0.036152966
136	0x3d7e38c6	0.062065862
137	0xbd5c4458	-0.053776115
138	0xbc6436e0	-0.013929099
139	0xbc3d3b48	-0.011549778
140	0x3cbb379c	0.022853665
141	0xbc41bf5b	-0.011825408
142	0xbc7b6af7	-0.015345327
143	0xbdb08795	-0.0861961
144	0xbd8651fc	-0.06558606
145	0x3d11a990	0.035562098
146	0xbc2c40b0	-0.01051347
147	0x3cc2ebba	0.023794044
148	0x3bae5f45	0.0053214156
149	0x3bae650a	0.0053221034
150	0x3bf1f78f	0.0073842476
151	0x3d0c8250	0.034303963
152	0xbd47e444	-0.048801675
153	0xbcd2f98b	-0.025753757
154	0x3d13d450	0.03609115
155	0x3cd58e71	0.026068898
156	0xbd24f501	-0.040272716
157	0x3ccbc990	0.024876386
158	0x3c2cac0c	0.010539066
159	0xbc372e6f	-0.011180504
160	0xbdf27c47	-0.1184011
161	0xbbaed689	-0.005335633
162	0x3ca633b6	0.02028833
163	0xbcc306e7	-0.023807002
164	0x3cced967	0.02525015
165	0x3cfea54d	0.03108468
166	0x3d3b0e7d	0.045668114
167	0x3db135c4	0.08652833
168	0xbd59c32a	-0.05316464
169	0x3d0a1429	0.033710632
170	0x3aca714e	0.0015445144
171	0x3b0de37b	0.0021650482
172	0x3d9b87ea	0.07594283
173	0xbd3f6524	-0.046727315
174	0x3d7918ef	0.060814794
175	0x3c2757fa	0.010213846
176	0xbbd10f48	-0.0063799955
177	0xbd419b87	-0.047267463
178	0x3d4a2142	0.049348123
179	0x3d02559d	0.03181993
180	0x3a84f3d4	0.0010143467
181	0x3c71053e	0.0147107225
182	0xbd74257d	-0.059606064
183	0x3c004011	0.007827775
184	0x39fd3eb1	0.0004830263
185	0x3cc6d6df	0.02427238
186	0xbcae556c	-0.021280967
187	0xbc51695e	-0.012781469
188	0x3d24fc44	0.04027964
189	0xbc2511b9	-0.010075026
190	0xbc9751f7	-0.018471701
191	0x3c3d26f6	0.011544934
192	0xbd777010	-0.060409606
193	0x3d8a8d59	0.06765241
194	0x3da34a5a	0.07973166
195	0xbd514d76	-0.051099263
196	0x3c9ddc0c	0.019269966
197	0x3d0dbbfe	0.03460311
198	0xbd372e64	-0.044721976
199	0xbbbd9085	-0.0057850503
200	0xbc6201ce	-0.013794376
201	0xbcb34324	-0.021882601
202	0xbcffe8af	-0.031238882
203	0x3d84c099	0.064820476
204	0xbd1ea541	-0.038731817
205	0x3d0952d4	0.033526257
206	0x3d89ab78	0.06722158
207	0x3d922a6b	0.07136997
208	0x3ca40511	0.020021947
209	0x3ba74d3c	0.0051056426
210	0x3bd137f3	0.0063848435
211	0x3da292be	0.07938145
212	0x3c50f04e	0.012752606
213	0x3da3cbc4	0.079978496
214	0xbc72c30a	-0.014817009
215	0xbcf95c04	-0.030439384
216	0xbd0a7ab9	-0.033808444
217	0x3cfe6e83	0.031058555
218	0xbcfd645e	-0.030931648
219	0xbc072277	-0.008247963
220	0x3be22e3f	0.0069024856
221	0x3c53c2b5	0.01292484
222	0x3d8221ae	0.0635408
223	0x3d039c39	0.032131407
224	0x3d2f9256	0.042864166
225	0xbb31a3a7	-0.00271056
226	0x3c96072b	0.018313965
227	0xbd211f45	-0.03933646
228	0x3c48575e	0.012227861
229	0xbd03c809	-0.03217319
230	0x3d03f685	0.03221752
231	0xbc8622ce	-0.016374018
232	0xbdbc59f2	-0.09196843
233	0x3c132ad9	0.008982384
234	0xba1a3fe2	-0.0005884153
235	0x3d37d4ce	0.04488068
236	0xbc2c79a2	-0.010527046
237	0x3ca92830	0.020649046
238	0x3d173e58	0.03692469
239	0xbabbc5bd	-0.0014325898
240	0xbc5e8eff	-0.013583898
241	0x3c29259b	0.010323907
242	0xbd27fb26	-0.041011
243	0x3d7a7c0c	0.061153457
244	0x3c8d5de8	0.017256692
245	0xbd172070	-0.03689617
246	0xbce04d16	-0.027380507
247	0xbb884ab9	-0.0041592983
248	0x3d1268b4	0.035744384
249	0x3d5c66f6	0.05380913
250	0xbca65384	-0.020303495
251	0x3c3c615e	0.0114978235
252	0x3d3cbef6	0.046080552
253	0xbc337c0c	-0.010954868
254	0x3d694bfd	0.056957234
255	0x3d09931d	0.033587564

fc3.weight f4 [2, 384]
0	0xbd85bdbe	-0.06530331
1	0xbe22d371	-0.15900971
2	0xbe265c11	-0.16246058
3	0x3d825b52	0.06365074
4	0xbe02c40d	-0.127701
5	0xbd1b5be3	-0.037929427
6	0xbe3bcec9	-0.18340601
7	0xbddb2253	-0.10699906
8	0x3c90d265	0.017678449
9	0x3d4c2abe	0.04984545
10	0xbd697644	-0.056997553
11	0xbd8c8002	-0.06860353
12	0x3d1689bc	0.036752447
13	0xbe033c32	-0.12815931
14	0x3cb421e3	0.021988815
15	0xbc906535	-0.017626384
16	0xbd860b4c	-0.065451235
17	0x3d11edb5	0.035627086
18	0x3b864946	0.0040980903
19	0x3db21894	0.08696094
20	0xbd97395f	-0.073839895
21	0x3b99f472	0.0046983296
22	0xbe3b055e	-0.18263766
23	0xbc1dffbb	-0.00964349
24	0x3c216240	0.009850085
25	0x3d17bece	0.0370472
26	0xbe0159ee	-0.12631962
27	0x3d6255a6	0.055257462
28	0x3cd65c73	0.02616713
29	0xbde37e79	-0.11108107
30	0x3ca7c590	0.020479947
31	0xbac552e4	-0.001505461
32	0x3cdac6f5	0.026706198
33	0xbdcec976	-0.100970194
34	0x3b89b34a	0.004202281
35	0xbe31461b	-0.173119
36	0xbd2dd9ba	-0.04244397
37	0xbe02ca32	-0.12772444
38	0xbd4c5bcb	-0.049892228
39	0xbd7f8e72	-0.062391706
40	0xbd81c563	-0.06336477
41	0xbb1932ae	-0.0023376155
42	0xbdb26bdf	-0.08711981
43	0xbe315753	-0.17318468
44	0x3c01f0dc	0.0079309605
45	0x3b615db6	0.0034388131
46	0xbe227be9	-0.1586758
47	0xbd6044ab	-0.054752987
48	0xbe00f30f	-0.1259272
49	0xbd7df597	-0.06200179
50	0xbd4f6a3b	-0.05063842
51	0xbbb9df24	-0.0056723524
52	0xbe2ad41d	-0.16682477
53	0x3cc6b676	0.024256926
54	0xbd284e0f	-0.041090067
55	0xbdb98fdb	-0.090606414
56	0x3c4c1599	0.012456321
57	0xbe3ae154	-0.18250018
58	0xbccb3167	-0.02480383
59	0xbd5d3381	-0.054004196
60	0xbd88f479	-0.066872545
61	0x3c54bb26	0.012984073
62	0xbcbb6f7b	-0.022880306
63	0x3b026ba1	0.0019900578
64	0x3db20e31	0.08694113
65	0x3cd5bca3	0.026090926
66	0xbdd699fd	-0.1047859
67	0xbe7d77df	-0.24752758
68	0xbcefc9d7	-0.02927105
69	0xbd9fab65	-0.07796363
70	0x3c6dc6a5	0.014512693
71	0xbe6da52a	-0.23207536
72	0xbd76f9f0	-0.060296953
73	0x3b10fe6b	0.0022124301
74	0xbc3c7f28	-0.011504926
75	0xba821d96	-0.000992703
76	0x3dc79006	0.09744267
77	0x3d40b8a6	0.047051094
78	0xbe49833b	-0.19678967
79	0x3bca2ba2	0.006169752
80	0xbe009136	-0.12555394
81	0xbe29aed8	-0.16570604
82	0x3c4f6584	0.012658481
83	0xbe3e4d61	-0.18584205
84	0x3d16f5ed	0.036855627
85	0x3c5b9bfb	0.013403888
86	0xbe11a546	-0.14223203
87	0xbd9681b1	-0.073489554
88	0x3ce1f223	0.02758128
89	0xbd73d41c	-0.059528455
90	0x3c619173	0.013767588
91	0xbe3bdd79	-0.18346204
92	0xbd823f06	-0.06359677
93	0x3a68e11b	0.0008883641
94	0xbdea76bd	-0.11448429
95	0x3d0159c9	0.031579766
96	0xbd9190fe	-0.07107733
97	0xbd67f7ea	-0.056632914
98	0x3c9c3327	0.01906736
99	0x39e1285f	0.00042945423
100	0xbe1aba61	-0.1511016
101	0xbde83a30	-0.113392234
102	0xbd95473f	-0.0728898
103	0xbb036de4	-0.0020054514
104	0xbd01e24d	-0.031709958
105	0xbd94c965	-0.072649755
106	0xbd9c3aa3	-0.076283716
107	0xbd7faa1c	-0.06241809
108	0xbdaf2059	-0.08551092
109	0x3d32ff2b	0.04370038
110	0x3d472dc6	0.048627637
111	0xbdc6b6e0	-0.097028494
112	0xbdf56949	-0.11982972
113	0x3d00a66a	0.031408705
114	0xbbc4bdfa	-0.0060040923
115	0xbc87a1e3	-0.016556686
116	0x3c318b01	0.010836364
117	0xbcf45135	-0.029823879
118	0xbd9c0da1	-0.07619787
119	0x3e143305	0.14472587
120	0x3c427d50	0.011870697
121	0xbe4100d3	-0.1884797
122	0xbd89207f	-0.06695651
123	0xbd8f4b1f	-0.0699675
124	0xbc542827	-0.012949026
125	0xbc1a7022	-0.009426149
126	0xbd93f2ac	-0.0722402
127	0xbdc69b83	-0.0969763
128	0xbdec1de5	-0.115291394
129	0x3e00c8b9	0.1257657
130	0xbcfe948b	-0.03107669
131	0xbd6fd46e	-0.058552198
132	0xbddc26c3	-0.10749581
133	0xbe966882	-0.29376608
134	0x3d81b0f1	0.06332577
135	0xbe2fc17a	-0.17163649
136	0xbcca9df6	-0.024733525
137	0x3d15103b	0.03639243
138	0x3d5c1665	0.053732295
139	0xbe09cc5e	-0.13456866
140	0xb9e8b23a	-0.00044383277
141	0xbc6222e6	-0.013802266
142	0xbdaae62c	-0.08344683
143	0x3d2ee2eb	0.042696875
144	0xbca3e952	-0.020008717
145	0xbe45872d	-0.19289847
146	0x3d02fcb7	0.03197929
147	0xbd251737	-0.040305343
148	0xbdf58847	-0.119888835
149	0x3cf1d929	0.029522495
150	0xbd3814fe	-0.044941895
151	0xbe5ce18a	-0.21570411
152	0xbe0d7c05	-0.13816841
153	0xbd529fdd	-0.05142199
154	0xbd241c93	-0.040066313
155	0xbd7b0e74	-0.06129308
156	0xbe7e3662	-0.24825433
157	0x3d5d43f4	0.054019883
158	0x3cff7e75	0.03118823
159	0xbdb5ff3b	-0.08886572
160	0xbc039cf0	-0.008033022
161	0x3d7ad6c0	0.061239958
162	0xbde1780d	-0.11009226
163	0xbdba4288	-0.09094721
164	0x3dc227ad	0.09480224
165	0xbd101dbd	-0.03518461
166	0xbd091c18	-0.033474058
167	0xbdb1a2bc	-0.08673617
168	0xbd0f9af2	-0.035059877
169	0xbe0f3e07	-0.13988505
170	0xbd338f2e	-0.04383772
171	0xbe29d59c	-0.16585392
172	0xbc12595f	-0.008932441
173	0xbde7307b	-0.11288544
174	0x3d62beaa	0.055357613
175	0x3cb29c55	0.02180306
176	0xbda44551	-0.080210336
177	0xbda0b4dc	-0.07846996
178	0x3c7cbc4d	0.015425754
179	0x3a3af040	0.0007131137
180	0xbdbd614e	-0.09247075
181	0xbda30f96	-0.07961957
182	0xbe23fcf0	-0.16014457
183	0xbcde1bad	-0.027112806
184	0xbc15678b	-0.009118925
185	0xbd922f90	-0.07137978
186	0x3d3d258a	0.04617838
187	0xbd8e9d8b	-0.06963643
188	0xbe47f15c	-0.19525665
189	0xbe1c9698	-0.15291822
190	0x3d4fc2f8	0.050723046
191	0xbd3f4fb9	-0.04670689
192	0xbdb0c4b0	-0.08631265
193	0xbd33efef	-0.04392999
194	0xbd4e2eed	-0.05033772
195	0x3d0a57ee	0.033775263
196	0xbbad8148	-0.0052949525
197	0xbd18c80d	-0.03730016
198	0x3db3a5ec	0.087718815
199	0xbddd7cf8	-0.108148515
200	0xba6b8b00	-0.0008985251
201	0xbc2dd71f	-0.010610371
202	0x39c09251	0.00036730108
203	0xbe12fdda	-0.14354649
204	0xbe246bc4	-0.16056734
205	0xbdaae212	-0.08343901
206	0xba067b2d	-0.0005130049
207	0xbc92c9b9	-0.017918454
208	0x3dda3a3a	0.10655637
209	0xbdca528c	-0.09879026
210	0x3ca02364	0.019548126
211	0xbd9dc4e3	-0.07703569
212	0x3c668f77	0.014072291
213	0xbc9ff714	-0.019526996
214	0xbe004368	-0.12525713
215	0xbd868b6e	-0.06569563
216	0x3c1f7288	0.009731896
217	0xbd836cc8	-0.06417233
218	0x3b0f1379	0.0021831675
219	0x3d49c24c	0.04925756
220	0xbdd5d2e5	-0.104406156
221	0x3cfc7a22	0.030819956
222	0xbcc7d814	-0.024395026
223	0xbd8823df	-0.06647467
224	0x3d1a61b8	0.037690848
225	0x3e10e639	0.14150323
226	0xbe0b5d58	-0.13609827
227	0xbe0094c8	-0.12556756
228	0x3d179076	0.037003003
229	0xba94c139	-0.0011349089
230	0xbe5806fa	-0.21096411
231	0x3c0c59a7	0.008566297
232	0x3dd7eb6b	0.10542949
233	0xbd54a6b0	-0.051916778
234	0xbd777e71	-0.06042332
235	0x3b12a2a3	0.002237477
236	0x3c0d05f7	0.008607379
237	0xbe1a0eb1	-0.15044667
238	0xbd6348c6	-0.055489324
239	0xbd074494	-0.033024386
240	0x3c7c1f85	0.015388374
241	0xbe604f80	-0.21905327
242	0x3d7a5931	0.061120216
243	0xbdaf906d	-0.08572469
244	0xbe96472e	-0.2935118
245	0x3d08d043	0.03340174
246	0xbd8f0d75	-0.069849886
247	0xbe7ea2de	-0.24866816
248	0xbe57974c	-0.21053809
249	0x3d9fec39	0.07808728
250	0x3d3bf414	0.045887068
251	0xbd4bed70	-0.049786985
252	0xbe9f9877	-0.3117101
253	0x3d5ae11a	0.05343733
254	0xb97aaa39	-0.00023905271
255	0xbb9c0f25	-0.0047625476

fc3.bias f4 [2]
0	0xbd697913	-0.05700023
1	0x3da3946c	0.079872936
