p2_continuous-control/checkpoint_critic.pth (torch_old, 52791 bytes, 5 tensors)

fcs1.weight f4 [128, 33]
000000 d0 9d a6 bd 3f f8 5b 3d 0e 54 93 3d 82 62 41 bd
       -0.08135569 0.053703543 0.071937665 -0.047213085
000010 d5 1b 22 3d 0b ca f3 3c 51 ca c8 3c f7 a3 ca bc
       0.039577324 0.029759428 0.024510534 -0.024736388
000020 ff 41 b3 3d 4b 98 a9 3d 92 4f a9 3c 8b dd ee 3c
       0.08752822 0.08281001 0.020667825 0.029158374
000030 64 bf 07 bc 4a ea 2d 3e c9 f7 90 bd f3 91 ff bd
       -0.008285377 0.16983905 -0.07078511 -0.124790095
000040 9a 98 69 bd 39 1b 9f 3c 04 0b 38 bd 7d 02 7d 3c
       -0.057030298 0.01942216 -0.04493238 0.015442488
000050 2a 2b e2 3b b1 63 0b 3d fd c4 00 bd 59 9c c1 3d
       0.006902118 0.03403062 -0.031437863 0.09453649
000060 8e 84 c9 bc fd ea ac bc a7 a5 4b bd ff fd 85 3d
       -0.02459934 -0.021108145 -0.049718525 0.065425865
000070 82 37 c5 3d 21 a0 a7 3d 97 a9 dc bd 01 89 aa 3d
       0.09629728 0.08184839 -0.10774534 0.08326913
000080 59 43 01 bf f7 a6 c5 3d 92 ff 91 bd c3 d3 43 3c
       -0.5049339 0.09650987 -0.07128824 0.011952343
000090 39 01 a5 bd 9f d4 8a 3d b2 0a 8a bd c4 30 fd bb
       -0.08056874 0.067788355 -0.06740321 -0.0077267606
0000a0 c2 ed f3 3a b5 50 43 3c a2 3a 11 bd 3c 74 1b 3d
       0.0018610286 0.0119210975 -0.035456307 0.037952647
0000b0 72 8a 5e bc a8 d6 7c 3c d4 05 03 be 67 e1 c2 3d
       -0.013582813 0.015432037 -0.12795192 0.09515648
0000c0 64 14 0b be cd 47 27 3d 1e 6a b2 3b 44 76 89 3c
       -0.13581997 0.04083996 0.005444779 0.016780026
0000d0 2d 78 08 bd 4d 79 f2 bc b0 15 07 bd 9f 31 07 3d
       -0.033317734 -0.029598856 -0.032979667 0.033006307
0000e0 b9 25 ca bd 2d 06 2e 3d 52 c0 cb 3b 85 82 0a 3d
       -0.09870476 0.04248636 0.0062179947 0.03381588
0000f0 bc 70 53 3d 27 75 c8 3d c6 0f 52 3d 2e 25 fa bc
       0.051621184 0.0978797 0.051284574 -0.030535307
000100 8e fe 01 3d e8 f8 9b 3e 6f 05 99 3c 8c ff 32 bd
       0.031736903 0.30463338 0.018679349 -0.04370074
000110 cb ff 36 3d 86 a0 16 3e 31 a8 14 bd 3f 85 e4 bc
       0.044677537 0.14709672 -0.036293212 -0.027895568
000120 65 e1 e1 3b d1 f3 a9 bd 66 46 38 be fa f0 28 bd
       0.006893324 -0.082984574 -0.17995605 -0.04124544
000130 d5 c8 a1 bd 09 81 8c 3d 3a ea 4c 3d 00 06 f0 bd
       -0.07899634 0.06860549 0.050028063 -0.117198944
000140 96 7c 0e 3d 6c 6c ee 3c 41 e2 ad bd 4d 6c ce bb
       0.034786783 0.029104434 -0.0849042 -0.0062995316
000150 1a 99 0c 3a 6b ac c8 3c e5 47 31 bd 56 27 8d bd
       0.000536339 0.024496278 -0.043281455 -0.06892268
000160 e9 75 d1 3c 90 11 d3 bc 48 c9 15 bd 45 f5 f4 bb
       0.02556892 -0.02576521 -0.03656891 -0.0074755275
000170 ff 91 a6 bd ff 9a eb bc 24 67 96 3d 8b 1c 9a bd
       -0.08133315 -0.028760431 0.07343891 -0.075249754
000180 11 26 6a 3d c3 39 a2 3d 85 c8 4d 3d 2f 99 2b 3e
       0.05716521 0.079211734 0.05024006 0.16757654
000190 6a 9b 3e 3c 25 39 cd bc a8 a0 fb bc 87 aa 2b 3d
       0.011633733 -0.025051663 -0.030716255 0.041910674
0001a0 65 dc e0 3d 76 c4 52 3d 80 7a 21 3d 32 19 98 bd
       0.10979537 0.05145689 0.039423466 -0.074266806
0001b0 d2 66 10 be 78 5e c9 3c 8f 40 27 3c b3 05 2a bd
       -0.14101723 0.024581179 0.010208263 -0.04150934
0001c0 84 49 81 bd 50 0d 7d bc 58 17 b0 bb 8a 30 39 3a
       -0.0631285 -0.0154450685 -0.0053738765 0.0007064423
0001d0 30 6c a6 3c a5 cc 74 3d dd 2d 55 3d e1 f1 a0 bd
       0.02031526 0.059765477 0.05204569 -0.07858635
0001e0 6a d8 9d bd 5e 41 91 bd e4 86 d8 bd 86 64 58 bd
       -0.07707293 -0.07092546 -0.10572603 -0.05283024
0001f0 66 0e 9a 3d 30 cb 3e bd 47 c3 0c 3d 3a 30 be b9
       0.075222775 -0.046580493 0.03436592 -0.00036275556
000200 80 2d 48 ba ef f0 7c bd 50 da 34 bd cb ca 6b 3d
       -0.00076361746 -0.06175321 -0.04415351 0.057566445
000210 8b d7 02 3e 06 07 2d bc dc de 21 bd bf af 52 3d
       0.12777536 -0.010560757 -0.039519176 0.051437136
000220 a1 5b 88 3c 94 bf 2e 3e 72 e2 ec 3c d9 ee ea 3d
       0.016645255 0.17065269 0.028916571 0.11471338
000230 70 e6 1d bd bf 27 be 3d 22 3f e2 3c 31 ff f0 3b
       -0.03854984 0.09284925 0.027617995 0.00735464
000240 eb f3 cb bc e3 f1 62 bd 40 e4 07 3d c5 55 a9 bd
       -0.024896583 -0.055406462 0.03317666 -0.08268312
000250 81 b3 5e bd af 72 eb 3c 37 4a 8f 3b 42 45 24 bd
       -0.054370407 0.028741209 0.004372861 -0.040105112
000260 5e 6c 9c bb eb 82 19 bd 76 0b 04 bc e0 67 c8 bc
       -0.0047736606 -0.03747837 -0.008059373 -0.024463594
000270 7b bf b9 3c b5 d8 c2 bd 03 19 8f bd 4c f7 db bd
       0.022674313 -0.0951399 -0.069871925 -0.107405275
000280 26 be 19 be e1 2f a8 bd 95 14 dc 3c 90 8a 83 bd
       -0.15013942 -0.08212257 0.026865283 -0.06422913
000290 21 db b6 3d 24 4e e6 3d 1a 05 6b 3d c0 f8 41 bd
       0.08928514 0.11245373 0.057377912 -0.047356367
0002a0 77 ae fe bc ee e4 6d 3d 3b fc 1c 3c 02 6a a5 bd
       -0.03108905 0.058079652 0.009581621 -0.0807686
0002b0 a9 41 92 bc 5b 03 0a be 69 79 16 bd 1d e1 63 bb
       -0.017853575 -0.13477843 -0.03673688 -0.003477163
0002c0 45 bb 90 3c 11 94 b8 3c 3b 9d 28 be c5 08 20 bd
       0.017667422 0.022531541 -0.16466229 -0.039070863
0002d0 97 3b 02 3e 1b 3f 00 3d 58 9f be bc 62 94 c7 bd
       0.12718044 0.031310182 -0.02326934 -0.09745099
0002e0 c1 0c cc 3b b7 69 f4 3c c4 31 93 bc aa fb ba 3c
       0.0062271063 0.029835565 -0.017968066 0.02282508
0002f0 12 74 bc bd c7 7a 51 ba 5c 51 a2 3d 53 a7 9d 3d
       -0.09201826 -0.00079910125 0.07925674 0.0769793
000300 8e 0d a4 3d 0b 8b 33 bb 66 46 92 bd 81 f6 b6 bd
       0.08010398 -0.0027396108 -0.07142334 -0.08933736
000310 a2 97 3e 3d f8 99 b2 3e 1c d0 a4 bd b3 f3 a4 3d
       0.046531327 0.34883094 -0.08047506 0.080542944
000320 03 63 72 3d 27 94 ab 3d 1f cd 88 3d 40 b0 a2 bc
       0.059176456 0.08377867 0.06679749 -0.019859433
000330 1a 13 7c bd fd 30 61 3d 0e d1 0e bc 3b c6 16 3b
       -0.061541654 0.05497836 -0.008716835 0.0023006338
000340 af 9b 31 3d 1e 10 a3 3d 31 75 a3 3c 2b 03 a5 3d
       0.043361362 0.079620585 0.019953342 0.08057245
000350 60 ff 8e 3c 2b 01 37 bd f3 a4 05 bd 01 6e c2 bc
       0.017455757 -0.04467885 -0.03262801 -0.023734095
000360 b2 e6 a5 3c ac bb f8 3c 91 aa 13 3c d3 c0 be bc
       0.020251606 0.030362926 0.009012834 -0.023285305
000370 eb 61 ee bc b5 60 a7 3d 63 00 69 bd e6 43 d7 bc
       -0.029099425 0.08172742 -0.056885134 -0.026277494
000380 c0 2b 26 3e 7f 36 21 bd c7 d5 88 bc 87 f6 b1 3d
       0.16227627 -0.039358612 -0.0167035 0.086895995
000390 47 4f 1c 3b 58 ad 9a bd 1d 8b 95 be cf e4 c4 3b
       0.0023850964 -0.07552594 -0.29207698 0.0060087214
0003a0 d2 a3 d7 3d 90 7c f7 3d 99 bc 60 bd df ca 72 bd
       0.10529293 0.12084305 -0.05486736 -0.059275504
0003b0 f5 6f b9 3d 81 db 52 3d cc 21 e7 bc 1a 7d 41 3b
       0.09054557 0.051478866 -0.028214358 0.002952403
0003c0 db 79 43 bd 90 b9 a4 bc 64 de 15 3d 85 f8 3e 3d
       -0.047723632 -0.020108014 0.03658904 0.046623725
0003d0 34 2b 04 bb 72 d5 eb bd 55 91 48 be 63 1a 1e bd
       -0.0020167353 -0.11515321 -0.1958669 -0.038599383
0003e0 fa a1 9e bc db 03 82 bc f8 89 93 bb a6 09 06 3d
       -0.019364346 -0.015870979 -0.004502531 0.032724045
0003f0 15 6c 85 bc 4f 31 5d 3d e5 cd 62 bc 02 fd 2d bd
       -0.01628689 0.054002102 -0.013843034 -0.042477615

fcs1.bias f4 [128]
000000 a3 84 99 bd 8c ec 18 be ef 45 67 3d 5b bb 12 bd
       -0.074960016 -0.14933985 0.05646318 -0.035823207
000010 19 e4 b8 3c 41 8c 08 bd 2a b2 89 bc c9 c3 6d be
       0.022569703 -0.03333688 -0.016808588 -0.23219217
000020 b0 2e b9 3d ad bd e8 3b c0 cd db 3c 75 7d c2 bd
       0.09042108 0.0071026892 0.026831508 -0.09496585
000030 61 62 1a be 40 64 93 bd 29 33 c9 bd ef 60 95 3d
       -0.15076591 -0.071968555 -0.09824211 0.07293879
000040 ed 50 b8 3d 34 53 41 be c9 16 66 bd 25 de d1 3d
       0.0899981 -0.18879396 -0.056174073 0.10247449
000050 b0 7e f6 bd 0e 52 cd 3d aa 71 79 bd c2 56 64 3c
       -0.120358825 0.10025416 -0.060899414 0.0139367
000060 93 0a 0d 3e 37 87 6a 3e 42 e2 c0 bd d4 9e f5 3d
       0.13773565 0.22903143 -0.09418155 0.11993185
000070 24 9c 95 bd 9e 8d 16 3d cf fe 25 be e1 c5 0c 3d
       -0.07305172 0.03675615 -0.16210483 0.0343684
000080 8c a3 db 3c b2 62 57 3c 37 52 3d 3c 8c 38 bc bd
       0.026811384 0.013146089 0.011555246 -0.09190473
000090 e8 09 0b be ea c4 20 3d 3c 0d 8e 3c 09 eb 59 bc
       -0.13577998 0.039250292 0.017340295 -0.013300666
0000a0 3b 7e b0 3d 36 5a 4c 3e 75 19 2d 3b 1a 1b eb bd
       0.086178266 0.19956288 0.0026412879 -0.114797786
0000b0 bf 1a bb 3c 28 14 79 3d f8 2d 8a bd de 99 82 bd
       0.022839902 0.060810238 -0.06747049 -0.06377004
0000c0 2a a6 2b bd 44 1e 4d 3e 0c be 1e bd ec 8f 71 bd
       -0.041906513 0.20031077 -0.03875546 -0.058975145
0000d0 15 7e 18 3e 91 6a 4a be b7 4d 01 3e f5 ba 70 3b
       0.14891846 -0.19767214 0.12627302 0.0036732529
0000e0 45 4a 27 3e 03 87 66 3d f8 5c e9 bd d8 96 ac bd
       0.16336925 0.0562811 -0.113946855 -0.08427209
0000f0 be d7 09 3b ac 38 0a be db 9d 11 be 20 c5 a4 bd
       0.0021033133 -0.13498181 -0.14220373 -0.08045411
000100 f3 e8 5e 3d 87 79 02 3e 8f c2 1a 3d 0c 9d 0c 3c
       0.054421376 0.12741672 0.0377832 0.008582365
000110 cd 40 0a 3e 01 ce 5d bb 65 b0 1c 3d 44 b0 8a bc
       0.13501282 -0.0033844712 0.03825416 -0.016929753
000120 fd d5 0d 3e 41 63 b3 bd e2 11 2d bd ef d3 25 3d
       0.13851161 -0.087591656 -0.042253383 0.04048532
000130 ed 00 a4 3d 4e 62 4e be 4a fe 57 bd 52 fd 87 3c
       0.08007989 -0.20154688 -0.052732743 0.016600285
000140 3d 23 fe bd d6 aa 39 bc 88 e6 11 3e 17 c1 2f be
       -0.12409065 -0.011332234 0.14248097 -0.17163502
000150 77 96 b7 3d 63 42 58 3e d2 5f 23 3e 82 c7 37 3b
       0.08964246 0.21119075 0.15954521 0.00280425
000160 17 85 c5 3d 10 5a 38 3e 47 39 86 3d 32 56 5f bd
       0.096445255 0.18003106 0.065538935 -0.05452556
000170 85 bf 22 be 41 20 df 3d 71 68 f1 bd be 33 81 bd
       -0.15893371 0.10894824 -0.11787499 -0.06308697
000180 7f 7f 33 be ea 49 cc 3d 5a dd de bd e3 e3 40 3e
       -0.17529105 0.099750355 -0.10882063 0.18836932
000190 e5 88 55 be 21 d6 54 3e 73 87 9e bc 41 dd 0e bd
       -0.20853002 0.20784809 -0.019351697 -0.034878973
0001a0 e2 12 00 bd e4 74 ac bd b6 84 ce 3d 3f 3f ac bd
       -0.031268008 -0.084207326 0.10083906 -0.08410501
0001b0 31 a4 3d 3e 93 58 2e 3e 90 d1 97 3c 9c f8 ee bd
       0.18519665 0.17025976 0.018532544 -0.11668512
0001c0 4f 85 39 3e 4a a6 26 be 3a ca 77 bd e4 f8 8e bd
       0.1811726 -0.16274372 -0.060495593 -0.06981066
0001d0 fa 36 c4 3d 6a a4 17 3c d1 c2 10 3d a5 ee 54 3d
       0.095807984 0.009255508 0.03534204 0.0519854
0001e0 9a 1f d6 bc e4 7b 8c 3d 62 a6 8b 3c bc 2e 75 3e
       -0.026138116 0.06859568 0.017047111 0.23943609
0001f0 d5 9b fb 3d 0d 42 10 3b 29 4a 1f bd 7c 47 26 3e
       0.12285582 0.0022012026 -0.038889084 0.16238207

fc2.weight f4 [64, 132]
000000 d3 98 2d 3e 7e f9 27 bd 99 7f bb 3d 80 ad a2 bd
       0.16952829 -0.04100942 0.09155197 -0.07943249
000010 f1 c2 1e bc b1 13 ee bd 3e df 04 3e 9e 9e 82 3d
       -0.009690032 -0.116248496 0.12975785 0.0637791
000020 61 4d 86 bd 91 8b 58 bd d3 04 e7 bd 67 b8 6c bd
       -0.065577276 -0.052867476 -0.11280217 -0.057793047
000030 ca 93 2b 3e 73 39 4c bd 03 3f 98 bd 86 38 e1 bc
       0.16755596 -0.049859475 -0.074338935 -0.027492773
000040 c1 67 9e 3d 3e 30 ac 3c 3e b4 10 be 49 d6 d1 bd
       0.07734633 0.021019097 -0.14131257 -0.1024595
000050 95 2e 64 3d af 4d c6 3c 5e e5 80 3d 7e 28 9f bc
       0.055708487 0.024206964 0.06293748 -0.019428488
000060 90 91 f2 3d 04 87 04 3e cb cd 9a bd fe 8b 47 be
       0.1184417 0.1294213 -0.07558783 -0.19486997
000070 c4 2e 1e 3e e8 4b fb 3d 38 bb dd 3d d8 bf b2 bd
       0.15447527 0.12270337 0.10826725 -0.087279975
000080 f2 9c b8 bb af ac 6e 3d de 81 00 be be 05 40 3d
       -0.0056339437 0.058270153 -0.1254954 0.046880476
000090 57 dc 00 3e 9a ae 8e 3c c8 d3 38 bc 0e 4e ef bd
       0.12584053 0.01741724 -0.011280961 -0.116848096
0000a0 2f 3e 49 bd 49 1f 80 bd 62 07 34 3d 3f 06 8e bd
       -0.04913157 -0.06255967 0.043952353 -0.06934785
0000b0 4c 3e b3 3d 67 bb d2 3d 4d 78 93 bd 45 0e b5 bd
       0.087521166 0.102896504 -0.0720068 -0.08840612
0000c0 d4 1b 1c 3e b8 f2 22 be a0 22 bb bd e4 7e 24 3d
       0.1524499 -0.15912902 -0.091374636 0.040160075
0000d0 04 e8 23 3e f7 27 42 3e a5 d7 d7 bc 93 c5 ce bd
       0.16006476 0.18960558 -0.026347945 -0.10096278
0000e0 d4 c3 08 be 70 1d 81 3d 01 cd ff 3c ed 6c e0 3d
       -0.13355953 0.06304443 0.031225683 0.10958276
0000f0 04 f9 ef bc 47 be 2b 3e 27 a4 44 bd 1c a3 ae 3d
       -0.029293545 0.16771804 -0.04800811 0.085272044
000100 a6 be fa ba 88 4b 02 be 45 0f 65 be e1 16 92 3d
       -0.0019130304 -0.12724125 -0.22369106 0.0713327
000110 97 6c f1 3c 29 73 35 bd af 4e 62 3c 23 64 4c 3d
       0.029470725 -0.04429928 0.013812705 0.049900185
000120 b5 95 67 bd 2f 65 d8 3d fe ed bd bd 4a 5a cd bd
       -0.056539256 0.10566174 -0.09273909 -0.10026987
000130 1f 94 74 be 5f de 21 3e 62 89 3d 3d dc 81 a0 be
       -0.23884629 0.15807484 0.046273597 -0.31349075
000140 f7 a8 15 3d 1e 47 25 3e 5b 05 98 bd 20 55 32 be
       0.03653809 0.1614041 -0.074228965 -0.17415285
000150 33 28 12 be 82 c1 0c 3e 50 28 3b 3e 25 34 da bd
       -0.14273147 0.13745692 0.18277097 -0.10654477
000160 0c 2e a2 bd 76 94 be bd 38 69 f6 bd 08 0d 56 bd
       -0.07918939 -0.093056604 -0.12031788 -0.05225852
000170 60 71 9c bd f0 7b 22 3d c3 25 a0 3d d6 6d ee bc
       -0.07638812 0.039668977 0.078197025 -0.029105108
000180 0f 69 1a 3d bf 09 c8 bb 92 83 44 bc 61 9e f6 3d
       0.037697848 -0.0061046774 -0.011994259 0.12041927
000190 a3 09 90 3a c1 a0 c0 3d 7e cc 0e be 6d ac 6c 3b
       0.00109892 0.094056614 -0.13945195 0.0036113516
0001a0 d9 21 cb 3d fd ef a9 3d 52 cc 91 be bd 8f 98 3d
       0.09918565 0.08297727 -0.28476197 0.07449291
0001b0 c7 8d 35 3d 2e 01 dc 3c 73 e5 53 3d a9 bc 25 bc
       0.044324663 0.026856031 0.05173249 -0.010115781
0001c0 e6 12 57 3d 29 53 b2 39 4c 66 35 3e 30 86 e0 3d
       0.052508257 0.00034012765 0.17714804 0.10963094
0001d0 e8 c9 83 bc c7 35 39 be a1 58 20 3e 00 fd a8 3e
       -0.016087487 -0.1808692 0.15658809 0.33005524
0001e0 eb 8a a3 3c 66 32 05 bd 37 0d ac bc 4d 1f e6 bd
       0.019963702 -0.032518767 -0.021002395 -0.11236439
0001f0 28 2e 4e 38 8c 74 9d 3d 34 cb 31 3c 99 88 48 bc
       4.9157214e-05 0.07688245 0.01085167 -0.012239599
000200 33 a0 78 3c a5 66 40 bc f5 09 7c bc 5e de 79 3c
       0.015174913 -0.011743222 -0.015383233 0.01525077
000210 50 74 77 3d 4e 62 60 be 0b 91 de 3d 3f 4a f9 3c
       0.06041366 -0.219125 0.108675085 0.030430911
000220 8f 10 38 3e 62 64 24 be f7 13 8f 3d f0 0e 67 be
       0.17975067 -0.16053918 0.0698623 -0.22564292
000230 e6 70 2e 3e 79 78 19 3d 03 f6 7e 3d 03 3e c0 3d
       0.17035255 0.037468407 0.062246334 0.09386828
000240 13 97 f4 3d 7f 31 44 3e 08 c4 42 bd 8a 64 91 3d
       0.119428776 0.19159506 -0.04755023 0.070992544
000250 8e ff 82 3c e5 2b e0 3d 97 22 47 3d c7 6d 26 3d
       0.015990999 0.10945872 0.04861697 0.040632036
000260 64 e7 45 be 3e 15 87 bd 7d a2 2e 3b 88 eb 5b bb
       -0.1932655 -0.065958485 0.0026647144 -0.0033557136
000270 d5 6a 83 3d 69 0b 31 3e 1e f7 de 3c 40 4c 43 3c
       0.06416861 0.17289509 0.027217444 0.011920035
000280 ba 92 29 bb ae 5c d8 bb a8 a2 bb 3b cf d4 b5 3d
       -0.002587481 -0.006602845 0.0057261772 0.08878481
000290 96 ab f7 3d 37 33 bc bd ad e3 14 be 99 c1 1a 3e
       0.12093274 -0.09189456 -0.14539976 0.15112914
0002a0 ca 79 f7 3d aa c8 2b 3d e3 53 56 be da d4 01 3c
       0.12083776 0.041939415 -0.20930438 0.007924283
0002b0 fa 8f 00 be 9b 7b 0e 3e ed 07 6b bd ea 8f 89 3b
       -0.12554923 0.13914339 -0.057380605 0.004198064
0002c0 aa 8c 0f bd c7 71 aa 3d 53 49 ef bd a4 97 36 be
       -0.035046257 0.083224826 -0.11683907 -0.17831284
0002d0 f0 08 e7 bd 6a 61 47 3c 30 fc 8b 3d f4 07 7d 3d
       -0.112810016 0.012169221 0.0683521 0.061775163
0002e0 eb 5b 52 bd 8a 4a be bd 69 52 25 3e d4 a8 5d 3d
       -0.05135719 -0.09291561 0.16144718 0.054116085
0002f0 4f ef 97 3d 4a 0a 47 bd 0c d6 24 3b a0 05 01 bc
       0.07418691 -0.048593797 0.0025151996 -0.007874876
000300 b8 e2 20 3e a4 88 e2 bd a2 82 06 be 6b b2 aa 3d
       0.15711486 -0.110612184 -0.1313577 0.08334812
000310 4f ab 26 bd b1 e3 83 bd 3c 82 ec bc 07 95 b0 3d
       -0.040690716 -0.06439913 -0.028870694 0.08622175
000320 22 b5 3e 3d 40 6d 31 3e 55 5a 0c 3d e7 47 56 3d
       0.04655946 0.17326832 0.034265835 0.052314665
000330 72 a2 b2 3c e5 21 05 bd 4b 7f c2 3d a3 d6 2a 3e
       0.021805976 -0.032503027 0.094969355 0.1668344
000340 40 f9 b3 3d 3d 22 95 3c 4e ed 98 bd 32 b4 8a 3d
       0.08787775 0.018204803 -0.07467137 0.06772651
000350 7b 5d 9f 3b a1 e9 c8 bd 0a 2a cb 3d 7f c2 44 be
       0.0048634387 -0.09810186 0.09920128 -0.1921482
000360 82 64 9c bc 97 e4 4a bc 88 e0 da bd cf 92 1d bd
       -0.019090895 -0.012383602 -0.10687357 -0.038470086
000370 36 17 3a 3d 1e 6c fa 3b 9c 47 c3 3c d9 4c b5 bc
       0.045432292 0.007642283 0.023837857 -0.02213137
000380 fa 17 17 bd 4c ba 4e bd ae 74 b7 bc f1 0c 86 3d
       -0.0368881 -0.050470635 -0.022394504 0.06545437
000390 de 7c 85 bd d8 0e 95 3d 2d b0 90 3a 61 45 81 bd
       -0.06517957 0.07278222 0.0011038833 -0.06312061
0003a0 54 85 28 bd db 5d 47 3d ba 1f b6 3b 6f 8f fd 3d
       -0.041142777 0.048673492 0.0055579813 0.123808734
0003b0 6a e8 e4 3d 3d 4e 51 be e6 5c b9 3d 0d 10 61 3d
       0.11177142 -0.20440002 0.09050922 0.054946948
0003c0 4b ad f6 3d 77 db b8 3d 87 69 75 3b c1 b4 a3 3c
       0.12044772 0.090262346 0.0037446932 0.019983651
0003d0 1d 36 20 3e 93 f6 18 3c 4f 8a 22 3c 19 a0 9e 3d
       0.15645643 0.009336132 0.009920671 0.0774538
0003e0 f7 6b cd 3d eb 22 39 be 0b 4b 2c bc fd 9a 53 3d
       0.10030358 -0.18079726 -0.0105159385 0.05166148
0003f0 81 09 f6 3c 8e f0 83 3d 03 27 bd 3d db 0e ed 3d
       0.030033829 0.064423665 0.092359565 0.11575099

fc2.bias f4 [64]
000000 b0 c0 02 3d 66 3e e1 3d ae 93 c5 3d d5 20 0f be
       0.031922042 0.1099823 0.09647308 -0.13977368
000010 83 f9 aa bd 7a 2f 43 bd cc d9 d4 bc 8a 08 2c bc
       -0.08348372 -0.0476527 -0.02598276 -0.010500083
000020 b2 58 db bd 21 80 05 3e 26 93 fe 3d 68 fc 2c 3d
       -0.10710277 0.13037159 0.1243041 0.0422329
000030 9c f1 fd 3c 56 d1 11 3d 2c f6 7b bd 81 45 12 be
       0.030998997 0.03560003 -0.061514065 -0.14284326
000040 70 32 46 3d ff a8 0a 3d 07 c8 f4 bd 57 40 05 3e
       0.048387945 0.033852573 -0.11952215 0.13012825
000050 d9 95 81 3d 7d 25 a4 3d 05 9b 3c 3d 70 8e 0a 3e
       0.06327409 0.08014963 0.046046276 0.13530898
000060 21 91 a5 bd 36 78 7e 3d a8 2e c9 3d c1 32 04 3e
       -0.08084322 0.06212636 0.09823352 0.12909986
000070 7a e2 cc 3d b0 5a d8 3c 09 d6 ea bd 9e 4f 02 3c
       0.100041345 0.02641043 -0.11466605 0.0079535525
000080 69 36 37 3e d8 10 b1 3c 04 8c 4d 3e ff 9d 91 3d
       0.1789185 0.021614477 0.20072943 0.071102135
000090 b5 b8 e5 bd ec a9 6b 39 44 b0 94 bc 1b 75 17 3d
       -0.11216871 0.00022474647 -0.018150456 0.036976915
0000a0 13 af 80 3d d0 0d 1f 3e 39 33 c2 3d 65 6b 2d 3e
       0.06283393 0.15532613 0.09482426 0.16935499
0000b0 fe 5e 1c 3e b1 05 f0 bc 78 e7 9f 3c f7 57 95 bd
       0.15270612 -0.029299589 0.019519553 -0.072921686
0000c0 53 0e 0c 3d 0c df b4 bc 6d ca b8 3c 25 4b c6 bd
       0.03419335 -0.022079013 0.022557462 -0.096823014
0000d0 3d f3 64 ba b4 2d c7 bd eb 44 d5 3c 73 6a 80 3d
       -0.0008733755 -0.09725514 0.02603384 0.062703036
0000e0 9a de ef bd c3 3e e9 3b 2e 0f ad 3c 5a 41 f8 bc
       -0.1171238 0.0071180775 0.021125402 -0.0303046
0000f0 86 b1 06 3e 63 c9 df 3d 7c b6 9d 3d 97 60 fb bc
       0.13153657 0.10927083 0.07700822 -0.030685706

fc3.weight f4 [1, 64]
000000 e4 14 1f 3e f8 5a dd 3d 9a d7 4e 3d eb b7 49 be
       0.15535313 0.108083665 0.050498582 -0.19699065
000010 29 1e ec bd eb 1b 9d bd b9 b2 96 3d cf 1e c9 3d
       -0.1152919 -0.076713406 0.073583074 0.098203294
000020 89 8a f9 bd 50 f3 d8 3d ad 60 d0 3d cd f1 d5 3d
       -0.121846266 0.10593283 0.101746894 0.104465105
000030 7d d5 fe 3d 90 fd 11 3e 34 f7 4e be 4c a1 1f be
       0.124430634 0.14256883 -0.20211488 -0.15588874
000040 a4 a0 37 3e 1f 26 84 3d e5 fb 59 be 1d 20 27 3e
       0.17932373 0.064525835 -0.21287496 0.16320844
000050 38 7b 53 be 29 e1 fd 3d ea 67 d2 be 54 0d cd 3d
       -0.20652473 0.123964615 -0.41094905 0.10012308
000060 d9 35 60 3e a6 6e bb 3d 25 d7 04 3e e2 9d d8 3d
       0.21895541 0.09151964 0.12972696 0.10576989
000070 01 1a b5 3d ff 8c e2 3d 50 38 e9 bd 02 77 2d be
       0.088428505 0.11062049 -0.11387694 -0.16939929
000080 49 bb c6 3d 1f 35 25 3e 11 6b bd 3d 84 5c b1 3d
       0.097036906 0.16133545 0.09248937 0.08660224
000090 5c 8a eb bd a7 88 00 be 7a 32 86 3e 6d 8b f1 3d
       -0.11500999 -0.12552129 0.26210386 0.117941715
0000a0 71 d2 b4 3d 4e a7 ba 3d bf f4 14 3e 17 3c 90 3e
       0.08829201 0.09113942 0.14546488 0.28170845
0000b0 90 44 b0 3d 51 45 9e be 9c f6 df bd a2 d9 26 be
       0.08606827 -0.3091226 -0.10935709 -0.16293958
0000c0 5a 28 60 be 59 c4 3d 3e 81 96 c4 3d 76 02 6a be
       -0.21890393 0.18531932 0.09599019 -0.22852501
0000d0 3d 27 dc bd 8a 3e 16 be 4c 7f dd 3d e2 f0 89 3d
       -0.107496716 -0.14672294 0.108152956 0.06735398
0000e0 1f 7f be bd 27 93 79 be 6d 0f 9e be 6d 30 d0 bd
       -0.0930159 -0.2437254 -0.30871144 -0.101654865
0000f0 b8 d8 5c 3e 76 34 f9 3d 01 0d bc 3d 39 d2 ab bd
       0.21567047 0.12168209 0.09182168 -0.08389706
