p2_continuous-control/checkpoint_actor.pth (torch_old, 52545 bytes, 6 tensors)

fc1.weight f4 [128, 33]
0.009611889 0.19802548 -0.14706977 -0.07753041 -0.1473735 -0.021924928 -0.0013204601 -0.0890329
0.33845899 0.23958738 0.123638876 0.07270692 -0.1665829 0.1455172 0.040841166 -0.011029725
-0.024797913 0.026415126 0.11084651 -0.026981467 -0.14248492 -0.09022135 0.16918173 -0.024099864
-0.02894745 -0.30757973 -0.12949267 -0.0013763338 -0.07156086 0.060090683 0.037655357 -0.028984144
0.4578802 0.049099304 -0.1649216 -0.08868276 -0.02727941 -0.09173775 0.0786958 -0.047384616
0.007228069 -0.174148 0.056711007 -0.0012221625 -0.05733419 -0.004321794 0.0033464541 -0.20179752
-0.04371136 -0.11172491 -0.005180141 -0.040927064 -0.035564728 -0.004647662 -0.08933239 0.10359408
-0.03557692 0.02196175 0.11969134 -0.18752082 -0.0733277 -0.023481637 0.07005913 0.13196719
-0.0010349154 -0.3593393 -0.071414426 -0.069902666 -0.23442627 0.16725886 -0.0014879407 0.12339406
0.08995799 0.08386116 0.06410883 0.26367408 0.037498504 0.057675306 -0.13271469 -0.018013034
-0.14953233 0.019735614 -0.19693473 0.015233863 0.069978915 -0.009314974 -0.052923888 -0.060070526
0.098575555 -0.03864763 0.15808955 -0.08860052 0.006560991 0.027904112 0.076394774 -0.035105858
-0.027860675 -0.07006779 0.12484683 -0.079178296 0.041744754 0.25790423 0.03818819 0.041209783
0.014490389 0.06890294 0.063194446 -0.071028955 0.17799796 0.00016308503 0.029550983 -0.061777126
0.067706555 -0.05724531 -0.041038916 0.059875112 0.054950025 -0.10515513 -0.04904917 -0.0972004
0.005891615 0.049558625 -0.112102665 -0.07103143 -0.09108376 -0.14363912 -0.11054614 -0.17046891
0.060668804 0.17893182 0.042134322 0.99798524 0.047223497 -0.11817786 0.16964598 -0.030334596
0.17130625 -0.27156478 0.0529495 -0.09425917 -0.09311767 0.0653327 -0.0765955 -0.09635977
-0.008588538 -0.09315548 -0.087027736 -0.26581177 -0.052879907 0.08554133 -0.039250195 2.8646808e-05
-0.09084923 0.03576909 -0.15657265 -0.13589782 -0.0034442658 -0.18602505 0.1437351 0.032264866
0.21811803 -0.043494925 0.005028786 0.004899241 -0.45965934 -0.060312428 0.12036823 -0.10642136
0.076848574 0.0014109996 0.10182438 -0.03759897 0.007780067 -0.00024669472 -0.18945009 -0.009202328
0.036794726 -0.0077973315 -0.109866664 -0.0024023475 0.07994874 -0.052165713 0.039956577 -0.06281902
0.013594597 0.043277718 0.1374486 -0.08867323 -0.14077282 0.022389688 0.12631787 -0.18629469
0.022936335 0.075525716 0.033990547 -0.11970806 0.02082248 -0.47306633 0.101468295 0.06654784
-0.088266924 0.07873005 -0.18187404 0.0052614766 -0.12275661 0.07788033 0.084040664 0.28652433
0.14969347 0.006197165 -0.23118153 0.1727288 -0.24772848 0.058650665 0.017425077 0.1096395
0.03620215 -0.02032574 -0.033715732 -0.00275472 0.13080797 0.14278708 -0.030275175 -0.15990837
-0.15754043 -0.06651596 -0.21091498 0.05815137 0.08206208 -0.0471527 0.38399732 0.0009169143
-0.061391465 0.16148572 -0.120139085 0.06574461 -0.26221886 -0.132122 -0.019211225 -0.0335748
0.010179759 0.0100366445 0.15232994 0.13949542 -0.18688443 -0.010612035 0.19884495 0.03706728
-0.10129471 -0.064058796 -0.018610189 0.1605306 0.24164353 -0.020391095 -0.12623987 0.110910535
00000000: 2f7b 1d3c 31c7 4a3e 7599 16be 43c8 9ebd
00000010: 14e9 16be e89b b3bc 4a13 adba e256 b6bd
00000020: 7f4a ad3e 6556 753e 6136 fd3d 5ee7 943d
00000030: b594 2abe 7602 153e 1149 273d 05b6 34bc
00000040: fe24 cbbc 8964 d83c 7f03 e33d 3d08 ddbc
00000050: 91e7 11be f9c5 b8bd fa3d 2d3e 146d c5bc
00000060: 3423 edbc 177b 9dbe ba99 04be 1966 b4ba
00000070: 808e 92bd a621 763d 813c 1a3d 2870 edbc
00000080: 466f ea3e 5a1c 493d 35e1 28be 4f9f b5bd
00000090: 1279 dfbc 00e1 bbbd 432b a13d 5f16 42bd
000000a0: 70d9 ec3b da53 32be cd49 683d f830 a0ba
000000b0: 41d7 6abd d69d 8dbb 2f50 5b3b 02a4 4ebe
000000c0: af0a 33bd 08d0 e4bd 2cbe a9bb 23a3 27bd
000000d0: 52ac 11bd 6a4b 98bb e6f3 b6bd 2229 d43d
000000e0: 1bb9 11bd 21e9 b33c bc20 f53d 7505 40be
000000f0: d52c 96bd 905c c0bc 297b 8f3d 6822 073e
00000100: 00a6 87ba 52fb b7be ba41 92bd 2129 8fbd
00000110: 710d 70be e845 2b3e 0107 c3ba 06b6 fc3d
00000120: e53b b83d 66bf ab3d 7e4b 833d 4a00 873e
00000130: 0898 193d f13c 6c3d 5ce6 07be 1290 93bc
00000140: 011f 19be 95ac a13c 42a9 49be 7497 793c
00000150: 1b51 8f3d d59d 18bc b8c6 58bd 830c 76bd
00000160: fbe1 c93d fa4c 1ebd 3ae2 213e 3074 b5bd
00000170: 95fd d63b 2a97 e43c dd74 9c3d 29cb 0fbd
00000180: 123c e4bc b47f 8fbd b2af ff3d 3b28 a2bd
00000190: 8cfc 2a3d 060c 843e 386b 1c3d 97cb 283d
000001a0: 1969 6d3c fc1c 8d3d 176c 813d a177 91bd
000001b0: 1945 363e ce01 2b39 e714 f23c 030a 7dbd
000001c0: bca9 8a3d 0f7a 6abd 6c18 28bd 9b3f 753d
000001d0: 4713 613d 935b d7bd c8e7 48bd 0111 c7bd
000001e0: 730e c13b fcfd 4a3d 1596 e5bd ed78 91bd
000001f0: 1f8a babd 2216 13be 0466 e2bd 678f 2ebe
00000200: da7f 783d e739 373e 0a95 2c3d f67b 7f3f
00000210: 6d6d 413d 3c07 f2bd adb7 2d3e 4280 f8bc
00000220: e86a 2f3e 8a0a 8bbe 93e1 583d f40a c1bd
00000230: 7ab4 bebd 27cd 853d 1ade 9cbd 4558 c5bd
00000240: f0b6 0cbc 4dc8 bebd 993b b2bd 7b18 88be
00000250: 9a98 58bd 4b30 af3d d0c4 20bd 8d4e f037
00000260: 290f babd 9c82 123d 9554 20be cc28 0bbe
00000270: 31b9 61bb 5a7d 3ebe 4b2f 133e 2a28 043d
00000280: 555a 5f3e bc27 32bd 84c8 a43b d089 a03b
00000290: 7858 ebbe 2a0a 77bd 9e83 f63d 71f3 d9bd
000002a0: c962 9d3d 4af1 b83a 4d89 d03d 6101 1abd
000002b0: efef fe3b ce56 81b9 34ff 41be 5cc5 16bc
000002c0: 11b6 163d c280 ffbb c601 e1bd b470 1dbb
000002d0: 2abc a33d b7ab 55bd 82a9 233d 42a7 80bd
000002e0: dfbb 5e3c fa43 313d 53bf 0c3e 4f9a b5bd
000002f0: c026 10be 946a b73c 7959 013e 09c4 3ebe
00000300: fbe4 bb3c 3aad 9a3d ac39 0b3d 8029 f5bd
00000310: e893 aa3c c035 f2be 9cce cf3d 3c4a 883d
00000320: 4ac5 b4bd 383d a13d 303d 3abe 7768 ac3b
00000330: d167 fbbd b97f 9f3d 831d ac3d 51b3 923e
00000340: 3f49 193e 9711 cb3b daba 6cbe d2df 303e
00000350: 89ac 7dbe ae3b 703d 09bf 8e3c ad8a e03d
00000360: b548 143d 2b82 a6bc 8219 0abd 8888 34bb
00000370: 86f2 053e c736 123e a503 f8bc 05bf 23be
00000380: 4752 21be 8539 88bd 19fa 57be 2230 6e3d
00000390: 2a10 a83d 3123 41bd 4c9b c43e 145d 703a
000003a0: 9e75 7bbd 835c 253e 7b0b f6bd 1ca5 863d
000003b0: 8d41 86be fd4a 07be dc60 9dbc bb85 09bd
000003c0: 01c9 263c bd70 243c 61fc 1b3e e3d7 0e3e
000003d0: a25e 3fbe 1ade 2dbc 039e 4b3e dcd3 173d
000003e0: 9a73 cfbd 4231 83bd 6574 98bc 2262 243e
000003f0: 6771 773e 3a0b a7bc 0645 01be 1025 e33d

fc1.bias f4 [128]
0.067784145 -0.07345756 0.008830542 0.16093785 -0.0017236866 -0.06058932 0.029292447 -0.24397007
0.1016512 0.11445994 -0.029371148 -0.031878483 -0.22627851 -0.30183837 0.1975046 0.21631482
0.00860983 -0.20475334 -0.12738302 -0.004455727 -0.15448692 0.041134596 -0.18542866 0.037785184
0.22159252 0.16316508 -0.24396996 0.023517944 0.023687787 0.007061012 -0.14590852 0.058786254
-0.08530721 0.09428523 0.16214831 0.006949636 -0.03965772 0.026663862 0.15660189 -0.007833998
0.26419616 0.21899931 0.0227634 -0.16391431 0.21676692 0.059355754 0.07066617 -0.011331814
0.020343058 0.23302278 0.029267315 0.014796776 0.08940401 0.15328446 0.058087718 0.042611644
0.2511642 0.13871174 -0.11549046 -0.028232958 -0.10585811 -0.21814626 -0.11082876 -0.008883881
0.03182689 0.027607318 -0.016284492 0.18550338 -0.0017287754 0.15325123 0.0077201882 0.13311282
0.22604242 -0.05627588 0.082712226 0.14789306 0.19908884 -0.24565734 -0.13608347 0.010188701
0.004017719 0.06755693 0.22830346 -0.14016187 -0.11873876 0.18742919 0.3828956 0.12374061
0.27854368 0.30494362 0.16771512 0.16386457 -0.24181463 0.12698519 0.06479705 -0.19376206
-0.0222006 0.18671373 -0.29326057 0.34031036 -0.14475843 0.059320975 0.09904857 -0.16784662
-0.05827744 0.013768044 0.01200263 -0.09266761 0.2784965 0.074301004 0.1425676 -0.18182245
0.0577522 -0.121961236 -0.101029225 -0.07157092 0.2600505 0.23103178 0.12513866 -0.08328929
0.14812526 0.17024589 0.06441008 0.14956002 0.2646148 -0.017027384 0.007286544 0.17564459
00000000: 6ad2 8a3d eb70 96bd faad 103c e4cc 243e
00000010: 53ed e1ba 822c 78bd b7f6 ef3c 4ad3 79be
00000020: 812e d03d f969 ea3d c39b f0bc 0393 02bd
00000030: 8eb5 67be 8f8a 9abe a53e 4a3e a281 5d3e
00000040: 3f10 0d3c dcaa 51be b270 02be 5901 92bb
00000050: d231 1ebe c07c 283d 03e1 3dbe a3c4 1a3d
00000060: 26e9 623e bf14 273e 43d3 79be b4a8 c03c
00000070: e40c c23c 1060 e73b 0b69 15be dbc9 703d
00000080: 8cb5 aebd 9d18 c13d 350a 263e c6b9 e33b
00000090: 2270 22bd 2c6e da3c 3f5c 203e 2b5a 00bc
000000a0: b844 873e 5b41 603e 4f7a ba3c 27d9 27be
000000b0: 26f8 5d3e 051f 733d 6db9 903d 13a9 39bc
000000c0: 7ca6 a63c 869d 6e3e 02c2 ef3c 2d6e 723c
000000d0: 7319 b73d 9af6 1c3e 63ed 6d3d 8c89 2e3d
000000e0: 9898 803e 730a 0e3e 4386 ecbd ce48 e7bc
000000f0: 23cc d8bd bc61 5fbe 30fa e2bd b38d 11bc
00000100: ea5c 023d be28 e23c 0e67 85bc 99f4 3d3e
00000110: 1498 e2ba e4ed 1c3e a2f9 fc3b ba4e 083e
00000120: aa77 673e 8a81 66bd 0765 a93d 4771 173e
00000130: f2dd 4b3e 998d 7bbe 7759 0bbe 82ee 263c
00000140: 12a7 833b 4a5b 8a3d 62c8 693e 9886 0fbe
00000150: 4f2d f3bd 70ed 3f3e e40a c43e b86b fd3d
00000160: 479d 8e3e 9221 9c3e 83bd 2b3e 1dcc 273e
00000170: 419e 77be 6808 023e 51b4 843d 9069 46be
00000180: 08de b5bc e231 3f3e 4026 96be 293d ae3e
00000190: 8e3b 14be 8dfa 723d fad9 ca3d fcdf 2bbe
000001a0: 53b4 6ebd 5d93 613c aea6 443c 84c8 bdbd
000001b0: 1897 8e3e 202b 983d 3efd 113e aa2f 3abe
000001c0: 928d 6c3d d0c6 f9bd 69e8 cebd c693 92bd
000001d0: 5725 853e 9893 6c3e 5924 003e 9393 aabd
000001e0: 26ae 173e f054 2e3e 6fe9 833d 4326 193e
000001f0: 977b 873e 037d 8bbc f6c3 ee3b 2ddc 333e

fc2.weight f4 [64, 128]
0.3050439 0.038503125 0.08214954 -0.01414853 0.03751862 0.04007777 0.0002475076 -0.035340536
0.14605233 -0.39671755 0.042554155 0.18983544 -0.28520212 -0.18833132 -0.19518586 -0.0067310953
-0.20657673 -0.12990537 0.20170452 0.08014563 -0.23611213 -0.37435734 -0.017109595 0.116924845
0.067906186 -0.21729971 0.38012645 -0.19050038 0.017890507 0.10177772 -0.09962782 0.01723603
0.062089812 0.07149769 -0.015548341 -0.57276 0.25476572 0.02402107 0.08384585 0.22388132
0.2561832 -0.087723605 0.08202935 -0.10198583 -0.17190245 0.06679373 0.1841256 -0.10536786
-0.03521202 -0.032615785 0.24011815 0.029819123 0.06282746 0.36132786 -0.1939856 -0.154405
0.3263859 -0.028687956 -0.08252737 0.16482893 0.07338035 -0.015213669 -0.46627563 0.190908
-0.19183627 0.07400037 -0.11712633 -0.32869288 -0.035610743 -0.012634483 -0.07405821 -0.15210134
-0.122353464 -0.25293714 -0.33574376 0.27732068 -0.043909464 0.07318756 -0.08357691 -0.18244879
0.056344233 0.07023661 -0.31670564 -0.03412557 -0.30024067 0.15221362 -0.01941073 0.18921982
0.14526185 -0.20691973 0.19239306 0.15721434 -0.19525795 0.05852237 -0.25480962 -0.103290595
0.077666044 -0.055631936 -0.16973566 0.15802173 -0.20466334 -0.008040111 0.059922375 0.11963369
-0.100066 0.027531143 -0.25350007 0.06435598 -0.20349464 0.196082 0.20987104 -0.103041686
0.20273267 -0.2476497 0.07896181 0.031669337 -0.20627443 0.035912964 0.024112236 -0.048797283
0.19578375 -0.08194046 -0.054757446 -0.12509225 0.1691099 0.19493842 -0.15129814 0.14815001
0.1998199 0.24402851 -0.09385208 0.029062329 0.18353003 -0.04941618 0.119903624 -0.033197686
0.08542505 -0.178841 0.21111639 0.043144923 -0.1265561 -0.123789795 -0.22371128 -0.08335064
-0.022037448 -0.20982379 -0.10021698 0.011432377 -0.083583966 -0.10551889 -0.012758121 0.33990183
-0.039848477 -0.24056712 0.2756562 0.019903382 -0.07727394 0.06850869 -0.118019894 -0.04323514
0.17822798 -0.10043819 0.09936003 0.056846462 -0.054938536 -0.13229989 -0.09628805 -0.25931478
0.057240948 0.13337728 -0.08122625 -0.14988227 0.020616781 -0.13112213 0.062885605 -0.005828251
0.20387211 0.0778241 0.23785347 -0.06789465 0.11664886 0.06545636 -0.32068086 0.034249663
-0.08973652 -0.19908483 0.077136874 0.22334352 0.04769415 -0.09773398 0.15272088 0.17589355
0.15089941 0.29027376 -0.10440771 0.19152859 0.01547147 0.15263668 -0.17815968 0.119689606
-0.36993656 0.1651431 0.14929654 0.06431036 0.14860377 0.023591219 0.14444588 -0.21868661
-0.06477148 -0.024537195 -0.057961717 0.29673257 0.049331143 -0.10410052 -0.46655363 -0.09917114
-0.32911128 -0.022180758 0.21775798 0.124147475 0.2261724 -0.09903753 0.1559305 -0.046077076
-0.08728162 0.081700444 -0.00591187 -0.13978869 -0.039821398 0.13649875 0.079121746 -0.028797762
0.2715733 -0.10660674 0.1998799 0.120420106 -0.26252007 0.13390559 0.37414682 0.017368827
-0.18189575 -0.12351346 0.10251931 -0.19415402 -0.2116045 0.112306155 -0.014511101 0.55808955
-0.08306839 -0.09830634 0.2098681 -0.2465528 -0.060531154 -0.027660089 -0.43309155 0.013693568
00000000: b72e 9c3e 74b5 1d3d 053e a83d 3ccf 67bc
00000010: 20ad 193d 9628 243d e8c3 8139 3dc1 10bd
00000020: be8e 153e 901e cbbe 444d 2e3d 3964 423e
00000030: 0306 92be edd9 40be cdde 47be 8590 dcbb
00000040: da88 53be ea05 05be a18b 4e3e 6423 a43d
00000050: 61c7 71be c4ab bfbe 6c29 8cbc 4b76 ef3d
00000060: 6612 8b3d d183 5ebe ef9f c23e 8812 43be
00000070: 1d8f 923c d670 d03d ac09 ccbd 9332 8d3c
00000080: e351 7e3d 626d 923d 78be 7ebc 66a0 12bf
00000090: a770 823e d6c7 c43c 5fb7 ab3d 2541 653e
000000a0: 722a 833e 6fa8 b3bd 01ff a73d f2dd d0bd
000000b0: 3207 30be 27cb 883d 6c8b 3c3e 1bcb d7bd
000000c0: 7b3a 10bd 2198 05bd 88e1 753e 3c47 f43c
000000d0: afab 803d f7ff b83e 29a4 46be 581c 1ebe
000000e0: 0d1c a73e 0103 ebbc 1c04 a9bd eac8 283e
000000f0: 7048 963d c142 79bc aebb eebe 637d 433e
00000100: ba70 44be 828d 973d eedf efbd 6f4a a8be
00000110: 92dc 11bd dd00 4fbc d5ab 97bd 74c0 1bbe
00000120: 7494 fabd fa80 81be 9be6 abbe fafc 8d3e
00000130: 69da 33bd 5ce3 953d 5f2a abbd dbd3 3abe
00000140: 36c9 663d 36d8 8f3d 3e27 a2be 41c7 0bbd
00000150: 25b9 99be e3dd 1b3e 4003 9fbc d7c2 413e
00000160: 86bf 143e c4e2 53be b002 453e ccfc 203e
00000170: b3f1 47be 27b5 6f3d 6876 82be 058a d3bd
00000180: 600f 9f3d 50de 63bd 2fcf 2dbe 73d0 213e
00000190: 4493 51be abba 03bc 2a71 753d 8202 f53d
000001a0: 67ef ccbd fe88 e13c c3ca 81be 11cd 833d
000001b0: e660 50be b8c9 483e 6fe8 563e 8507 d3bd
000001c0: 2799 4f3e e297 7dbe bbb6 a13d b5b7 013d
000001d0: 9b39 53be 7919 133d 0687 c53c a9df 47bd
000001e0: 897b 483e 66d0 a7bd 5849 60bd 2f18 00be
000001f0: 252b 2d3e f09d 473e e6ed 1abe a3b4 173e
00000200: 969d 4c3e 9ce2 793e 8535 c0bd 1f14 ee3c
00000210: 4cef 3b3e 9f68 4abd 0890 f53d 4cfa 07bd
00000220: 54f3 ae3d 1822 37be e52e 583e bbb8 303d
00000230: ec97 01be 8185 fdbd 9214 65be beb3 aabd
00000240: e187 b4bc 0cdc 56be 8f3e cdbd dd4e 3b3c
00000250: 122e abbd 4a1a d8bd 7007 51bc 9d07 ae3e
00000260: 2838 23bd 3a57 76be cf22 8d3e 6b0c a33c
00000270: cd41 9ebd 494e 8c3d 6ab4 f1bd 5517 31bd
00000280: 6581 363e 8ab2 cdbd 457d cb3d d6d7 683d
00000290: 3b07 61bd 9f79 07be ab32 c5bd e8c4 84be
000002a0: 7c75 6a3d 0e94 083e f359 a6bd bd7a 19be
000002b0: 86e4 a83c e144 06be 2bca 803d eafa bebb
000002c0: dac3 503e 3e62 9f3d dc8f 733e 5a0c 8bbd
000002d0: 99e5 ee3d fc0d 863d 4830 a4be 6049 0c3d
000002e0: c8c7 b7bd e5dc 4bbe f0f9 9d3d 2ab4 643e
000002f0: f15a 433d c128 c8bd dd62 1c3e 701d 343e
00000300: 6085 1a3e c39e 943e b6d3 d5bd 1220 443e
00000310: 0c7c 7d3c ca4c 1c3e 7e6f 36be d31f f53d
00000320: 5368 bdbe 461b 293e 31e1 183e 26b5 833d
00000330: 962b 183e 5f42 c13c 9fe9 133e 62ef 5fbe
00000340: e9a6 84bd 3a02 c9bc 4469 6dbd 55ed 973e
00000350: 740f 4a3d a732 d5bd 1ee0 eebe 3d1a cbbd
00000360: 4681 a8be 6cb4 b5bc f3fb 5e3e 0841 fe3d
00000370: bd99 673e 30d4 cabd 3fac 1f3e 51bb 3cbd
00000380: b5c0 b2bd 9052 a73d 5cb8 c1bb c424 0fbe
00000390: c31b 23bd 54c6 0b3e 950a a23d 49e9 ebbc
000003a0: a80b 8b3e a254 dabd 51ad 4c3e d19e f63d
000003b0: 0869 86be 8c1e 093e 2c90 bf3e 1249 8e3c
000003c0: e142 3abe a0f4 fcbd a5f5 d13d 50d0 46be
000003d0: daae 58be c500 e63d f8bf 6dbc f5de 0e3f
000003e0: c31f aabd d654 c9bd aae7 563e 5678 7cbe
000003f0: 84ef 77bd 6997 e2bc 2dbe ddbe fd5a 603c

fc2.bias f4 [64]
-0.0049051465 -0.052035786 -0.033345994 -0.068448864 -0.08395038 0.09540784 -0.031291015 -0.08206348
0.012582052 0.030824209 -0.03725565 0.031013176 -0.010107532 0.020936418 0.090582214 0.05700782
0.047702163 -0.1279081 0.08873446 0.09648438 0.013287027 0.0905113 -0.05421741 -0.10732178
-0.08929036 -0.038420618 -0.038950745 0.06347437 0.19797756 0.06881201 0.06049484 -0.08405956
0.012377286 -0.03629103 -0.054517597 -0.026838973 0.005963623 0.030647954 -0.07871851 0.093154214
-0.081236355 -0.083651654 0.026130565 -0.049855944 0.0071932888 -0.057839356 -0.01729505 0.025449893
-0.021024179 0.05858076 -0.048735995 0.1060794 -0.077010706 -0.009378974 -0.01713543 -0.018726131
0.11177519 0.061189562 0.039127775 0.065644264 -0.09757925 0.001620685 -0.037442263 0.06869471
00000000: 5abb a0bb 7a23 55bd cf95 08bd eb2e 8cbd
00000010: 2dee abbd 3065 c33d 022b 00bd e610 a8bd
00000020: f324 4e3c 0d83 fc3c 6199 18bd 580f fe3c
00000030: 109a 25bc da82 ab3c 2b83 b93d 0881 693d
00000040: 5863 433d 57fa 02be 6aba b53d 9a99 c53d
00000050: d5b1 593c fd5d b93d 1313 5ebd 85cb dbbd
00000060: dddd b6bd f05e 1dbd d18a 1fbd dafe 813d
00000070: a1ba 4a3e 50ed 8c3d 70c9 773d 6b27 acbd
00000080: 1aca 4a3c e7a5 14bd d84d 5fbd 68dd dbbc
00000090: 7f6a c33b 6b11 fb3c 2c37 a1bd a3c7 be3d
000000a0: 3f5f a6bd 8f51 abbd c40f d63c bf35 4cbd
000000b0: aeb5 eb3b f6e8 6cbd 59ae 8dbc 4b7c d03c
000000c0: e63a acbc 61f2 6f3d 659f 47bd 2840 d93d
000000d0: cab7 9dbd 45aa 19bc 9a5f 8cbc 8b67 99bc
000000e0: 64ea e43d e8a1 7a3d 7244 203d 8070 863d
000000f0: a1d7 c7bd 2a6d d43a 0f5d 19bd d0af 8c3d

fc3.weight f4 [4, 64]
-0.4314341 0.6306736 -0.24578924 0.15787727 0.019688193 -0.25296596 0.09420554 0.42340338
0.14342254 0.13327192 0.14450239 0.10295168 -0.651124 0.011216658 0.07166887 -0.005332757
-0.097280435 0.09690286 0.46275544 0.027268035 -0.25043023 0.1019683 0.0038791103 -0.18234377
0.37203556 0.05443438 -0.36709803 0.07075268 0.1215393 -0.17338951 -0.21931674 -0.47099853
-0.09522228 -0.02589647 0.15916803 -0.19647223 0.024385668 -0.34081563 -0.032191623 0.1682182
-0.012572373 0.062484127 -0.64104134 -0.37655836 -0.14795907 0.07758604 -0.8751563 0.44394487
0.1337003 -0.1519997 -0.00471103 -0.18427749 -0.2147053 -0.07228313 -0.30985126 -0.08634701
-0.10901008 0.12751596 -0.18559471 -0.17340821 -0.1092301 -0.4917872 0.18573084 -0.26512983
-0.1826389 -0.28998902 -0.109491736 -0.07327204 -0.66189885 -0.26557246 0.030575773 -0.61201143
0.12892236 0.23159045 -0.3327416 -0.09841626 -0.26775947 -0.27987543 0.094482355 0.1428279
0.022182282 -0.43740717 -0.34755677 0.069963396 0.033720337 -0.07739162 -0.1967225 0.026150493
-0.10161764 -0.028091798 -0.08025436 0.0045670825 0.1636047 0.20205465 0.38770768 -0.017243138
0.093378514 -0.0037725829 -0.06675694 -0.33734933 -0.0006542708 0.49634784 0.14675753 0.022068743
0.03976005 -0.9883976 0.15946731 0.19547844 0.11096482 -0.21404183 0.33381647 -0.20174164
-0.01833417 -0.15052573 0.014521936 -0.14823265 0.15831926 0.14548166 0.2977958 0.1878691
-0.52735543 -0.2895634 0.039093506 0.22295693 0.17851797 -0.24826972 -0.04997497 0.12726292
-0.18245752 -0.25172415 0.07848484 0.07605132 -0.029751118 -0.025767097 -0.09490386 -0.28670856
0.10585326 0.03606613 -0.25512838 0.04220325 -0.50513786 0.15878224 -0.14673263 -0.15067382
0.1486528 -0.33442935 -0.27002046 -0.12975565 -0.005070375 0.087451704 0.2131945 -0.43399352
-0.0011994212 -0.22728197 -0.15702714 -0.16014649 0.083404586 0.13169163 -1.5390102 -0.11565341
0.2758005 -0.06781781 0.07749169 0.1345264 0.0700976 0.20416866 -0.020904882 0.09093665
0.06581833 0.04547845 0.20883216 0.039022993 -0.113132335 0.11850934 0.10207271 -1.0847152
-0.06771933 0.059992287 0.53722674 -0.13922788 0.050662782 -0.09767971 0.31019065 0.07230615
-0.012466502 -0.17281224 0.0982398 0.03475283 0.014256868 0.07518449 0.24608113 0.11345722
0.07300316 -0.018082492 0.025245357 0.07303682 -0.6594738 -0.10425977 -0.004749144 0.5884384
-0.05571216 -0.0828962 -0.06291314 -0.08094433 0.52159876 0.20946828 -0.044296008 0.044578817
0.12498926 0.07567369 0.29341903 -0.12235899 0.24710727 0.033179436 0.07119777 -0.09831151
-0.022615012 -0.030146427 -0.06467886 -0.02253002 -0.14403728 -0.009202011 -0.022740683 -0.031555563
-0.2262418 0.36166474 0.039718468 0.08376982 -0.08425703 -0.0819819 0.056014676 -0.036870226
0.1385937 0.094213255 0.024272615 -0.046620987 -0.05430693 0.13981092 -0.13687244 -0.10531713
0.30228853 -0.05125078 0.13205624 -0.046297334 -0.18939824 0.1551912 -0.12889248 0.32328814
0.02676492 0.02592459 -0.13044435 -0.046194106 0.21491477 -0.048569705 0.31167266 0.06408076
00000000: eee4 dcbe d373 213f 2db0 7bbe 94aa 213e
00000010: 2249 a13c c184 81be d6ee c03d 54c8 d83e
00000020: 5cdd 123e 6f78 083e 6ff8 133e 55d8 d23d
00000030: 10b0 26bf 13c6 373c 21c7 923d 68be aebb
00000040: f73a c7bd 0275 c63d 48ee ec3e 3761 df3c
00000050: 6438 80be c2d4 d03d ac38 7e3b 53b8 3abe
00000060: 727b be3e 96f6 5e3d 46f4 bbbe c8e6 903d
00000070: 99e9 f83d 058d 31be 9194 60be b826 f1be
00000080: e603 c3bd d524 d4bc f2fc 223e 0430 49be
00000090: 74c4 c73c 637f aebe 5ddb 03bd 6441 2c3e
000000a0: 5bfc 4dbc 5bef 7f3d 491b 24bf 42cc c0be
000000b0: 9582 17be 6ee5 9e3d 3e0a 60bf be4c e33e
000000c0: bbe8 083e cfa5 1bbe fc5e 9abb 3db3 3cbe
000000d0: b5db 5bbe 2d09 94bd d3a4 9ebe b4d6 b0bd
000000e0: ad40 dfbd 8b93 023e 8a0c 3ebe ec91 31be
000000f0: 08b4 dfbd 88cb fbbe 3a30 3e3e 19bf 87be
00000100: b105 3bbe 7179 94be 343d e0bd a70f 96bd
00000110: 3472 29bf 1df9 87be 0b7a fa3c c8ac 1cbf
00000120: 3904 043e 0c26 6d3e 1b5d aabe 778e c9bd
00000130: c517 89be d54b 8fbe f77f c13d 7a41 123e
00000140: 9eb7 b53c d5f3 dfbe f6f2 b1be f848 8f3d
00000150: 561e 0a3d 7f7f 9ebd 9f71 49be 8f39 d63c
00000160: e91c d0bd c520 e6bc 665c a4bd 77a7 953b
00000170: fe87 273e 6ae7 4e3e 9f81 c63e 7b41 8dbc
00000180: 3c3d bf3d 703d 77bb ddb7 88bd 0db9 acbe
00000190: 5f83 2bba 4e21 fe3e 9b47 163e 82c9 b43c
000001a0: 6fdb 223d a007 7dbf 664b 233e 802b 483e
000001b0: 8641 e33d c82d 5bbe fee9 aa3e 5c95 4ebe
000001c0: 8b31 96bc 6b23 1abe 6aed 6d3c 4dca 17be
000001d0: 721e 223e 25f9 143e b178 983e c260 403e
000001e0: c400 07bf a741 94be 8320 203d d24e 643e
000001f0: 6acd 363e 6b3a 7ebe 8eb2 4cbd 3651 023e
00000200: 25d6 3abe fde1 80be a9bc a03d cbc0 9b3d
00000210: 9eb8 f3bc 8515 d3bc f45c c2bd 77cb 92be
00000220: 98c9 d83d 14ba 133d 30a0 82be 51dd 2c3d
00000230: b750 01bf d097 223e 1441 16be 3d4a 1abe
00000240: 7138 183e 533a abbe 1f40 8abe aade 04be
00000250: 6325 a6bb e119 b33d a94f 5a3e 6634 debe
00000260: e635 9dba 9bbc 68be b9cb 20be 71fd 23be
00000270: 06d0 aa3d 2cda 063e 49fe c4bf b2db ecbd
00000280: b935 8d3e 10e4 8abd f7b3 9e3d 4ac1 093e
00000290: 558f 8f3d 9711 513e b740 abbc ff3c ba3d
000002a0: c3cb 863d 9c47 3a3d 19d8 553e 93d6 1f3d
000002b0: edb1 e7bd 06b5 f23d 7f0b d13d f3d7 8abf
000002c0: 6fb0 8abd 79ba 753d b187 093f c191 0ebe
000002d0: c783 4f3d 4d0c c8bd 4fd1 9e3e 3f15 943d
000002e0: 4d40 4cbc b1f5 30be f331 c93d fc58 0e3d
000002f0: a395 693c 53fa 993d b1fc 7b3e 425c e83d
00000300: ae82 953d bc21 94bc 5acf ce3c 5494 953d
00000310: 46d3 28bf 2586 d5bd b59e 9bbb e6a3 163f
00000320: 6f32 64bd 7cc5 a9bd 9bd8 80bd 24c6 a5bd
00000330: 7f87 053f da7e 563e bb6f 35bd 4798 363d
00000340: 5ffa ff3d cffa 9a3d 053b 963e 5a97 fabd
00000350: b009 7d3e 29e7 073d 23d0 913d 8c57 c9bd
00000360: 1e43 b9bc a4f5 f6bc 5a76 84bd e090 b8bc
00000370: 827e 13be 08c4 16bc ab4a babc 6840 01bd
00000380: eeab 67be 1f2c b93e d5af 223d 838f ab3d
00000390: f38e acbd 20e6 a7bd a56f 653d 3c05 17bd
000003a0: 82eb 0d3e e1f2 c03d 5dd7 c63c a6f5 3ebd
000003b0: f270 5ebd 982a 0f3e 4a28 0cbe 82b0 d7bd
000003c0: 90c5 9a3e 56ec 51bd c039 073e 46a2 3dbd
000003d0: 9df1 41be 71ea 1e3e 64fc 03be 0686 a53e
000003e0: 1b42 db3c ce5f d43c 3493 05be 0836 3dbd
000003f0: 9e12 5c3e 07f1 46bd 8f93 9f3e c63c 833d

fc3.bias f4 [4]
-0.042676516 0.15903218 0.07153479 -0.019508414
00000000: 92cd 2ebd 55d9 223e d580 923d 1cd0 9fbc
